test data/Debugging test-a/[40 [0, 0.5, 0, 0.5], 0.01, 1, 0.01, 0.001, 600, 1000],48/t/min_weights.pth (torch, 334423 bytes, 841 tensors)

mixer_1.PatchMixer.mlp.0.weight f4 [48, 48]
0	0xa72f1f67	-2.4303152e-15
1	0x27ed0a70	6.579203e-15
2	0xa84ce2da	-1.13734654e-14
3	0xa805328a	-7.393942e-15
4	0xa819bd2b	-8.534225e-15
5	0x27d5c314	5.933088e-15
6	0x28413f38	1.07273606e-14
7	0xa819cde5	-8.537852e-15
8	0xa6a225b6	-1.125123e-15
9	0xa84248ce	-1.078495e-14
10	0xa6866e6e	-9.32805e-16
11	0xa6f5fe34	-1.7069192e-15
12	0x27ee2bee	6.61059e-15
13	0x283259f8	9.900494e-15
14	0x2806fb94	7.4930466e-15
15	0xa71feb71	-2.2193316e-15
16	0x27e060df	6.2277517e-15
17	0x2843b061	1.08629206e-14
18	0xa82ea947	-9.6956465e-15
19	0x27a1f6b7	4.4953966e-15
20	0xa794b83c	-4.1278e-15
21	0xa7ddf8aa	-6.1609424e-15
22	0xa7c25936	-5.394254e-15
23	0x28587828	1.2016463e-14
24	0xa7c10a17	-5.35792e-15
25	0xa808865d	-7.578652e-15
26	0x28311466	9.829897e-15
27	0x28078447	7.5226885e-15
28	0xa81ebd03	-8.811747e-15
29	0xa7faeb5b	-6.964411e-15
30	0x2853e370	1.17621706e-14
31	0xa81b64ef	-8.626115e-15
32	0x2803ba88	7.312408e-15
33	0xa8138e1d	-8.190955e-15
34	0x25b4b012	3.1344332e-16
35	0xa7e746b0	-6.419202e-15
36	0xa817653c	-8.4041355e-15
37	0x28269231	9.246551e-15
38	0xa70a4d53	-1.9193265e-15
39	0x277f0624	3.5391688e-15
40	0x2833f232	9.989014e-15
41	0x2787e485	3.771779e-15
42	0xa82bed29	-9.543833e-15
43	0x26e700ac	1.6029027e-15
44	0x282f4802	9.730066e-15
45	0xa857490f	-1.19507396e-14
46	0xa6ae0567	-1.207514e-15
47	0x282dd6d2	9.650011e-15
48	0xa67db211	-8.8018333e-16
49	0x282cfcc9	9.602732e-15
50	0xa1e68627	-1.5620916e-18
51	0xa7b8e2f5	-5.1316326e-15
52	0x27c0f037	5.3551147e-15
53	0xa8584b0c	-1.2006682e-14
54	0x270b8250	1.9360768e-15
55	0xa8084d50	-7.566281e-15
56	0x2847db32	1.10942495e-14
57	0xa78cf6ee	-3.9125528e-15
58	0x28305cb0	9.790061e-15
59	0x285a6900	1.2124199e-14
60	0x2806f9f8	7.492698e-15
61	0x27548d2e	2.9497444e-15
62	0x27b93861	5.140894e-15
63	0xa8309d41	-9.804062e-15
64	0x27ba92ee	5.1784672e-15
65	0xa7bf2c26	-5.3061015e-15
66	0x27f290a1	6.73253e-15
67	0xa85e9dbe	-1.23576805e-14
68	0x27f9bf96	6.93191e-15
69	0x2751f29a	2.9136091e-15
70	0xa6fe32a2	-1.7638515e-15
71	0x279a63f8	4.2851973e-15
72	0xa626f30b	-5.7922204e-16
73	0xa802a12c	-7.251398e-15
74	0x27ed0b09	6.579268e-15
75	0xa784794d	-3.6768874e-15
76	0x26a3adc8	1.1357501e-15
77	0xa723b101	-2.2716748e-15
78	0xa836f702	-1.0156591e-14
79	0xa6d10c4a	-1.4505619e-15
80	0x282a46f0	9.452278e-15
81	0x27c55cd0	5.477911e-15
82	0xa831a417	-9.861055e-15
83	0xa7684104	-3.2231713e-15
84	0xa7c5d7b3	-5.4912346e-15
85	0x283aa26e	1.03602955e-14
86	0x26aa2f64	1.1808965e-15
87	0x2718da25	2.1212494e-15
88	0xa81d6c36	-8.738715e-15
89	0x27be6c02	5.2852696e-15
90	0xa85d097b	-1.227002e-14
91	0xa6eadf54	-1.6297545e-15
92	0x263a2409	6.458055e-16
93	0x28461525	1.0995793e-14
94	0xa6a25673	-1.126444e-15
95	0xa79f1cf9	-4.4162777e-15
96	0xa804b503	-7.366723e-15
97	0xa7c241c6	-5.391713e-15
98	0xa85e7fba	-1.2351172e-14
99	0xa7ca5be8	-5.6165908e-15
100	0xa5d9d3df	-3.778707e-16
101	0x270f2291	1.9863975e-15
102	0xa656f548	-7.4578583e-16
103	0xa7a8c0de	-4.6838474e-15
104	0xa72be9c3	-2.385774e-15
105	0x282ad46a	9.482956e-15
106	0x26eac81a	1.6291249e-15
107	0xa858a28d	-1.2025656e-14
108	0x27f621f6	6.8315537e-15
109	0xa7668e48	-3.1996043e-15
110	0xa728a6f7	-2.3405195e-15
111	0xa7d19fe0	-5.818249e-15
112	0x283ee2c9	1.0596295e-14
113	0xa85e137c	-1.23277006e-14
114	0xa778165f	-3.4429041e-15
115	0xa7896987	-3.813955e-15
116	0xa7e7da1c	-6.4351854e-15
117	0xa820de5a	-8.929999e-15
118	0xa80f611d	-7.959153e-15
119	0xa7502d03	-2.88902e-15
120	0x281dff47	8.770605e-15
121	0xa8105d20	-8.013799e-15
122	0xa6afe69e	-1.2205573e-15
123	0x27be4da8	5.281979e-15
124	0x2805affe	7.421145e-15
125	0x281bf4aa	8.6572815e-15
126	0xa6f50d76	-1.7003939e-15
127	0xa82bc3fc	-9.534904e-15
128	0xa6983126	-1.056044e-15
129	0xa7ebadaa	-6.541389e-15
130	0xa834a490	-1.0027691e-14
131	0x28220747	8.9943845e-15
132	0x27331ca1	2.485676e-15
133	0x28101f33	8.000371e-15
134	0xa7fa15cf	-6.9412584e-15
135	0x26cdd2dd	1.4281887e-15
136	0xa7d83650	-6.001093e-15
137	0xa8564c5c	-1.1895944e-14
138	0x27e6c703	6.4053593e-15
139	0x28570479	1.1935867e-14
140	0x281e6d3f	8.794451e-15
141	0x2765108f	3.178911e-15
142	0x279070a6	4.0090163e-15
143	0x281ca88e	8.696289e-15
144	0xa7b20bdb	-4.941778e-15
145	0x280832b8	7.5605144e-15
146	0xa843558e	-1.0843226e-14
147	0xa721fd47	-2.248054e-15
148	0x275284e3	2.9215392e-15
149	0x26cfd241	1.44205e-15
150	0xa824c136	-9.145725e-15
151	0xa7762919	-3.4161637e-15
152	0xa6eb8b1f	-1.634411e-15
153	0xa872cf8c	-1.3478703e-14
154	0x246db3f7	5.154362e-17
155	0x269b403a	1.0772694e-15
156	0x27bb61b3	5.200885e-15
157	0x28323219	9.891848e-15
158	0x281c473f	8.675189e-15
159	0xa82c5c49	-9.567929e-15
160	0x28035986	7.291373e-15
161	0x272cab6e	2.3962727e-15
162	0xa855761e	-1.1849488e-14
163	0xa7d7b3cd	-5.986943e-15
164	0xa840eaad	-1.0709028e-14
165	0xa7c1cb26	-5.3788515e-15
166	0x27047bcf	1.8385797e-15
167	0x26db993b	1.5237711e-15
168	0xa7e20632	-6.2734318e-15
169	0xa79df6a6	-4.384367e-15
170	0xa847a75f	-1.1083012e-14
171	0x27bf24be	5.3052985e-15
172	0xa7af70e8	-4.869467e-15
173	0x279ceb61	4.3553896e-15
174	0x2835fb40	1.01019995e-14
175	0x27ef874c	6.6482515e-15
176	0xa80922ef	-7.612603e-15
177	0x281dfb87	8.769792e-15
178	0xa7794333	-3.459212e-15
179	0x271d2873	2.1810054e-15
180	0x285cf5a4	1.2265718e-14
181	0xa72a2b60	-2.3615753e-15
182	0xa8367127	-1.01275655e-14
183	0xa779317a	-3.4582513e-15
184	0xa7eb2fbf	-6.527737e-15
185	0xa8182d3e	-8.447505e-15
186	0xa3a591a5	-1.7951019e-17
187	0xa82892ce	-9.357707e-15
188	0xa7979b3c	-4.2079225e-15
189	0x279abafd	4.294632e-15
190	0xa8099bcd	-7.638812e-15
191	0x2648e8d8	6.97045e-16
192	0x27d5483f	5.9197705e-15
193	0x27f9a519	6.9290383e-15
194	0xa85b32b7	-1.2167939e-14
195	0x26947d56	1.0303535e-15
196	0xa7040faa	-1.8327171e-15
197	0x26014aa4	4.485702e-16
198	0x27e53844	6.362127e-15
199	0x27a37ae4	4.5374827e-15
200	0xa828276a	-9.33442e-15
201	0x282f22a6	9.721965e-15
202	0xa855b0a4	-1.1862178e-14
203	0xa8015af5	-7.180662e-15
204	0xa8171e79	-8.3887915e-15
205	0x2839c1df	1.0311602e-14
206	0xa643901a	-6.784951e-16
207	0xa512a89f	-1.2720612e-16
208	0xa83bb8a1	-1.042062e-14
209	0xa7befaac	-5.3007373e-15
210	0xa787fdb3	-3.774509e-15
211	0xa798e3be	-4.2435394e-15
212	0x2838b276	1.0252749e-14
213	0x2845b296	1.09744214e-14
214	0x25c9daf1	3.5016302e-16
215	0xa795aaf8	-4.1541172e-15
216	0xa7f70260	-6.8558847e-15
217	0x26b0524f	1.2234763e-15
218	0xa77d4d8f	-3.5152848e-15
219	0x284e7579	1.146077e-14
220	0xa80a7a17	-7.687013e-15
221	0x27d94a83	6.0310385e-15
222	0xa82b7359	-9.517419e-15
223	0xa8115694	-8.0678906e-15
224	0xa7b322ed	-4.9720347e-15
225	0xa854f189	-1.1820739e-14
226	0xa8494d11	-1.11744525e-14
227	0x284b3b35	1.1281602e-14
228	0x2766c7a2	3.2027133e-15
229	0x27d72f6a	5.9725894e-15
230	0xa6c10224	-1.3392645e-15
231	0x284ca37e	1.13597266e-14
232	0x2761c21e	3.1330254e-15
233	0x27c36954	5.423757e-15
234	0x285cda36	1.225977e-14
235	0xa8006a28	-7.128446e-15
236	0x27e412b0	6.3302973e-15
237	0xa7972b98	-4.1958184e-15
238	0xa82f5e3d	-9.734886e-15
239	0xa7708529	-3.3378877e-15
240	0x278eaabe	3.9598036e-15
241	0xa6a3ff82	-1.1379653e-15
242	0x27c2cd7e	5.406861e-15
243	0xa80f2f7d	-7.948392e-15
244	0xa70d09fb	-1.9573091e-15
245	0xa8448692	-1.0909366e-14
246	0x27e2c97e	6.294606e-15
247	0x27394736	2.571251e-15
248	0x2814ae75	8.25348e-15
249	0x281ab264	8.5874e-15
250	0xa8136b02	-8.183343e-15
251	0xa8482abe	-1.11114985e-14
252	0x27dd026f	6.134246e-15
253	0x2814db4b	8.263202e-15
254	0x27542207	2.9439356e-15
255	0xa7705929	-3.3355025e-15

mixer_1.PatchMixer.mlp.0.bias f4 [48]
0	0xa82820c3	-9.3329775e-15
1	0x27edc664	6.599581e-15
2	0xa81b2280	-8.6117094e-15
3	0x27d0292b	5.777623e-15
4	0x28515e1c	1.1622237e-14
5	0x284feee8	1.1542613e-14
6	0xa8428096	-1.0797046e-14
7	0x282cf4ff	9.601043e-15
8	0x26148c14	5.1537656e-16
9	0x27b655ae	5.060804e-15
10	0x2823a7b8	9.084686e-15
11	0xa70743a7	-1.8771688e-15
12	0xa740a7c1	-2.6736292e-15
13	0xa7a278bb	-4.509493e-15
14	0xa7a52f66	-4.584809e-15
15	0xa8488a97	-1.1132282e-14
16	0x2861711c	1.2514536e-14
17	0x26e06237	1.5569744e-15
18	0xa804f490	-7.380503e-15
19	0x27fae45a	6.963652e-15
20	0x2791e2a8	4.0491326e-15
21	0x28566def	1.1903224e-14
22	0xa80614fd	-7.443045e-15
23	0xa82c810e	-9.575902e-15
24	0xa770d6f2	-3.3423213e-15
25	0x27b2837f	4.9547493e-15
26	0xa81cd8df	-8.706766e-15
27	0x26e07fbf	1.5577748e-15
28	0xa5cf63e0	-3.5976454e-16
29	0xa83fe319	-1.0651874e-14
30	0x261e2dee	5.487951e-16
31	0xa81adbf1	-8.5964095e-15
32	0xa8560552	-1.188054e-14
33	0xa85182c7	-1.1630188e-14
34	0xa8161f63	-8.333479e-15
35	0xa75e7caa	-3.087627e-15
36	0xa8518050	-1.1629654e-14
37	0xa785c686	-3.7130155e-15
38	0x285a4b0a	1.21177025e-14
39	0xa7a3e6cc	-4.549182e-15
40	0xa829daf4	-9.4288624e-15
41	0x27c8aed1	5.5700688e-15
42	0x2838207b	1.0221095e-14
43	0x282cfd55	9.602851e-15
44	0x270d6c99	1.9626552e-15
45	0xa7b76018	-5.089689e-15
46	0x2829f81a	9.435183e-15
47	0xa6b0efbe	-1.2277436e-15

mixer_1.PatchMixer.mlp.2.weight f4 [48, 48]
0	0x260687dd	4.667472e-16
1	0xa80fd097	-7.983325e-15
2	0xa7fc271c	-6.9986453e-15
3	0xa862c773	-1.2588769e-14
4	0x27478c40	2.7692827e-15
5	0xa7b3f030	-4.9942892e-15
6	0xa856a301	-1.1914732e-14
7	0x286477ab	1.2682491e-14
8	0xa7f1ad77	-6.707901e-15
9	0x2713afc0	2.0495622e-15
10	0x2811c36e	8.091494e-15
11	0x2829bee7	9.42278e-15
12	0x285cad1d	1.2249991e-14
13	0x278f17b3	3.9716168e-15
14	0xa78bb6d6	-3.877848e-15
15	0xa711a3c7	-2.0211576e-15
16	0xa80afe34	-7.71566e-15
17	0xa7d182fc	-5.8151167e-15
18	0x2721e826	2.2469086e-15
19	0x285885aa	1.20193924e-14
20	0xa7a18285	-4.4827986e-15
21	0x26bd0c7d	1.3117894e-15
22	0xa79e32e3	-4.390898e-15
23	0xa75bb4b0	-3.0490306e-15
24	0xa5fec36c	-4.41944e-16
25	0x2830833d	9.79842e-15
26	0xa72224c5	-2.250195e-15
27	0xa74ea551	-2.8677861e-15
28	0x27a3779b	4.5371265e-15
29	0x27d76cf4	5.9792615e-15
30	0x27acdabb	4.797674e-15
31	0xa8032afc	-7.2812816e-15
32	0x285b2f45	1.2167192e-14
33	0xa74a5cc1	-2.8083413e-15
34	0x283efedd	1.0602383e-14
35	0xa71d6840	-2.184464e-15
36	0x27f3139c	6.746731e-15
37	0x2824f1bd	9.1562474e-15
38	0x2810da63	8.040961e-15
39	0xa834b958	-1.0032197e-14
40	0x27a94bc6	4.6989077e-15
41	0xa845645f	-1.0957461e-14
42	0x281f61b9	8.847463e-15
43	0x2846ab31	1.1028329e-14
44	0x26044e06	4.590244e-16
45	0x285cdfd5	1.2260989e-14
46	0x279e3159	4.3907312e-15
47	0x27a2567e	4.5057808e-15
48	0xa7821cc1	-3.6113423e-15
49	0xa7a0fa2d	-4.468016e-15
50	0x284a101a	1.1216744e-14
51	0x275956c0	3.0161827e-15
52	0xa7315e5f	-2.4614843e-15
53	0xa7e731e1	-6.416946e-15
54	0xa6894c06	-9.526891e-16
55	0x2862b30a	1.2584343e-14
56	0xa804b41e	-7.366529e-15
57	0xa8160b13	-8.329074e-15
58	0x283f82fd	1.06310334e-14
59	0x282b28df	9.501269e-15
60	0xa83e3bc1	-1.0560076e-14
61	0xa7ea4a5e	-6.5028676e-15
62	0xa74b3815	-2.8202311e-15
63	0x27fdb887	7.042167e-15
64	0xa71f7155	-2.212712e-15
65	0x2845d42f	1.0981707e-14
66	0x27a52446	4.5836028e-15
67	0x2786ae7f	3.738166e-15
68	0xa675a8ca	-8.52302e-16
69	0xa8244ef6	-9.120951e-15
70	0x2839bcb5	1.0310482e-14
71	0xa831c481	-9.868084e-15
72	0xa62a56e7	-5.9098373e-16
73	0x278f822a	3.9831597e-15
74	0xa7c8a7f8	-5.5693263e-15
75	0x278859f5	3.7845114e-15
76	0xa747d21e	-2.7730702e-15
77	0x282ed1f6	9.704468e-15
78	0xa7bf825c	-5.3154485e-15
79	0xa70ee8e5	-1.9832711e-15
80	0xa8036fbc	-7.296189e-15
81	0x27bd115d	5.2476863e-15
82	0x283c1ec5	1.04427685e-14
83	0x27598e9b	3.0192106e-15
84	0x279a21cd	4.2780233e-15
85	0xa618fd5c	-5.307896e-16
86	0x24be4ccc	8.2529464e-17
87	0x2826c98d	9.2585555e-15
88	0xa73a1a97	-2.58271e-15
89	0x2780d998	3.5763052e-15
90	0x2808f6ef	7.603062e-15
91	0xa7765670	-3.4186216e-15
92	0xa711848c	-2.0194646e-15
93	0x28042902	7.336364e-15
94	0x280227e1	7.225097e-15
95	0x27710af7	3.3451413e-15
96	0x263275e3	6.191592e-16
97	0x27a440b8	4.5589312e-15
98	0xa84bbccc	-1.13097025e-14
99	0xa81b5790	-8.6232155e-15
100	0xa838e999	-1.0264705e-14
101	0xa786c1ca	-3.7402578e-15
102	0xa80f08b2	-7.93998e-15
103	0xa7acaad7	-4.7924815e-15
104	0xa7ea6c45	-6.5065433e-15
105	0x27c5f396	5.494258e-15
106	0xa7ae2416	-4.8333826e-15
107	0x273cb42a	2.6187908e-15
108	0xa7de6487	-6.172637e-15
109	0xa73f5f18	-2.6558125e-15
110	0x2834db6e	1.00395885e-14
111	0x27bce4fa	5.242874e-15
112	0x27891380	3.804628e-15
113	0xa7fc7090	-7.006609e-15
114	0x27763629	3.4168718e-15
115	0xa7a05f40	-4.451219e-15
116	0xa806af47	-7.4765015e-15
117	0xa7e1a763	-6.2631526e-15
118	0x280b0fc6	7.71947e-15
119	0x282cd76c	9.59463e-15
120	0xa79ff72e	-4.439936e-15
121	0x2817cd0b	8.4266454e-15
122	0x270cf302	1.9560638e-15
123	0x267d6b77	8.792265e-16
124	0x2768fdf5	3.2334138e-15
125	0x27865b0c	3.7291185e-15
126	0xa813f200	-8.212615e-15
127	0x28669ccc	1.2801565e-14
128	0x285a60c1	1.2122411e-14
129	0xa819bd90	-8.534311e-15
130	0x276df3a0	3.3022426e-15
131	0x263e02dc	6.5923367e-16
132	0xa4ff8eae	-1.1083033e-16
133	0xa6eac68d	-1.6290829e-15
134	0x2867b36c	1.2861982e-14
135	0xa804d14a	-7.372854e-15
136	0xa726821c	-2.310766e-15
137	0xa70dc08d	-1.9672063e-15
138	0x284b662f	1.1290921e-14
139	0xa80b502e	-7.733436e-15
140	0x281e7104	8.795268e-15
141	0x27ff5cc9	7.0877316e-15
142	0xa83ab600	-1.0364539e-14
143	0xa795b6da	-4.1554056e-15
144	0x2770b822	3.340651e-15
145	0xa8018380	-7.189453e-15
146	0x26bdf945	1.3182074e-15
147	0xa843be79	-1.0865977e-14
148	0xa82c7001	-9.572205e-15
149	0x284d32b3	1.139078e-14
150	0xa638baeb	-6.4091145e-16
151	0xa81b1d24	-8.610547e-15
152	0x280d1a1b	7.832733e-15
153	0x2852ebcb	1.1708471e-14
154	0x279f483f	4.4209695e-15
155	0x27ddd765	6.1573353e-15
156	0x2827821c	9.298575e-15
157	0xa81b037e	-8.604986e-15
158	0x28519281	1.1633599e-14
159	0xa8219bb9	-8.971062e-15
160	0xa851bbb7	-1.1642535e-14
161	0x27bfdfcd	5.3255795e-15
162	0x27461d6f	2.7493976e-15
163	0xa6975c98	-1.0502827e-15
164	0x273099b7	2.4508236e-15
165	0x284d6048	1.1400664e-14
166	0xa83ac188	-1.03670395e-14
167	0x26487793	6.955099e-16
168	0x27ba0ec8	5.1641397e-15
169	0xa80924cc	-7.613007e-15
170	0x282f74e2	9.739796e-15
171	0x27d95d39	6.033067e-15
172	0x28303afd	9.782754e-15
173	0x27853fae	3.6983957e-15
174	0xa7d09877	-5.78969e-15
175	0xa7e654e0	-6.3929846e-15
176	0x2820dd8f	8.929827e-15
177	0x27863dd7	3.725952e-15
178	0x28383b4b	1.0226909e-14
179	0xa71d9a38	-2.187173e-15
180	0xa83006eb	-9.771463e-15
181	0xa797f669	-4.2178078e-15
182	0x26bcd163	1.3101875e-15
183	0x284b4734	1.1284203e-14
184	0x26d57006	1.4810208e-15
185	0xa7cc39be	-5.668398e-15
186	0xa78d7174	-3.9258368e-15
187	0x2762df3c	3.1484816e-15
188	0xa7ff56f6	-7.0871e-15
189	0xa80fc54d	-7.980877e-15
190	0x2857e5fb	1.1984767e-14
191	0x271002c9	1.9985524e-15
192	0xa84b6618	-1.1290902e-14
193	0xa858a832	-1.202688e-14
194	0x28216d28	8.960965e-15
195	0x27ff1eb0	7.080999e-15
196	0xa7d864e0	-6.0061412e-15
197	0xa72b78e0	-2.3796544e-15
198	0xa7ef4268	-6.6407824e-15
199	0x28505c47	1.1566329e-14
200	0x2791276a	4.0288317e-15
201	0x28063227	7.449369e-15
202	0x26f4db1a	1.6990289e-15
203	0x282f4c8c	9.73105e-15
204	0xa7dced41	-6.1319498e-15
205	0x24af5889	7.6044136e-17
206	0x2790fb4a	4.0240477e-15
207	0x285c4d77	1.2229251e-14
208	0xa80ca761	-7.807856e-15
209	0x28158b7d	8.301408e-15
210	0xa7d4907e	-5.899848e-15
211	0xa74b729a	-2.8234035e-15
212	0x285a5577	1.2119963e-14
213	0xa7a2fd5b	-4.523872e-15
214	0xa74343ce	-2.7098443e-15
215	0x27d293b0	5.844683e-15
216	0x27ea0d3e	6.4962404e-15
217	0xa6682881	-8.054606e-16
218	0x28127323	8.129594e-15
219	0x269be8b4	1.081836e-15
220	0xa5aacebf	-2.9630396e-16
221	0x2721d612	2.2459286e-15
222	0x282c089e	9.5497866e-15
223	0xa7dddb82	-6.1577813e-15
224	0xa79b70fe	-4.314365e-15
225	0x2797145c	4.1932993e-15
226	0x26ed9c2f	1.6487512e-15
227	0xa815d4fc	-8.317345e-15
228	0x26bf9db3	1.3296032e-15
229	0xa795c5b3	-4.1570154e-15
230	0x285a18be	1.2106796e-14
231	0x27b4a3ff	5.013784e-15
232	0x26105346	5.0072893e-16
233	0x27d93c89	6.029523e-15
234	0x26a91299	1.1731772e-15
235	0x2742a8a2	2.7014324e-15
236	0xa6a79e23	-1.1630816e-15
237	0xa7f72905	-6.8600745e-15
238	0xa719bf08	-2.1336574e-15
239	0x28181828	8.442933e-15
240	0x27727be2	3.3651404e-15
241	0x27ec2f88	6.555469e-15
242	0xa810c227	-8.035706e-15
243	0x276d04e4	3.2893008e-15
244	0xa77c73cb	-3.5034797e-15
245	0xa714652f	-2.0593978e-15
246	0x2845407f	1.0949682e-14
247	0x2771c269	3.3550859e-15
248	0x2734faf0	2.5116052e-15
249	0x27a2801e	4.5102937e-15
250	0x26d5eaf3	1.4843527e-15
251	0x280ff318	7.990807e-15
252	0x281b276a	8.612775e-15
253	0x278f5111	3.9778366e-15
254	0xa789afeb	-3.821587e-15
255	0x2836a0aa	1.0137868e-14

mixer_1.PatchMixer.mlp.2.bias f4 [48]
0	0xa7831671	-3.6384135e-15
1	0x2841c8c2	1.0757185e-14
2	0xa842ccc2	-1.0813563e-14
3	0x28214b4a	8.953621e-15
4	0xa682c399	-9.073579e-16
5	0x2825fef8	9.2146275e-15
6	0x27d27477	5.841298e-15
7	0xa84406e1	-1.0881677e-14
8	0x27c307f4	5.4131995e-15
9	0x271196fc	2.0204641e-15
10	0xa82ca45e	-9.5835595e-15
11	0x2774499d	3.3901708e-15
12	0x27d285ed	5.843191e-15
13	0x26e9f4ca	1.6233973e-15
14	0xa8559a3a	-1.1857318e-14
15	0xa7e5ecf0	-6.3817156e-15
16	0x28277180	9.294974e-15
17	0xa81b4829	-8.619876e-15
18	0xa751190f	-2.901816e-15
19	0xa5a672be	-2.8874162e-16
20	0xa76fc1f8	-3.3273064e-15
21	0x283818e5	1.021945e-14
22	0x26313a5c	6.1488303e-16
23	0x283f2987	1.0611635e-14
24	0x26fb210e	1.7425583e-15
25	0x27a3bd9f	4.5447176e-15
26	0xa80535f0	-7.394679e-15
27	0x2632f1c1	6.2083793e-16
28	0xa6dedf0b	-1.54648e-15
29	0x2605c8fd	4.6416034e-16
30	0x26c9cd3b	1.4002805e-15
31	0xa6ce0d7d	-1.4297777e-15
32	0xa7c7cd2a	-5.5456035e-15
33	0x2823d791	9.095061e-15
34	0xa722ea41	-2.2609006e-15
35	0x27e87916	6.4524217e-15
36	0xa83931f1	-1.0280392e-14
37	0x2646f319	6.902451e-16
38	0x2847218c	1.1053993e-14
39	0xa7c0d188	-5.351788e-15
40	0x27a12cc0	4.4734995e-15
41	0x273869ea	2.5592546e-15
42	0xa80855e4	-7.568141e-15
43	0x26ab5c62	1.1890549e-15
44	0xa7ea64d4	-6.5057365e-15
45	0x27f99f92	6.928439e-15
46	0x282e4276	9.673352e-15
47	0xa6cc987c	-1.4196675e-15

mixer_1.Self_Attention_0.q.weight f4 [48, 48]
0	0x28601bea	1.2440551e-14
1	0xa7c2edcc	-5.4103637e-15
2	0xa5628fa1	-1.9651039e-16
3	0xa5d603cf	-3.7125663e-16
4	0x26877e96	9.401818e-16
5	0xa7bee715	-5.2986133e-15
6	0x2689682b	9.534519e-16
7	0xa62fa5d5	-6.0940066e-16
8	0x27bbfee9	5.21793e-15
9	0xa7fc9415	-7.01046e-15
10	0x277d243c	3.5130446e-15
11	0x2830dd01	9.817885e-15
12	0x27f56156	6.810669e-15
13	0x284beeda	1.1320556e-14
14	0xa6808305	-8.917297e-16
15	0x27106639	2.003943e-15
16	0xa6ef5e4a	-1.6609514e-15
17	0xa7127406	-2.0324467e-15
18	0x27533277	2.930949e-15
19	0xa6b20e41	-1.2355095e-15
20	0x2795545e	4.144728e-15
21	0xa7ff055b	-7.0782524e-15
22	0xa803a08f	-7.306776e-15
23	0x26ed81eb	1.6480393e-15
24	0xa7a409e0	-4.552985e-15
25	0xa61698a2	-5.224856e-16
26	0x271c832c	2.1720457e-15
27	0x27c1d683	5.3800835e-15
28	0xa80f4489	-7.952956e-15
29	0xa6b0d8e3	-1.2271241e-15
30	0xa81040b0	-8.007633e-15
31	0x2822b46b	9.031928e-15
32	0xa6d487ca	-1.4747261e-15
33	0x278fd11c	3.991719e-15
34	0xa7e8fb84	-6.466563e-15
35	0xa706d514	-1.8711746e-15
36	0x27c54387	5.4751697e-15
37	0x272d84e2	2.4080609e-15
38	0x27fd0079	7.022212e-15
39	0x278791a1	3.762792e-15
40	0xa7ce10a5	-5.719453e-15
41	0xa8084ce4	-7.5661896e-15
42	0x285cafe1	1.2250591e-14
43	0xa722e7de	-2.2607712e-15
44	0x2814f41a	8.2685815e-15
45	0xa7e8734e	-6.451795e-15
46	0xa71c6587	-2.1704387e-15
47	0x2827fede	9.325628e-15
48	0xa834f7f9	-1.0045778e-14
49	0x283b7620	1.04061996e-14
50	0xa7b2592c	-4.9501605e-15
51	0x268ef980	9.920856e-16
52	0x285fc6d6	1.2422102e-14
53	0xa7fcc39e	-7.015614e-15
54	0xa7e92dc3	-6.4720106e-15
55	0xa7d58045	-5.9258446e-15
56	0xa8128c6c	-8.135077e-15
57	0x2626d97f	5.788758e-16
58	0x27ff5700	7.0871043e-15
59	0xa8144ee4	-8.232757e-15
60	0x27027e45	1.8109575e-15
61	0x28255305	9.177342e-15
62	0xa7d6737e	-5.952215e-15
63	0xa841cd04	-1.0758108e-14
64	0xa486b84f	-5.842547e-17
65	0x26c99adb	1.398915e-15
66	0xa74b6fe9	-2.8232576e-15
67	0xa6d71d6c	-1.4926597e-15
68	0x27847bf9	3.677177e-15
69	0x283c8bb9	1.0466394e-14
70	0x27f03b35	6.6677574e-15
71	0xa687acd5	-9.414353e-16
72	0x27599dd2	3.0200354e-15
73	0x26623d5f	7.8492674e-16
74	0xa8237de3	-9.075615e-15
75	0xa757565f	-2.9884066e-15
76	0xa580a647	-2.2317134e-16
77	0xa7acffd3	-4.8016955e-15
78	0xa785d495	-3.7145397e-15
79	0xa820e76e	-8.9319675e-15
80	0x27d35f04	5.866728e-15
81	0x283fcb85	1.0646761e-14
82	0xa767290e	-3.2079946e-15
83	0xa58b3a0c	-2.415199e-16
84	0x2819f1ec	8.545665e-15
85	0xa6a84c5c	-1.1678039e-15
86	0xa83d65a5	-1.0513648e-14
87	0xa716363f	-2.0846089e-15
88	0xa7ed388d	-6.5842027e-15
89	0xa852ef3f	-1.170922e-14
90	0xa81db658	-8.75479e-15
91	0xa844adff	-1.0917915e-14
92	0xa810804b	-8.021425e-15
93	0xa7d030ef	-5.778465e-15
94	0x281d893a	8.745007e-15
95	0x27b9c5a3	5.1562093e-15
96	0xa82963d0	-9.403028e-15
97	0x2764f7d0	3.1775696e-15
98	0xa6b19dc8	-1.2324609e-15
99	0xa83cf0ff	-1.0488354e-14
100	0x26a1f6b7	1.1238491e-15
101	0xa70aa5d0	-1.9241234e-15
102	0xa696cf9f	-1.0464617e-15
103	0xa806086e	-7.440322e-15
104	0xa83a7356	-1.0350084e-14
105	0xa7dc1ed1	-6.1095678e-15
106	0x280aeb57	7.71157e-15
107	0x2809879f	7.634436e-15
108	0xa827082c	-9.272134e-15
109	0xa6931883	-1.0206818e-15
110	0x26b82d02	1.2779764e-15
111	0xa79e3a9d	-4.391736e-15
112	0xa785df3c	-3.7156947e-15
113	0xa85cb592	-1.2251825e-14
114	0xa736c9ad	-2.5366902e-15
115	0x27d9c8a7	6.0447147e-15
116	0xa718a6d7	-2.1184682e-15
117	0x2858d410	1.2036392e-14
118	0x285801af	1.1990774e-14
119	0x281dfa1c	8.7694846e-15
120	0x273810a0	2.5544142e-15
121	0x2769c4fc	3.244203e-15
122	0xa7b8366f	-5.1129276e-15
123	0x27c21320	5.386655e-15
124	0x2726a2b5	2.3125331e-15
125	0x283e2aaa	1.055637e-14
126	0xa7dba7ed	-6.0966776e-15
127	0xa7a8f39a	-4.689348e-15
128	0x273d0ec6	2.6237028e-15
129	0x2844f8a9	1.0934105e-14
130	0x27eeacc7	6.6245596e-15
131	0xa8018f8a	-7.192064e-15
132	0x27f3a41a	6.762397e-15
133	0xa731a0a0	-2.465076e-15
134	0x273d36b3	2.6258671e-15
135	0x26ceeda7	1.4358537e-15
136	0xa83e7a27	-1.0573606e-14
137	0xa68abfc9	-9.627657e-16
138	0x26827724	9.052855e-16
139	0x273c4899	2.6129596e-15
140	0xa74698bf	-2.7560824e-15
141	0x26c21d10	1.3469332e-15
142	0x26d743c2	1.4936988e-15
143	0x27b9a08e	5.152189e-15
144	0xa83e1060	-1.05506695e-14
145	0xa602ccad	-4.53802e-16
146	0x28530d48	1.1715733e-14
147	0xa655fe61	-7.424397e-16
148	0xa73d42b1	-2.6265172e-15
149	0xa79f9290	-4.429027e-15
150	0x25c6e408	3.4502045e-16
151	0x2845d3ba	1.0981608e-14
152	0xa6a3698f	-1.1339009e-15
153	0xa7c4c2cc	-5.4612127e-15
154	0xa808d7bc	-7.5962965e-15
155	0xa7ae9865	-4.845993e-15
156	0x278bb77a	3.8779176e-15
157	0xa70f516f	-1.9889382e-15
158	0x24afec3f	7.629437e-17
159	0xa7528d6f	-2.9220026e-15
160	0x270c4f66	1.9471945e-15
161	0xa8381c58	-1.0220198e-14
162	0xa8482653	-1.11105405e-14
163	0xa746ed0e	-2.7606527e-15
164	0xa850a526	-1.158213e-14
165	0x25bc4494	3.2659272e-16
166	0xa738b44d	-2.563287e-15
167	0x2703cd25	1.8291111e-15
168	0x286058f9	1.2453791e-14
169	0xa82f6ff1	-9.738725e-15
170	0x27bcf18e	5.2442376e-15
171	0xa6d342a1	-1.4659126e-15
172	0xa816fcb7	-8.3814715e-15
173	0x27d59791	5.9283705e-15
174	0x28213ce5	8.9505e-15
175	0xa83d1b91	-1.0497585e-14
176	0xa844eea8	-1.0931936e-14
177	0xa807e2b8	-7.543167e-15
178	0x27958b7d	4.150704e-15
179	0x282d9353	9.635375e-15
180	0x2802f0f5	7.268699e-15
181	0x2752211d	2.9161305e-15
182	0xa78e5af2	-3.951152e-15
183	0xa852c831	-1.1700751e-14
184	0xa7560b7d	-2.9704694e-15
185	0xa7dbd5ab	-6.101637e-15
186	0xa6e74c06	-1.6049451e-15
187	0xa71a581c	-2.1419557e-15
188	0x27d78fda	5.983045e-15
189	0x28532d8f	1.1722732e-14
190	0x27f1ee3e	6.714924e-15
191	0x2699e501	1.0678579e-15
192	0xa8028714	-7.24574e-15
193	0xa5f92741	-4.3221214e-16
194	0x27d308fe	5.8574014e-15
195	0x27dc1b7f	6.1092078e-15
196	0x28141678	8.2205225e-15
197	0x25a539c3	2.8662078e-16
198	0xa7dbd7d0	-6.1018695e-15
199	0xa80b9d6e	-7.750187e-15
200	0x2804926f	7.359225e-15
201	0x27c93706	5.5848364e-15
202	0x282fa77d	9.75077e-15
203	0xa8361301	-1.010715e-14
204	0xa7f6144d	-6.8300726e-15
205	0x27f3e4b7	6.769402e-15
206	0x27f29601	6.7331128e-15
207	0xa85cae52	-1.2250253e-14
208	0x27d10090	5.8009763e-15
209	0x2798bd1b	4.2393503e-15
210	0xa7aa892f	-4.7333213e-15
211	0xa7cbcbd2	-5.65648e-15
212	0xa8251d55	-9.1657e-15
213	0xa72cb4c5	-2.396779e-15
214	0xa851ab0b	-1.163892e-14
215	0xa84b0695	-1.1270191e-14
216	0xa8177be9	-8.4090526e-15
217	0xa7f677d5	-6.840864e-15
218	0xa84bcbf2	-1.1312987e-14
219	0xa85b1340	-1.2161116e-14
220	0x25c57ecb	3.425997e-16
221	0xa7b9ebbf	-5.160341e-15
222	0xa7941858	-4.1104645e-15
223	0x27450ecc	2.7347263e-15
224	0xa6bc7bd7	-1.3078687e-15
225	0x276732da	3.2085257e-15
226	0xa82de4c8	-9.653038e-15
227	0x2767424c	3.209363e-15
228	0xa7f2e7fb	-6.7420007e-15
229	0xa803d517	-7.318167e-15
230	0xa84c77d9	-1.1350263e-14
231	0xa7ac0e44	-4.7755057e-15
232	0xa77ad5ca	-3.4810365e-15
233	0x27f270b0	6.729067e-15
234	0xa7475bc7	-2.766655e-15
235	0x282c56c4	9.566732e-15
236	0x274b2c42	2.8195901e-15
237	0x27b4e722	5.021063e-15
238	0x27837d31	3.6495537e-15
239	0xa7b95e43	-5.1450014e-15
240	0xa60b50ab	-4.833464e-16
241	0x284ef8cd	1.1489247e-14
242	0x282c9e42	9.582235e-15
243	0x27904d33	4.005173e-15
244	0xa7d7a69b	-5.985512e-15
245	0x2806e9a7	7.4891595e-15
246	0xa73c628b	-2.6143661e-15
247	0x282c030e	9.54858e-15
248	0xa777fea8	-3.4416185e-15
249	0x262089cc	5.56979e-16
250	0x270721d4	1.8753352e-15
251	0x27ecc01b	6.571144e-15
252	0xa81b110f	-8.6079274e-15
253	0x25f3f6ac	4.2320932e-16
254	0x26ef2a7d	1.6595473e-15
255	0x282d7ace	9.630058e-15

mixer_1.Self_Attention_0.q.bias f4 [48]
0	0xa8534734	-1.1728293e-14
1	0x27e96487	6.4779483e-15
2	0x26a0a8b7	1.114796e-15
3	0xa8060b97	-7.441007e-15
4	0x284caad8	1.1361321e-14
5	0xa8074ef2	-7.511124e-15
6	0x284bb286	1.1307475e-14
7	0x282bc2f9	9.534685e-15
8	0x278748d2	3.754898e-15
9	0xa7a8f079	-4.689009e-15
10	0xa85bba47	-1.2197335e-14
11	0xa6cb95c5	-1.412655e-15
12	0x25a9f3eb	2.9482112e-16
13	0xa7bd1c3e	-5.248866e-15
14	0x279d7d2a	4.3711957e-15
15	0x27da277f	6.0549977e-15
16	0xa7c3c5cc	-5.4337824e-15
17	0xa80bd9a5	-7.763244e-15
18	0x27c05a97	5.3388923e-15
19	0xa6700ec9	-8.3286764e-16
20	0x276edcfb	3.3148929e-15
21	0xa84b9c2a	-1.1302626e-14
22	0xa85f656d	-1.240098e-14
23	0x2599d394	2.668464e-16
24	0x27372ab5	2.5419503e-15
25	0xa5612c83	-1.953072e-16
26	0xa6416b13	-6.710544e-16
27	0x25b9253a	3.211761e-16
28	0xa76179d8	-3.1291074e-15
29	0x26668cb3	7.9987963e-16
30	0xa80d3ffc	-7.840947e-15
31	0x281a99ff	8.58211e-15
32	0xa7f08ff8	-6.6769473e-15
33	0x27c79943	5.5399762e-15
34	0x28198d3c	8.5238315e-15
35	0x2711b090	2.0218507e-15
36	0x2807faba	7.548373e-15
37	0xa7ccc4fa	-5.6834937e-15
38	0xa7b8f035	-5.1330692e-15
39	0xa7ebe131	-6.5469756e-15
40	0xa669e43c	-8.114743e-16
41	0x28479bb8	1.1080485e-14
42	0x281dab6d	8.752423e-15
43	0x28444761	1.08956635e-14
44	0xa8388738	-1.0243373e-14
45	0x285ea997	1.23602495e-14
46	0x2705e5b6	1.8581984e-15
47	0xa85e0637	-1.2324823e-14

mixer_1.Self_Attention_0.k.weight f4 [48, 48]
0	0xa6de18d7	-1.5411077e-15
1	0x284943b0	1.1172419e-14
2	0xa7d7d9cc	-5.9910623e-15
3	0xa7b39914	-4.984845e-15
4	0xa85d421f	-1.2282302e-14
5	0x27d39bda	5.873324e-15
6	0x277088e1	3.3380893e-15
7	0xa7941e79	-4.111129e-15
8	0xa7381247	-2.5545038e-15
9	0x2803632d	7.293466e-15
10	0x2833740b	9.961659e-15
11	0x2809f3a6	7.6578606e-15
12	0xa7a531fc	-4.5850893e-15
13	0xa710c16f	-2.0088875e-15
14	0x2842d8a9	1.0816144e-14
15	0xa83becbf	-1.0431921e-14
16	0x281dafce	8.753372e-15
17	0x265c5252	7.64394e-16
18	0xa84a95d8	-1.1245745e-14
19	0xa77c0c85	-3.4978812e-15
20	0x27da06c2	6.051448e-15
21	0xa77224d0	-3.3604203e-15
22	0x27f34cb2	6.75292e-15
23	0x26bbe7eb	1.3038593e-15
24	0xa84b0d36	-1.1271628e-14
25	0x2807e631	7.54392e-15
26	0xa84d47fd	-1.1395396e-14
27	0xa7dc4bdf	-6.1144526e-15
28	0x2845e779	1.09858894e-14
29	0xa818275b	-8.446229e-15
30	0x28431142	1.0828417e-14
31	0xa81d96ce	-8.747951e-15
32	0x2827e6a2	9.320373e-15
33	0x2826416a	9.2290355e-15
34	0xa82307b2	-9.049986e-15
35	0x27bdf6df	5.2725696e-15
36	0xa7beb899	-5.2935735e-15
37	0x27ac7123	4.7862253e-15
38	0xa85a56e1	-1.212027e-14
39	0x281064dc	8.015476e-15
40	0xa6a444e5	-1.139846e-15
41	0x277c934f	3.5051881e-15
42	0xa81c0298	-8.660302e-15
43	0xa81c136b	-8.66395e-15
44	0xa795fc5d	-4.162942e-15
45	0x279005ef	3.997446e-15
46	0x28284107	9.339974e-15
47	0x2847b041	1.1084938e-14
48	0x285cd81c	1.22593145e-14
49	0x27708074	3.3376325e-15
50	0x2826fb67	9.269365e-15
51	0x25d2800d	3.6515964e-16
52	0x27be6e97	5.2855495e-15
53	0x272a5f2c	2.3643832e-15
54	0x27619d6f	3.1310367e-15
55	0x26d6dd1d	1.4909166e-15
56	0xa81f5266	-8.84414e-15
57	0xa832f12e	-9.9332824e-15
58	0xa818fea5	-8.492912e-15
59	0x283e6e28	1.0571005e-14
60	0xa858e76e	-1.2040592e-14
61	0x281ac958	8.592377e-15
62	0xa8125583	-8.1231705e-15
63	0x26fd08b7	1.7557764e-15
64	0x2750684d	2.892234e-15
65	0x28202fef	8.892178e-15
66	0xa80a1c3f	-7.666664e-15
67	0x2839d220	1.03151266e-14
68	0xa73ba7f4	-2.604251e-15
69	0xa8546fdb	-1.1792619e-14
70	0xa8083175	-7.560241e-15
71	0x27780cc6	3.4423838e-15
72	0x284adc86	1.1261071e-14
73	0xa838665a	-1.0236246e-14
74	0x282ea3aa	9.694429e-15
75	0xa745237e	-2.7358482e-15
76	0x28178700	8.411457e-15
77	0x27a7082c	4.636067e-15
78	0xa84b002f	-1.12688035e-14
79	0x2828c425	9.3684055e-15
80	0xa8043a1d	-7.340073e-15
81	0xa8590342	-1.2046626e-14
82	0x27728c45	3.3660287e-15
83	0xa68bc94b	-9.699623e-16
84	0x27b51062	5.0255354e-15
85	0xa7fe5f79	-7.0602674e-15
86	0xa718eeaa	-2.1223618e-15
87	0xa7ddbd22	-6.154488e-15
88	0x27ecdef8	6.57449e-15
89	0x2631dcab	6.170827e-16
90	0x285c7143	1.2237013e-14
91	0xa611d91b	-5.0601214e-16
92	0x27546b28	2.9479e-15
93	0x25b24aac	3.0928678e-16
94	0xa81b6dfe	-8.628079e-15
95	0xa82595ea	-9.191847e-15
96	0x2608b912	4.7435296e-16
97	0xa7fcb1ef	-7.0136967e-15
98	0x2802ffb7	7.271899e-15
99	0x276c0caf	3.2758455e-15
100	0xa83cfc93	-1.0490865e-14
101	0x284f664f	1.1512993e-14
102	0x28194bef	8.509672e-15
103	0xa54868bc	-1.738272e-16
104	0x283ea40f	1.0582693e-14
105	0x282cd783	9.59465e-15
106	0x28575065	1.195233e-14
107	0x282b8c89	9.5228806e-15
108	0xa798f5f1	-4.2455125e-15
109	0xa851eee7	-1.1653634e-14
110	0x28434d2b	1.0841408e-14
111	0x281980d5	8.521142e-15
112	0x280d6027	7.847922e-15
113	0xa7b8ed2b	-5.1327397e-15
114	0x28558104	1.1851851e-14
115	0x280d264f	7.835379e-15
116	0x26720663	8.396927e-16
117	0x28168261	8.354944e-15
118	0x26e8baa2	1.6148821e-15
119	0xa78f1c9e	-3.97215e-15
120	0x28510787	1.1603463e-14
121	0x2854e72f	1.1818494e-14
122	0x285c9f4e	1.2246997e-14
123	0xa85a4009	-1.2115316e-14
124	0xa849fc98	-1.1212514e-14
125	0x28460e2d	1.0994282e-14
126	0xa69770c9	-1.05083e-15
127	0x282ac647	9.47989e-15
128	0x283260c3	9.901967e-15
129	0x27b4b4c0	5.0156006e-15
130	0xa81150f6	-8.0666725e-15
131	0x26929a7b	1.0172657e-15
132	0xa7a2f0c4	-4.522507e-15
133	0xa805db72	-7.430568e-15
134	0xa7474565	-2.7654417e-15
135	0xa7deb2ff	-6.1811446e-15
136	0x283af1ff	1.0377549e-14
137	0xa6cc84cd	-1.4191339e-15
138	0x28333945	9.948914e-15
139	0x27290300	2.3455088e-15
140	0x2532206f	1.5450028e-16
141	0xa827dae4	-9.317827e-15
142	0xa7ce3356	-5.7232144e-15
143	0x27fa519b	6.9477416e-15
144	0x27a3bc80	4.544596e-15
145	0x28266d37	9.238533e-15
146	0xa79d25bf	-4.361718e-15
147	0x27573bcc	2.986966e-15
148	0xa806fdd1	-7.493532e-15
149	0xa44749c8	-4.321374e-17
150	0x27848ea4	3.679201e-15
151	0xa77ddddf	-3.523108e-15
152	0x275f6622	3.1002833e-15
153	0x27745c4e	3.391184e-15
154	0x2791c2a0	4.0456597e-15
155	0x280a5777	7.679505e-15
156	0xa846e19f	-1.1040132e-14
157	0x283946b6	1.0284896e-14
158	0x276c1211	3.2761373e-15
159	0xa7ec15d6	-6.5526833e-15
160	0xa50b60a5	-1.2089073e-16
161	0xa7226820	-2.2538463e-15
162	0x283ce3a2	1.04854564e-14
163	0xa7b6ed07	-5.0772133e-15
164	0xa7a35ea0	-4.534418e-15
165	0x26e1f44f	1.5678731e-15
166	0x2794892f	4.1226987e-15
167	0xa762ebdb	-3.1491658e-15
168	0xa805621f	-7.40426e-15
169	0x27c03811	5.3351493e-15
170	0x27806b98	3.564379e-15
171	0x27f21386	6.718966e-15
172	0xa7982ad9	-4.223493e-15
173	0x27128ddf	2.0338479e-15
174	0x28189eeb	8.472155e-15
175	0x284174f5	1.0739013e-14
176	0x278fc26f	3.990128e-15
177	0x27c59bdd	5.484747e-15
178	0x27f7f271	6.8819127e-15
179	0x27f76407	6.866472e-15
180	0x265f4835	7.7466526e-16
181	0xa7b58d53	-5.0390816e-15
182	0x27c759cf	5.5330966e-15
183	0x2852a1cc	1.1692426e-14
184	0xa84c6f39	-1.1348392e-14
185	0xa679c09b	-8.665026e-16
186	0x284316eb	1.0829644e-14
187	0xa6f2e96a	-1.685539e-15
188	0x283c4201	1.0450409e-14
189	0x28010dc4	7.1639235e-15
190	0x283cccc2	1.0480496e-14
191	0x274de681	2.8574421e-15
192	0xa80b4607	-7.731235e-15
193	0xa70352d3	-1.8224801e-15
194	0x28377052	1.0182896e-14
195	0x26de89d7	1.5441706e-15
196	0x27f62028	6.831358e-15
197	0xa7a15383	-4.477702e-15
198	0xa7ac029d	-4.7742423e-15
199	0x2810575d	8.01255e-15
200	0xa7a4fc67	-4.57928e-15
201	0xa85d03c0	-1.22687776e-14
202	0xa7519660	-2.9086095e-15
203	0xa7824da5	-3.616643e-15
204	0xa824dad5	-9.1512804e-15
205	0x2818ab42	8.474831e-15
206	0xa6c4cfe6	-1.3656583e-15
207	0x27b2f2ea	4.9668293e-15
208	0xa75206cc	-2.914704e-15
209	0xa80a4528	-7.675535e-15
210	0xa71fae87	-2.2160294e-15
211	0xa7f882ba	-6.897556e-15
212	0xa8583b04	-1.2003206e-14
213	0x271b39b4	2.1541852e-15
214	0x285df452	1.2320943e-14
215	0xa81057c0	-8.0126335e-15
216	0xa8587bc6	-1.2017248e-14
217	0xa71b9582	-2.159162e-15
218	0xa824264e	-9.112135e-15
219	0x270fb66a	1.9944123e-15
220	0x26d3f1cf	1.4706608e-15
221	0x2795b86c	4.155576e-15
222	0xa84ea349	-1.1470704e-14
223	0xa76b824e	-3.268344e-15
224	0xa7284099	-2.3349702e-15
225	0x271b34f1	2.153927e-15
226	0x27661b7f	3.1933818e-15
227	0xa66c8205	-8.205516e-16
228	0xa68f543e	-9.945452e-16
229	0xa84cc6dd	-1.13673965e-14
230	0xa803d591	-7.318271e-15
231	0x27aeabe0	4.848105e-15
232	0xa73072a2	-2.448705e-15
233	0xa7adc463	-4.823007e-15
234	0x268ea904	9.899041e-16
235	0x273a9133	2.5891398e-15
236	0x2686fb43	9.366222e-16
237	0x279d496b	4.3655854e-15
238	0xa78eb64b	-3.961056e-15
239	0x26a9d0bb	1.1783307e-15
240	0xa7eebcaa	-6.626282e-15
241	0xa7feadad	-7.068746e-15
242	0x283ad48e	1.0371165e-14
243	0xa80bec06	-7.7672294e-15
244	0xa70bab42	-1.9382964e-15
245	0x28398bc4	1.029987e-14
246	0x27dffc1c	6.216827e-15
247	0x27fe8fef	7.0655215e-15
248	0xa7909d98	-4.0138892e-15
249	0x282b0fcf	9.495835e-15
250	0xa732b1c5	-2.4798831e-15
251	0xa775a4cf	-3.4089923e-15
252	0xa6232ee3	-5.661553e-16
253	0xa83588e8	-1.0077205e-14
254	0x2708de53	1.8994314e-15
255	0xa7f1c763	-6.7107113e-15

mixer_1.Self_Attention_0.k.bias f4 [48]
0	0xa7c93056	-5.5841113e-15
1	0xa812862c	-8.133722e-15
2	0xa8245325	-9.121858e-15
3	0x27972450	4.195029e-15
4	0x282c2ee5	9.558087e-15
5	0x28185a22	8.4572394e-15
6	0xa778fbd3	-3.4553428e-15
7	0x27cc824d	5.6762647e-15
8	0xa798d477	-4.241883e-15
9	0xa803235c	-7.279628e-15
10	0xa604e8ce	-4.611221e-16
11	0xa80daa59	-7.864011e-15
12	0x26adcde8	1.2060097e-15
13	0xa81ebfa6	-8.812319e-15
14	0x2767c3bc	3.2163798e-15
15	0x25bd43d8	3.2832246e-16
16	0xa858e4d7	-1.204003e-14
17	0xa7eebfdc	-6.6266284e-15
18	0x28089812	7.5824916e-15
19	0x27af5dcc	4.867395e-15
20	0xa85fbff2	-1.2420608e-14
21	0xa6631b0f	-7.8793117e-16
22	0xa6bdd34a	-1.317178e-15
23	0xa84b410e	-1.128287e-14
24	0x268180fa	8.986132e-16
25	0xa6314048	-6.149633e-16
26	0xa78592ff	-3.707429e-15
27	0x28006046	7.126303e-15
28	0xa7fcfb95	-7.0216816e-15
29	0xa78c585f	-3.895362e-15
30	0x283b7752	1.0406459e-14
31	0x28056226	7.404266e-15
32	0x2804a0ec	7.362366e-15
33	0xa4802f1a	-5.5590944e-17
34	0x26a51eab	1.1457488e-15
35	0xa7d58ea8	-5.9274044e-15
36	0xa799dd5a	-4.270602e-15
37	0x27dd82f5	6.1481806e-15
38	0xa6d36175	-1.4667482e-15
39	0x27ee8b2c	6.620916e-15
40	0x28486960	1.112508e-14
41	0x27852b67	3.6961972e-15
42	0x273f9ce6	2.659163e-15
43	0x272a8bed	2.3668093e-15
44	0x27e0d8c2	6.24075e-15
45	0xa8031ffd	-7.278897e-15
46	0x28210fdf	8.940737e-15
47	0x26e1cf1a	1.5668646e-15

mixer_1.Self_Attention_0.v.weight f4 [48, 48]
0	0xa81c3c15	-8.672768e-15
1	0xa6e2dc6a	-1.5741644e-15
2	0xa857675c	-1.195731e-14
3	0x2790a997	4.01519e-15
4	0xa75194e6	-2.9085295e-15
5	0x2847ca99	1.10906505e-14
6	0x258cba0c	2.44122e-16
7	0xa85524ab	-1.1831826e-14
8	0xa84d5a5a	-1.1399378e-14
9	0xa7bd24b3	-5.2497827e-15
10	0x286d02b5	1.315673e-14
11	0xa82853ef	-9.344074e-15
12	0xa805a0af	-7.417826e-15
13	0xa79da5e3	-4.375611e-15
14	0x2791beea	4.0452574e-15
15	0x2823fb03	9.102747e-15
16	0x2742e240	2.7045559e-15
17	0x2704943a	1.8399034e-15
18	0xa787a456	-3.76482e-15
19	0xa83b888c	-1.0410194e-14
20	0xa83b0865	-1.03824056e-14
21	0xa753766d	-2.934633e-15
22	0xa7be15db	-5.275929e-15
23	0x274aa9bf	2.812515e-15
24	0x282e9d86	9.693098e-15
25	0xa7e24605	-6.2803516e-15
26	0x28699672	1.2966721e-14
27	0xa8262471	-9.222753e-15
28	0xa795fcc5	-4.162986e-15
29	0x26b1c0ed	1.2334135e-15
30	0x27f6552e	6.837107e-15
31	0x27230aae	2.2626584e-15
32	0x27ef0eb3	6.6351763e-15
33	0x282fbcd7	9.7554e-15
34	0xa84e8a59	-1.14652965e-14
35	0xa860a660	-1.2470575e-14
36	0x27dc0ef0	6.107846e-15
37	0xa79a74f8	-4.2870404e-15
38	0x26e989d1	1.6204978e-15
39	0x2844f502	1.0933313e-14
40	0x285a03b2	1.2102232e-14
41	0x28344c9d	1.000862e-14
42	0xa7f0176b	-6.663877e-15
43	0xa71df996	-2.1923428e-15
44	0xa82de9ef	-9.6541554e-15
45	0xa81617b2	-8.331811e-15
46	0x281f4bdf	8.842725e-15
47	0x278553c6	3.7005743e-15
48	0xa84dd9fe	-1.14270555e-14
49	0xa74dca26	-2.855905e-15
50	0x283e1344	1.0551296e-14
51	0x283dee4f	1.05432825e-14
52	0x27c12f8b	5.3619807e-15
53	0x283f6c85	1.0626161e-14
54	0xa7d55a0f	-5.9217018e-15
55	0xa8015718	-7.179824e-15
56	0xa863501a	-1.2618401e-14
57	0x28609c58	1.24683995e-14
58	0x2809c6cb	7.648134e-15
59	0xa82d8fe1	-9.634628e-15
60	0x270e19a4	1.9720358e-15
61	0xa849ad0d	-1.1195266e-14
62	0x2854887a	1.1797958e-14
63	0xa77629ad	-3.416195e-15
64	0x287c4d11	1.4005521e-14
65	0xa637465a	-6.3586223e-16
66	0xa8125779	-8.123596e-15
67	0x2738e792	2.5660664e-15
68	0x286855f1	1.2897223e-14
69	0xa87cb293	-1.4027532e-14
70	0xa65c61b7	-7.646026e-16
71	0xa82a2db2	-9.446804e-15
72	0x2824b838	9.143775e-15
73	0xa7cdde30	-5.7139826e-15
74	0xa828ae9b	-9.363735e-15
75	0xa8572910	-1.19438015e-14
76	0x27a575a4	4.5924246e-15
77	0x27cc8506	5.67656e-15
78	0xa762bc91	-3.1466022e-15
79	0xa80ee16b	-7.931463e-15
80	0x284ac5c9	1.125614e-14
81	0xa802b036	-7.254659e-15
82	0x276f6059	3.3220143e-15
83	0x270d9b22	1.9651778e-15
84	0x27ff521b	7.0865737e-15
85	0x281aa6e6	8.584908e-15
86	0xa805acac	-7.420425e-15
87	0x28563280	1.1890337e-14
88	0x2840374a	1.067013e-14
89	0x26685c7f	8.0616525e-16
90	0x288b3ae5	1.5457641e-14
91	0xa75a888d	-3.0327602e-15
92	0x28696989	1.29569825e-14
93	0x279f090a	4.4141165e-15
94	0xa8142e25	-8.225656e-15
95	0x27b65483	5.0606775e-15
96	0x264afa66	7.042218e-16
97	0xa85049a2	-1.1562286e-14
98	0xa819c8c1	-8.536738e-15
99	0x282b3c09	9.505425e-15
100	0x27c98308	5.593077e-15
101	0xa84048bf	-1.0673915e-14
102	0x27bf3fec	5.3082454e-15
103	0x2758a83c	3.0067222e-15
104	0xa6179f06	-5.2604166e-16
105	0xa754186e	-2.9434154e-15
106	0xa821cfa1	-8.982318e-15
107	0x2839a603	1.0305561e-14
108	0xa85fda5f	-1.2426338e-14
109	0x2775b5dd	3.4099168e-15
110	0x277ac0f9	3.479908e-15
111	0xa7ec8056	-6.56423e-15
112	0x26e74d64	1.6049822e-15
113	0x2843d1c2	1.08701585e-14
114	0xa6fd02f9	-1.7556207e-15
115	0x2822e07b	9.041483e-15
116	0x27158cdc	2.0754264e-15
117	0x27cac4df	5.627971e-15
118	0xa7282dd3	-2.3339525e-15
119	0xa80d99ae	-7.860396e-15
120	0x27f97f8a	6.924966e-15
121	0xa81e484f	-8.786441e-15
122	0x276b117c	3.262228e-15
123	0x285bdd4f	1.2204931e-14
124	0xa8232670	-9.0566525e-15
125	0xa7c7e82a	-5.548531e-15
126	0xa83b0550	-1.0381737e-14
127	0x281f5e8e	8.846776e-15
128	0x27c50022	5.467863e-15
129	0x271db444	2.188585e-15
130	0x27b74cca	5.087596e-15
131	0xa72b2f62	-2.3756703e-15
132	0xa7d33fc6	-5.8633408e-15
133	0xa813a3f9	-8.195695e-15
134	0x2835bb85	1.008818e-14
135	0x2811d968	8.096259e-15
136	0x27e9f11d	6.4931907e-15
137	0xa7914824	-4.03238e-15
138	0xa8270d04	-9.2731846e-15
139	0x27f6e9bd	6.8532136e-15
140	0xa768f2de	-3.2328126e-15
141	0xa82c3358	-9.559051e-15
142	0xa780c467	-3.5740077e-15
143	0x2826fb07	9.269284e-15
144	0x2806691a	7.4612845e-15
145	0xa82d97db	-9.6363576e-15
146	0x2797134c	4.193184e-15
147	0xa70d6d49	-1.9626924e-15
148	0xa82be3ae	-9.541777e-15
149	0xa8128dd4	-8.135382e-15
150	0x27e4b65d	6.348043e-15
151	0x283f0bec	1.0605215e-14
152	0x2838c7f7	1.0257412e-14
153	0x27c61108	5.4974505e-15
154	0xa796ccc9	-4.185539e-15
155	0xa819fc48	-8.547911e-15
156	0xa78fc7e0	-3.990718e-15
157	0x27ff65af	7.0886963e-15
158	0xa7644669	-3.1679526e-15
159	0x27cfe84c	5.77059e-15
160	0xa7a48e8c	-4.5673694e-15
161	0xa7612dfa	-3.1249947e-15
162	0x244103cc	4.185342e-17
163	0xa6f361b6	-1.6887997e-15
164	0x2811b75c	8.088877e-15
165	0xa67ad80f	-8.702899e-16
166	0xa66fba16	-8.3171976e-16
167	0x284ec183	1.1477258e-14
168	0xa85cb993	-1.2252693e-14
169	0x283fc763	1.0645865e-14
170	0xa801302b	-7.171383e-15
171	0x28296e6d	9.405329e-15
172	0xa78cf18c	-3.911969e-15
173	0x282e443b	9.6737354e-15
174	0x2754e725	2.9546214e-15
175	0x282ae342	9.486174e-15
176	0xa80c435a	-7.786166e-15
177	0xa64ea296	-7.169095e-16
178	0xa846233f	-1.0998851e-14
179	0xa8044356	-7.342073e-15
180	0x284513df	1.0940006e-14
181	0xa807e1e7	-7.54299e-15
182	0x285ab7a5	1.21412525e-14
183	0xa7972d0e	-4.1959768e-15
184	0xa80e9aea	-7.916175e-15
185	0xa7a8fd54	-4.6904026e-15
186	0xa817780b	-8.408214e-15
187	0xa803bc4f	-7.312794e-15
188	0xa74e0766	-2.8592254e-15
189	0xa7004f0c	-1.780642e-15
190	0x27fcde63	7.0185163e-15
191	0x266788e4	8.0329746e-16
192	0x280390a7	7.303327e-15
193	0x2784506e	3.672456e-15
194	0x27ded45d	6.1847623e-15
195	0xa84cb1e4	-1.1362849e-14
196	0x28257c96	9.186355e-15
197	0xa820ea7f	-8.9326324e-15
198	0xa8216b4e	-8.960563e-15
199	0xa7a74e85	-4.6436942e-15
200	0xa75386d6	-2.9355227e-15
201	0x282dbee9	9.644826e-15
202	0x27a47f4c	4.565716e-15
203	0x27ce1efd	5.7210083e-15
204	0xa872ba76	-1.3474131e-14
205	0xa84792eb	-1.1078577e-14
206	0xa8043539	-7.339013e-15
207	0xa8552c5b	-1.1833493e-14
208	0xa6996847	-1.0644772e-15
209	0xa870a02f	-1.33574106e-14
210	0xa85a147b	-1.2105872e-14
211	0x26f6ce40	1.7125583e-15
212	0xa6e3c0f0	-1.5803585e-15
213	0xa7a7a098	-4.6525927e-15
214	0x2832427b	9.8954006e-15
215	0x284955b3	1.11763245e-14
216	0x280d23f6	7.83487e-15
217	0x26a42650	1.1390171e-15
218	0x27f5b10f	6.8193128e-15
219	0xa7d9a924	-6.041298e-15
220	0xa8498e1f	-1.1188559e-14
221	0xa7a0ba4c	-4.4610904e-15
222	0x278b261d	3.8621573e-15
223	0x285bfa41	1.2211207e-14
224	0xa81aae53	-8.586518e-15
225	0x27aac870	4.7401793e-15
226	0x270806aa	1.8877404e-15
227	0x23913e17	1.5747228e-17
228	0x284dac51	1.1417151e-14
229	0xa7ab347b	-4.7518934e-15
230	0x27c5fc83	5.4952258e-15
231	0x285480ee	1.1796321e-14
232	0x28349eaf	1.0026416e-14
233	0x27e41651	6.330691e-15
234	0x270e0cf2	1.9713476e-15
235	0xa6b9d5a2	-1.2894859e-15
236	0xa84898e1	-1.11353806e-14
237	0xa8293514	-9.392894e-15
238	0xa841fd74	-1.0768611e-14
239	0xa70d0e66	-1.9575486e-15
240	0xa828f3a3	-9.378704e-15
241	0xa84f29d0	-1.1499875e-14
242	0xa7d39399	-5.872429e-15
243	0xa7d0a198	-5.7906798e-15
244	0x27dcf9f2	6.1333258e-15
245	0xa8612bbe	-1.2499494e-14
246	0x281f5eff	8.846872e-15
247	0x27e239be	6.2790205e-15
248	0x26f233e1	1.6806185e-15
249	0x2770759b	3.3370445e-15
250	0xa82b89c7	-9.5222826e-15
251	0xa8393274	-1.0280503e-14
252	0x2714f4fd	2.0671934e-15
253	0x28341c47	9.998139e-15
254	0x283b31b1	1.039136e-14
255	0xa7cbb8e2	-5.654427e-15

mixer_1.Self_Attention_0.v.bias f4 [48]
0	0x280e819f	7.9106906e-15
1	0x2888de62	1.5195476e-14
2	0x280d146e	7.831502e-15
3	0x287d9e8b	1.40787e-14
4	0x285dbfa1	1.2309517e-14
5	0xa687041c	-9.368621e-16
6	0x27ceb72e	5.737509e-15
7	0x27d35f35	5.866749e-15
8	0x2835431b	1.00620696e-14
9	0x27b95863	5.1443644e-15
10	0x28855cb0	1.4806163e-14
11	0x28e068c9	2.4914439e-14
12	0x287c3dab	1.4002182e-14
13	0xa8084a76	-7.565663e-15
14	0x28b87c17	2.0481919e-14
15	0xa8a9559f	-1.8799901e-14
16	0x28735174	1.3506872e-14
17	0xa737b3d8	-2.5493845e-15
18	0x2787806a	3.7609254e-15
19	0xa8454162	-1.09498744e-14
20	0xa8824515	-1.4462859e-14
21	0xa80ee2d6	-7.931771e-15
22	0xa7c39d68	-5.4294033e-15
23	0xa66f8b45	-8.310853e-16
24	0x27e8c271	6.460375e-15
25	0x2773c623	3.3830435e-15
26	0x2731ba77	2.4664767e-15
27	0x28394f5c	1.0286771e-14
28	0xa73db788	-2.6328511e-15
29	0x26db4380	1.5214474e-15
30	0xa6d23fd5	-1.4588979e-15
31	0x27bb4cca	5.198618e-15
32	0x28b8b330	2.0505814e-14
33	0x26f87323	1.7239665e-15
34	0x27aacb22	4.7404716e-15
35	0xa6320993	-6.176913e-16
36	0xa730297e	-2.44474e-15
37	0x28cc0ed2	2.2654977e-14
38	0xa7158ec9	-2.0755308e-15
39	0xa86aa03e	-1.3024356e-14
40	0xa852e790	-1.1707554e-14
41	0xa8067e5b	-7.465893e-15
42	0xa69cb4c0	-1.0873667e-15
43	0xa872f1f8	-1.3486167e-14
44	0xa6a32c49	-1.1322401e-15
45	0xa87d7295	-1.4069167e-14
46	0xa765bd08	-3.1882608e-15
47	0xa88333c5	-1.4566373e-14
