Interpretability analysis/q/CMM_min_weights .pth (torch, 412359 bytes, 1609 tensors)

mixer_1.PatchMixer.mlp.0.weight f4 [48, 48]
-0.08389058 -0.06386199 -0.111434475 -0.08814425 -0.08245574 -0.06434847 -0.019034922 0.033714503
0.112295516 0.0051326393 -0.033653352 0.12086912 -0.10246999 0.031871047 0.037482396 -0.03473804
0.15133125 0.12586935 0.031107834 0.11801591 0.13230571 0.0778983 -0.08630981 0.087085254
0.03027949 -0.007733099 -0.090033196 0.028867792 -0.06373872 0.04366485 -0.038493488 0.06401876
-0.0338627 0.07965816 -0.026435388 0.12664111 -0.04747487 -0.052080568 0.115680754 -0.001065591
0.06331871 -0.06528911 0.030142257 -0.035754804 0.034841236 -0.08207924 0.010868942 0.08664101
0.06642134 0.053762194 0.0762849 0.06475676 0.05996244 0.058471717 0.061664127 -0.011077364
0.0112894615 0.032966703 0.032010313 -0.023125215 0.061842836 -0.064661875 0.010955753 0.061954826
-0.043406148 -0.022661498 0.029118119 -0.035049465 -0.10885285 0.007371655 0.06972494 -0.048511885
-0.049166936 0.056922078 0.06280486 -0.016480004 0.07729328 -0.041927435 0.056801166 -0.07535826
0.06889138 0.011428487 0.051827136 0.01094693 0.071390085 0.06022957 -0.08679839 0.013766071
-0.030008918 0.07771848 -0.026115712 0.051529724 -0.058539465 0.06908768 -0.019314198 -0.0038950213
0.08409971 0.07593255 0.09096841 0.09944385 0.07970329 0.09562694 0.096383475 0.008649305
0.006499262 0.044110492 0.038101476 -0.046646893 0.079634614 -0.09391429 0.013838201 0.09615362
-0.053966664 -0.031251613 0.045075983 -0.035731126 -0.17162871 0.016114395 0.11536904 -0.081780285
-0.059113044 0.061184652 0.0869318 -0.016971346 0.08589178 -0.046279144 0.09473664 -0.11119121
0.09966976 0.037942637 0.06299643 0.008970118 0.09035213 0.08796573 -0.12319621 0.022383725
-0.04507063 0.102705695 -0.005355981 0.06447381 -0.078438394 0.07968598 -0.024561394 -0.0025666782
0.0706085 0.06331053 0.09619287 0.083384186 0.07167033 0.074592695 0.07238204 -0.006160449
0.0049685137 0.044632368 0.03151461 -0.026523978 0.06864501 -0.08079187 0.013528548 0.07726372
-0.052049696 -0.018390406 0.044456497 -0.030256214 -0.14377992 0.0130551625 0.083298005 -0.066347584
-0.05269149 0.0861322 0.0776876 -0.015307799 0.09644571 -0.041420143 0.07201595 -0.09763375
0.08914093 0.017499613 0.056788344 0.027609436 0.08635235 0.07529639 -0.10359001 0.037553553
-0.037457205 0.080843225 -0.024761641 0.053011954 -0.06642263 0.0871287 -0.019410135 0.0009448088
0.032199506 0.023453448 0.034678623 0.09814687 0.043018527 0.06914748 0.10067469 -0.079536326
0.061856348 0.036725108 0.01521864 -0.082577914 0.06272279 -0.04211253 0.028427461 0.074364334
-0.02891295 -0.08873188 0.031531956 -0.031892963 -0.06363992 -0.010181541 0.08735424 -0.031340078
-0.024060685 0.0673757 0.029057553 -0.007650997 0.032719918 -0.010977808 0.03174496 -0.03264287
0.037471686 0.03431842 0.02117863 -0.0049792184 0.05207953 0.02972228 -0.062707566 -0.017306486
-0.065220386 0.04258474 -0.035445288 0.021136582 -0.03143869 0.056454662 -0.013346812 -0.01051475
-0.05497342 -0.07563988 -0.14783153 -0.056217864 -0.03459526 0.025593568 -0.05200087 0.11737264
0.01829209 0.03325021 0.012270823 0.1696444 -0.086493134 0.003814971 0.0356777 -0.04329805
00000000: d3ce abbd 13ca 82bd c237 e4bd f984 b4bd
00000010: 8ede a8bd 21c9 83bd 20ef 9bbc 3818 0a3d
00000020: 31fb e53d b32f a83b 19d8 09bd 3b8a f73d
00000030: c9db d1bd 378b 023d 2487 193d 7a49 0ebd
00000040: 94f6 1a3e e5e3 003e dbd5 fe3c 53b2 f13d
00000050: 267b 073e 2589 9f3d 33c3 b0bd c159 b23d
00000060: b10c f83c f065 fdbb 5363 b8bd 267c ec3c
00000070: 7289 82bd ead9 323d 59ab 1dbd 451c 833d
00000080: 9db3 0abd d123 a33d 078f d8bc 35ae 013e
00000090: 0275 42bd 6f52 55bd 08ea ec3d 4dab 8bba
000000a0: 3dad 813d 4cb6 85bd e5ec f63c a173 12bd
000000b0: afb5 0e3d 2919 a8bd a613 323c d870 b13d
000000c0: e907 883d bf35 5c3d 423b 9c3d 319f 843d
000000d0: 2d9b 753d 0a80 6f3d 8693 7c3d d57d 35bc
000000e0: 6ff7 383c 1808 073d 3f1d 033d 1771 bdbc
000000f0: ea4e 7d3d 726d 84bd c27f 333c 58c4 7d3d
00000100: a5ca 31bd 9ba4 b9bc 1f89 ee3c 0790 0fbd
00000110: 3eee debd ed8d f13b f3cb 8e3d 66b4 46bd
00000120: 4563 49bd 2027 693d d69f 803d 1301 87bc
00000130: f04b 9e3d 1abc 2bbd 57a8 683d 6e55 9abd
00000140: ed16 8d3d 8c3e 3b3c b148 543d c15a 333c
00000150: f734 923d 48b3 763d 5bc3 b1bd 168b 613c
00000160: 43d5 f5bc de2a 9f3d 9ef0 d5bc d510 533d
00000170: 14c7 6fbd d77d 8d3d cf38 9ebc 9d43 7fbb
00000180: 783c ac3d 8682 9b3d a54d ba3d 38a9 cb3d
00000190: 7a3b a33d 0fd8 c33d b364 c53d d1b5 0d3c
000001a0: c3f7 d43b 34ad 343d 4b10 1c3d d010 3fbd
000001b0: 7917 a33d 2356 c0bd 9fb9 623c 30ec c43d
000001c0: 260c 5dbd b101 00bd 98a1 383d cd5a 12bd
000001d0: 70bf 2fbe 5602 843c 9a46 ec3d 6c7c a7bd
000001e0: 8520 72bd c29c 7a3d 4d09 b23d 7e07 8bbc
000001f0: 08e8 af3d 338f 3dbd 4905 c23d 38b8 e3bd
00000200: a91f cc3d bd69 1b3d 4604 813d 67f7 123c
00000210: 8a0a b93d 6027 b43d 4b4e fcbd 135e b73c
00000220: fb9b 38bd 5d57 d23d 3a81 afbb d80a 843d
00000230: 4fa4 a0bd 6732 a33d fa34 c9bc b735 28bb
00000240: 309b 903d f3a8 813d c400 c53d 54c5 aa3d
00000250: e5c7 923d 0ec4 983d 093d 943d 97dd c9bb
00000260: eace a23b 6ed0 363d 7715 013d d048 d9bc
00000270: c195 8c3d 3576 a5bd d8a6 5d3c 713c 9e3d
00000280: 1032 55bd 7aa7 96bc 0418 363d e1db f7bc
00000290: 0b3b 13be 52e5 553c 2598 aa3d 3ee1 87bd
000002a0: 08d3 57bd 1466 b03d ad1a 9f3d 90cd 7abc
000002b0: 5485 c53d 2ba8 29bd 197d 933d 34f4 c7bd
000002c0: 858f b63d 595b 8f3c e59a 683d 2f2d e23c
000002d0: 80d9 b03d fe34 9a3d 0027 d4bd c1d1 193d
000002e0: ba6c 19bd 2291 a53d edd8 cabc 1023 593d
000002f0: 9608 88bd 8870 b23d 0102 9fbc 0cad 773a
00000300: a1e3 033d 7221 c03c 2c0b 0e3d 3a01 c93d
00000310: 3234 303d 329d 8d3d 882e ce3d f1e3 a2bd
00000320: 155d 7d3d 116d 163d 9a57 793c 9c1e a9bd
00000330: ce74 803d 307e 2cbd b5e0 e83c 544c 983d
00000340: dada ecbc 0fb9 b5bd a727 013d 32a2 02bd
00000350: a555 82bd 7ad0 26bc c8e6 b23d 745e 00bd
00000360: ea1a c5bc 45fc 893d 1b0a ee3c 37b5 fabb
00000370: 5205 063d 44dc 33bc 0107 023d 88b4 05bd
00000380: e97b 193d 7991 0c3d ce7e ad3c b628 a3bb
00000390: 5851 553d 247c f33c d36c 80bd 55c6 8dbc
000003a0: 4492 85bd 566d 2e3d 142f 11bd a026 ad3c
000003b0: dbc5 00bd 013d 673d 96ac 5abc 0f46 2cbc
000003c0: cf2b 61bd 15e9 9abd 2661 17be b444 66bd
000003d0: c2b3 0dbd 9aa9 d13c ddfe 54bd 1161 f03d
000003e0: 4bd9 953c 5f31 083d 900b 493c 43b7 2d3e
000003f0: 5023 b1bd 9804 7a3b c822 123d 4c59 31bd

mixer_1.PatchMixer.mlp.0.bias f4 [48]
0.091376565 0.032758955 0.08853474 0.038348265 0.046426747 0.07095144 0.054667234 -0.05057523
0.051036414 0.0999271 -0.0052112746 0.07312814 -0.033725135 0.098143674 0.041684844 0.032469805
-0.03963263 -0.040456712 0.034505494 0.011487558 0.05239017 0.033541813 0.0745738 0.04938341
0.085995264 0.10401271 0.08784174 0.036909007 0.052011985 0.0696116 0.011359735 0.057196602
0.056137513 -0.054434314 0.048411384 -0.021253077 0.0267724 0.0317432 0.008809475 0.030400883
0.118657485 0.024870323 0.01700886 0.041512452 0.02543462 -0.055216312 0.037991486 -0.046701886
00000000: a323 bb3d 412e 063d b451 b53d 1213 1d3d
00000010: f929 3e3d fd4e 913d c0ea 5f3d f927 4fbd
00000020: 8f0b 513d 94a6 cc3d 57c3 aabb 35c4 953d
00000030: 5e23 0abd 8dff c83d babd 2a3d 0fff 043d
00000040: d355 22bd f0b5 25bd a255 0d3d 4f36 3c3c
00000050: 1397 563d 2463 093d 26ba 983d 4246 4a3d
00000060: 491e b03d 9e04 d53d 5fe6 b33d e62d 173d
00000070: 850a 553d 8790 8e3d 2f1e 3a3c fc46 6a3d
00000080: 73f0 653d 84f6 5ebd 044b 463d ef1a aebc
00000090: cb51 db3c 2805 023d 9e55 103c 460b f93c
000000a0: b202 f33d d9bc cb3c 2a56 8b3c f608 2a3d
000000b0: 445c d03c 802a 62bd f69c 1b3d 7a4a 3fbd

mixer_1.PatchMixer.mlp.2.weight f4 [48, 48]
-0.09618712 -0.030663194 -0.040155735 -0.026085367 -0.034622192 0.029456211 0.0462112 -0.017537761
-0.01938592 -0.032329608 -0.10938914 -0.12972535 -0.054709543 0.025319114 -0.053591993 -0.028270964
-0.10926762 -0.037970558 0.035351146 0.042431843 -0.03499507 -0.083669804 0.041137893 0.03717768
-0.042804454 -0.081844136 -0.03731459 -0.013377548 0.038139068 0.034555502 -0.025036417 -0.06857493
-0.02227466 -0.065257 -0.03477149 -0.035983644 -0.026741281 -0.027170287 -0.033055242 -0.02563166
0.041616015 -0.13456208 0.021652844 0.01543431 0.02342789 0.027213227 -0.038286895 -0.05643303
0.025159195 0.052750736 0.069674455 0.059051313 0.017454654 -0.11561098 -0.119052455 0.012686842
0.053063326 0.07202842 -0.04994683 0.040021814 0.018121062 -0.10767513 0.081593275 0.051646136
-0.008300184 0.043405782 -0.13569225 -0.13251522 -0.058748946 0.050214108 -0.115493834 -0.13380146
0.037110005 0.042994007 0.07626514 -0.044972233 -0.08092441 -0.121661425 0.043979473 0.026120333
0.046857875 -0.0949635 0.06663556 0.03263376 0.039913867 0.049658105 -0.015508775 0.046753064
-0.18004845 -0.0066218995 -0.07198905 -0.06673303 -0.10456523 -0.19402993 0.067674994 -0.015011579
-0.007174063 0.011941575 0.0008693031 0.005842801 0.0119653605 0.052628584 0.044939004 0.03353513
0.007432167 0.006536439 0.017799107 -0.037856635 0.0019242716 0.047792446 -0.0030164444 0.010251178
0.0011259447 0.015263249 0.052452426 0.053692013 0.050320923 -0.0166387 0.04786065 0.046289723
0.0038063426 0.0121422885 0.0028343361 0.037474863 0.03481449 0.049582202 -0.048385743 0.010903431
0.0025672314 0.034899347 0.0059168404 0.0081606135 0.00023148635 0.009965842 -0.0067983344 0.009646887
0.071783856 0.050848793 0.024877712 0.037633624 0.026777545 0.05530709 0.0048955055 0.00030973525
-0.118888766 0.045402505 0.07937176 0.07441648 0.019959569 -0.11910057 -0.08332009 -0.04286697
0.06931488 0.06749557 -0.12555087 0.03260684 -0.038044084 -0.099379085 0.11335576 0.057608474
-0.0047235554 0.0440767 -0.105368875 -0.10022479 -0.032337084 0.11861623 -0.087293275 -0.0810714
0.0072578075 -0.0069441805 0.08041805 -0.07975071 -0.054311924 -0.099440455 0.0005969276 0.08935496
0.08158958 -0.1383463 0.08255606 0.054710444 0.07301761 0.057814572 0.11210187 0.056902982
-0.16332082 0.0011651068 -0.079387 -0.06568902 -0.08266328 -0.15066889 0.074722566 -0.053832464
-0.0695555 0.025664669 0.061611813 0.044413935 0.085878484 -0.10324615 -0.09116822 0.029245881
0.061790254 0.056453526 -0.059508268 0.09267438 0.05031122 -0.066954285 0.09228472 0.03308771
-0.041567303 -0.031169241 -0.095969446 -0.100691974 0.014377532 0.08077943 -0.103190325 -0.08320068
0.016195225 0.048198644 0.07005668 -0.007647837 -0.045482345 -0.10112113 0.09668281 0.022539906
0.027800448 -0.014136915 0.057646465 -0.036732353 0.04954067 0.032102294 0.074397296 0.030429577
-0.13909113 0.11039749 -0.10940542 -0.038559474 -0.021461895 -0.14995612 0.05984986 0.036117934
-0.0055681313 0.08397315 0.113694936 0.09836177 0.006741245 -0.1445701 -0.122121006 0.0037953476
0.04800401 0.09797295 -0.099877894 -0.038623706 0.043909457 -0.10397624 0.14500256 0.07930567
00000000: c1fd c4bd 6131 fbbc 577a 24bd fbb0 d5bc
00000010: 00d0 0dbd 274e f13c f547 3d3d 5aab 8fbc
00000020: 39cf 9ebc 0d6c 04bd 6a07 e0bd b9d6 04be
00000030: 1d17 60bd 086a cf3c 4783 5bbd 8298 e7bc
00000040: b4c7 dfbd 0487 1bbd 5dcc 103d 03cd 2d3d
00000050: fe56 0fbd 135b abbd 3580 283d 9f47 183d
00000060: b953 2fbd e69d a7bd 2fd7 18bd 812d 5bbc
00000070: b637 1c3d 128a 0d3d 2c19 cdbc 0371 8cbd
00000080: 5979 b6bc 76a5 85bd 8d6c 0ebd 9663 13bd
00000090: 8810 dbbc 3994 debc ef64 07bd 7df9 d1bc
000000a0: 8e75 2a3d a4ca 09be 4e61 b13c 30e0 7c3c
000000b0: d9eb bf3c 46ee de3c b8d2 1cbd 5226 67bd
000000c0: a81a ce3c 2811 583d 7bb1 8e3d cadf 713d
000000d0: 10fd 8e3c 73c5 ecbd c6d1 f3bd 79dc 4f3c
000000e0: ee58 593d a383 933d 0c95 4cbd eaed 233d
000000f0: 9f72 943c c784 dcbd 601a a73d e68a 533d
00000100: 7ffd 07bc 43ca 313d e9f2 0abe 12b2 07be
00000110: bca2 70bd 4fad 4d3d 0888 ecbd 4003 09be
00000120: a900 183d 7c1a 303d e630 9c3d ce34 38bd
00000130: b2bb a5bd a029 f9bd d223 343d 4ffa d53c
00000140: 0bee 3f3d 397c c2bd 3978 883d faaa 053d
00000150: b97c 233d 4c66 4b3d 8418 7ebc 2480 3f3d
00000160: 9f5e 38be 85fc d8bb ff6e 93bd 54ab 88bd
00000170: 4c26 d6bd c8af 46be 3099 8a3d 20f3 75bc
00000180: 6714 ebbb 99a6 433c f2e1 633a f874 bf3b
00000190: 5c0a 443c 1291 573d f611 383d 225c 093d
000001a0: 8989 f33b a02f d63b 6fcf 913c 8f0f 1bbd
000001b0: d737 fc3a 03c2 433d 8aaf 45bb 8ff4 273c
000001c0: 6f94 933a b512 7a3c 5bd8 563d 28ec 5b3d
000001d0: 501d 4e3d e24d 88bc 8709 443d 4b9a 3d3d
000001e0: d573 793b 73f0 463c 45c0 393b 3e7f 193d
000001f0: a399 0e3d b516 4b3d 2130 46bd 4ea4 323c
00000200: ff3e 283b 9ef2 0e3d 0ee2 c13b 18b4 053c
00000210: 25bb 7239 c547 233c 90c4 debb fa0d 1e3c
00000220: 6a03 933d d346 503d 58cc cb3c b725 1a3d
00000230: 955c db3c b089 623d 7a6a a03b f663 a239
00000240: f47b f3bd faf7 393d a98d a23d ab67 983d
00000250: 4082 a33c 00eb f3bd b9a3 aabd 4795 2fbd
00000260: f6f4 8d3d 1e3b 8a3d 6890 00be c08e 053d
00000270: 1dd4 1bbd 4387 cbbd 1127 e83d ddf6 6b3d
00000280: 0ec8 9abb c589 343d a3cb d7bd a842 cdbd
00000290: e473 04bd 11ed f23d d1c6 b2bd c308 a6bd
000002a0: e7d2 ed3b 028c e3bb 38b2 a43d 5754 a3bd
000002b0: 2e76 5ebd 70a7 cbbd 227b 1c3a bcff b63d
000002c0: 7018 a73d a7aa 0dbe 2713 a93d 0f18 603d
000002d0: 428a 953d f9ce 6c3d aa95 e53d 1a13 693d
000002e0: 933d 27be 7fb6 983a a795 a2bd f787 86bd
000002f0: 5e4b a9bd f248 1abe 2508 993d 6e7f 5cbd
00000300: 1d73 8ebd b63e d23c ab5c 7c3d 63eb 353d
00000310: 0fe1 af3d b872 d3bd 67b6 babd 0f95 ef3c
00000320: c717 7d3d d03b 673d f1be 73bd 11cc bd3d
00000330: 2313 4e3d 541f 89bd c5ff bc3d fb86 073d
00000340: 7a42 2abd a356 ffbc a18b c4bd 9837 cebd
00000350: bd8f 6b3c b06f a53d 7355 d3bd 1e65 aabd
00000360: d9ab 843c f16b 453d e079 8f3d b59a fabb
00000370: b24b 3abd 9818 cfbd a301 c63d 9ca5 b83c
00000380: c4bd e33c 859e 67bc b31e 6c3d aa74 16bd
00000390: 28eb 4a3d b27d 033d 9c5d 983d 7347 f93c
000003a0: e86d 0ebe 1418 e23d f30f e0bd 8af0 1dbd
000003b0: dbd0 afbc 198e 19be 2025 753d 66f0 133d
000003c0: df74 b6bb 1dfa ab3d e4d8 e83d e571 c93d
000003d0: a9e5 dc3b 2f0a 14be 941a fabd 5ebb 783b
000003e0: da9f 443d 0ba6 c83d c88c ccbd e433 1ebd
000003f0: 67da 333d 7ff1 d4bd 8d7b 143e 036b a23d

mixer_1.PatchMixer.mlp.2.bias f4 [48]
-0.106034175 0.014995592 0.010649905 -0.009330466 -0.108904995 0.019570073 -0.04334753 0.08224671
-0.015885536 -0.047794927 -0.029153647 -0.021055128 -0.050663818 -0.000107659274 -0.08468426 -0.15100431
-0.119058564 -0.044136066 0.041270956 -0.040786196 0.019205453 0.022973463 0.050997306 0.053631242
0.0071265963 0.080973394 -0.098264426 -0.15102667 -0.029548682 -0.02456348 0.030918635 -0.07014742
-0.08600652 -0.05270408 -0.029322933 -0.05902559 0.0349955 -0.046832144 0.01426229 -0.0012791025
-0.09146981 -0.06504159 -0.025280433 -0.07789768 0.12257947 -0.008013616 -0.08698637 0.030761717
00000000: 7228 d9bd 12b0 753c f07c 2e3c d0de 18bc
00000010: 9509 dfbd 6b51 a03c 2e8d 31bd f770 a83d
00000020: 6222 82bc 9dc4 43bd a1d3 eebc ce7b acbc
00000030: dd84 4fbd 22c7 e1b8 f16e adbd e0a0 1abe
00000040: fad4 f3bd 05c8 34bd bc0b 293d 6d0f 27bd
00000050: c154 9d3c d832 bc3c 8de2 503d 6fac 5b3d
00000060: 3986 e93b 61d5 a53d dc3e c9bd bca6 1abe
00000070: 1410 f2bc 5a39 c9bc 1449 fd3c 73a9 8fbd
00000080: 3024 b0bd 3ce0 57bd a636 f0bc d1c4 71bd
00000090: 7157 0f3d 10d3 3fbd 61ac 693c 8fa7 a7ba
000000a0: 8654 bbbd 8634 85bd e918 cfbc d288 9fbd
000000b0: f20a fb3d 8b4b 03bc e925 b2bd ffff fb3c

mixer_1.Self_Attention_0.q.weight f4 [48, 48]
0.012486821 0.03941785 -0.024458142 0.045130573 0.03003481 -0.084822 -0.057152536 0.031780183
0.06439503 -0.011637318 0.039105043 0.010085543 0.017819295 -0.05464942 -0.014991131 -0.078862935
0.072693184 0.038684294 -0.01708416 0.026398122 -0.094352685 0.040099923 -0.04979581 0.029079929
0.024883572 -0.108284615 -0.022682402 -0.045454793 0.057174325 0.023621915 0.024561353 -0.035630822
-0.024567313 0.023409888 0.025795767 -0.011931635 0.0029009467 -0.0034250678 -0.061878838 -0.0016564716
0.0016760497 -0.06274682 -0.01737969 0.055379532 -0.01934214 0.0817806 -0.08211251 0.037501708
-0.009414268 -0.01997448 0.01194104 -0.021550879 -0.014804794 0.045104895 -0.01024545 0.016897414
-0.046290547 0.014400587 -0.0077344375 0.011006742 0.018291576 0.050670885 -0.0062470175 0.0047512846
-0.041424096 -0.024831837 0.017942272 -0.0002633635 0.08045019 -0.03273491 0.036861215 -0.025269752
-0.0118552735 0.01476535 -0.0003573267 -0.01689894 -0.053428955 0.0046164184 -0.019361045 0.035736002
0.023556435 -0.025475603 -0.016866008 0.010264417 0.004801683 0.0076320893 0.011906547 -0.010134354
0.0019044755 0.019718414 0.023629516 -0.04483442 0.009569304 -0.048206724 0.06806534 -0.03286415
-0.025488878 -0.021715732 0.019684417 -0.031054376 -0.016842104 0.06286792 -0.037416045 0.02013146
-0.05344431 0.019714877 -0.02488491 0.012120462 0.008639298 0.062573835 0.0116014965 0.025252195
-0.058616802 -0.035890996 0.018160243 -0.005441953 0.09176236 -0.03620348 0.04453181 -0.016955659
-0.014126507 0.03159668 -0.00023374459 -0.026860612 -0.054815557 -0.0127414595 -0.006408426 0.04713054
0.044963535 -0.024097336 -0.022531973 0.015421803 -0.005559687 0.0107079735 0.0250726 -0.015768543
-0.012622497 0.022775114 0.018795624 -0.0466405 0.02156088 -0.05487949 0.070296556 -0.039028615
0.009791315 0.021176603 -0.010953189 0.021765238 0.011924334 -0.043638796 0.011636318 -0.016807456
0.04441877 -0.013082427 0.010576961 -0.01089475 -0.016522815 -0.05020998 0.006128947 -0.0040673325
0.042411502 0.026064122 -0.018993111 -0.00010132209 -0.08040391 0.03214835 -0.038407076 0.025490286
0.013540264 -0.012844754 0.0006413351 0.017006518 0.052288838 -0.0015308255 0.019349864 -0.034306686
-0.023072949 0.025508353 0.017959487 -0.009550461 -0.0030522677 -0.0057963417 -0.012363919 0.011867632
-0.003770902 -0.022005534 -0.020935474 0.0433863 -0.009043187 0.048669245 -0.068688415 0.032154012
-0.017605156 -0.017488437 0.027528109 -0.026354805 -0.011746184 0.05156143 -0.020231383 0.023791682
-0.050483 0.041049883 -0.01953818 0.012613016 0.017555349 0.06527366 -0.009929626 -0.041437466
-0.043570153 -0.03471397 0.020717867 0.020996148 0.08932176 -0.03250661 0.04345243 -0.011524332
-0.007017608 0.001657211 0.0141874375 -0.02685362 -0.051383432 -0.0039879708 -0.036556326 0.043146983
0.04060253 -0.0020086628 -0.015253984 0.016246334 -0.0037238228 0.016366038 0.038728718 -0.012485837
-0.01030071 0.021343896 0.020565737 -0.039420754 0.024162896 -0.04231852 0.0645527 -0.037732366
0.025491709 0.031317372 -0.026566982 0.037827816 0.019837534 -0.068918265 -0.0014575185 -0.021652017
0.049978722 -0.026261508 0.032207865 -0.0020526992 -0.023474531 -0.05779573 0.004669171 -0.014785008
00000000: 8695 4c3c 9d74 213d 715c c8bc d6da 383d
00000010: 900b f63c 28b7 adbd c718 6abd f02b 023d
00000020: 8be1 833d 73aa 3ebc 9c2c 203d d53d 253c
00000030: c5f9 913c 12d8 5fbd 5c9d 75bc e482 a1bd
00000040: 2ae0 943d 6c73 1e3d 15f4 8bbc e040 d83c
00000050: fb3b c1bd d13f 243d b1f6 4bbd 0839 ee3c
00000060: a2d8 cb3c 53c4 ddbd 72d0 b9bc ce2e 3abd
00000070: a02f 6a3d bf82 c13c e434 c93c a0f1 11bd
00000080: 6441 c9bc 18c6 bf3c a551 d33c e87c 43bc
00000090: cf1d 3e3b 1a77 60bb aa74 7dbd f71d d9ba
000000a0: e5ae db3a 6881 80bd da5f 8ebc a6d5 623d
000000b0: 6873 9ebc 967c a73d 9b2a a8bd 649b 193d
000000c0: 4d3e 1abc 85a1 a3bc 5aa4 433c 788b b0bc
000000d0: cf8f 72bc e9bf 383d 88dc 27bc 726c 8a3c
000000e0: 289b 3dbd 71f0 6b3c 2a71 fdbb 9f55 343c
000000f0: 37d8 953c 468c 4f3d c8b3 ccbb aab0 9b3b
00000100: 50ac 29bd 236c cbbc acfb 923c 0d14 8ab9
00000110: 12c3 a43d 0a15 06bd c9fb 163d 8302 cfbc
00000120: 9f3c 42bc 5eea 713c 9457 bbb9 a56f 8abc
00000130: 52d8 5abd 5345 973b 0e9b 9ebc ea5f 123d
00000140: 6df9 c03c 36b2 d0bc 952a 8abc 162c 283c
00000150: 7057 9d3b 9b16 fa3b ad13 433c 900a 26bc
00000160: 989f f93a 8388 a13c b092 c13c 4ca4 37bd
00000170: 92c8 1c3c 6a74 45bd d765 8b3d 8f9c 06bd
00000180: 0dce d0bc 31e5 b1bc 3741 a13c bf65 febc
00000190: 74f8 89bc e5c0 803d 9141 19bd bbea a43c
000001a0: 6ce8 5abd 1881 a13c 70db cbbc e794 463c
000001b0: d88b 0d3c b626 803d 3414 3e3c b1dd ce3c
000001c0: 2c18 70bd 7002 13bd cac4 943c 6952 b2bb
000001d0: e7ed bb3d 1a4a 14bd fd66 363d 98e6 8abc
000001e0: dd72 67bc 856b 013d 5619 75b9 c90a dcbc
000001f0: 4786 60bd 8ec1 50bc c6fd d1bb f40b 413d
00000200: af2b 383d c767 c5bc f994 b8bc bbab 7c3c
00000210: 092e b6bb 7f70 2f3c 0e65 cd3c 082d 81bc
00000220: 97ce 4ebc e092 ba3c 48f9 993c 1c0a 3fbd
00000230: 71a0 b03c 51c9 60bd a4f7 8f3d 78dc 1fbd
00000240: c06b 203c 8e7a ad3c 0175 33bc 034d b23c
00000250: 485e 433c 98be 32bd 41a6 3e3c caaf 89bc
00000260: 75f0 353d ad57 56bc fd4a 2d3c e57f 32bc
00000270: db5a 87bc fba8 4dbd 55d5 c83b 4247 85bb
00000280: afb7 2d3d 6d84 d53c 7197 9bbc e27c d4b8
00000290: ceaa a4bd fdad 033d bd50 1dbd 01d1 d03c
000002a0: fcd7 5d3c ce72 52bc 451f 283a 4151 8b3c
000002b0: d22c 563d fba5 c8ba 9b83 9e3c 2b85 0cbd
000002c0: 7b03 bdbc e5f6 d03c c61f 933c 8979 1cbc
000002d0: 8e08 48bb 3def bdbb 0992 4abc 7570 423c
000002e0: 3d21 77bb f344 b4bc df80 abbc d5b5 313d
000002f0: e029 14bc 6759 473d 83ac 8cbd edb3 033d
00000300: b038 90bc e943 8fbc a182 e13c 08e6 d7bc
00000310: 1173 40bc 1432 533d 49bc a5bc c6e6 c23c
00000320: 43c7 4ebd ec23 283d 890e a0bc d3a6 4e3c
00000330: 3cd0 8f3c 32ae 853d dfaf 22bc 55ba 29bd
00000340: 9e76 32bd 3c30 0ebd 84b8 a93c 1d00 ac3c
00000350: 54ee b63d a725 05bd 2dfb 313d 8dd0 3cbc
00000360: f6f3 e5bb c636 d93a 6d72 683c 1ffc dbbc
00000370: 6f77 52bd 86ad 82bb 16bc 15bd e4ba 303d
00000380: d74e 263d c5a3 03bb d9eb 79bc 0817 853c
00000390: 610b 74bb 1212 863c 01a2 1e3d 6591 4cbc
000003a0: 4fc4 28bc 65d9 ae3c 7a79 a83c a877 21bd
000003b0: 44f1 c53c 2f56 2dbd 3534 843d 418d 1abd
000003c0: fdd3 d03c a546 003d 00a3 d9bc 57f1 1a3d
000003d0: 5382 a23c 0525 8dbd 350a bfba 925f b1bc
000003e0: 7db6 4c3d 6022 d7bc 65ec 033d 9486 06bb
000003f0: a94d c0bc 37bb 6cbd d8ff 983b d13c 72bc

mixer_1.Self_Attention_0.q.bias f4 [48]
-0.004293285 0.004195553 0.015391123 -0.0045261243 0.011754309 -0.017155247 0.0015864219 -0.009358609
-0.018019658 -0.02963854 -0.032935414 -0.016014824 0.0064803986 -0.016828245 0.0048899883 0.004595015
0.0070678033 0.025514709 -0.008486826 0.004934573 0.009091933 0.0052171405 -0.007233971 -0.018591592
-0.003761345 -0.025937518 0.0032867566 0.0126859415 -0.019015519 0.0036433546 0.0028358018 0.003860566
0.0053324327 0.0062384005 0.0014346641 -0.0066314656 -0.012834502 0.028636923 0.000840085 -0.031339232
0.0326669 -0.026833799 -0.008580192 -0.003930893 -0.015389331 -0.042209115 -0.0056337737 0.0062615424
00000000: afae 8cbb d97a 893b 0c2b 7c3c e24f 94bb
00000010: 2595 403c 2989 8cbc 7cef cf3a da54 19bc
00000020: f69d 93bc 86cc f2bc 49e7 06bd 8531 83bc
00000030: 8659 d43b 63db 89bc 323c a03b c891 963b
00000040: 0899 e73b 3904 d13c 540c 0bbc 33b2 a13b
00000050: 55f6 143c 8cf4 aa3b f20a edbb 654d 98bc
00000060: e680 76bb eb7a d4bc a066 573b b2d8 4f3c
00000070: 6fc6 9bbc 59c5 6e3b dcd8 393b 8d01 7d3b
00000080: b0bb ae3b 7f6b cc3b 570b bc3a c44c d9bb
00000090: ce47 52bc fb97 ea3c 2639 5c3a 915d 00bd
000000a0: bacd 053d 8ed2 dbbc ef93 0cbc b8ce 80bb
000000b0: 8823 7cbc 77e3 2cbd 859b b8bb a02d cd3b

mixer_1.Self_Attention_0.k.weight f4 [48, 48]
0.017325923 0.012596144 0.0013257458 -0.004539085 0.008989629 -0.009459692 0.003157221 0.06625461
-0.01953313 0.11041089 0.017160539 -0.017519021 0.09537652 0.013511231 0.09821564 0.093141206
0.0077635604 0.006421153 -0.029498322 0.052714307 0.027635561 -0.0063597187 0.039130613 -0.008774949
0.03485177 0.01606833 -0.03249705 0.07244193 -0.05148172 0.010643366 0.034086037 0.0068217847
-0.010504189 -0.018567007 -0.015082921 0.02692838 0.021552151 -0.043553114 0.08671083 0.044769447
0.02812461 0.103488214 0.06797805 -0.036370285 0.010778266 0.00920471 0.04658612 -0.016860634
-0.030687967 -0.025624061 -0.043015778 0.013228372 -0.023638567 0.0011758647 -0.02387166 -0.017616244
-0.020592073 -0.0163732 0.027749922 0.017523803 -0.028695522 -0.020758163 -0.05387645 -0.08166966
0.021622341 -0.009063421 -0.004967219 -0.04745856 -0.0032436955 -0.0049228496 -0.03324273 -0.02987118
-0.015471117 -0.022145906 -0.024397964 -0.01673063 0.012604117 -0.020721175 -0.03544145 -0.0054152478
-0.052089695 -0.054929126 -0.02104369 -0.027186476 -0.007676048 -0.01031803 -0.050710615 -0.0026323616
0.0075969086 -0.046819694 -0.037480123 -0.009537676 -0.0098969545 -0.040921852 0.0019008076 -0.021708382
-0.049307868 -0.022313142 -0.037930526 0.013552273 -0.03410565 0.009965667 -0.06265999 -0.025557576
-0.008731928 -0.030036911 0.02326424 0.00014310128 -0.02569631 -0.020242278 -0.051954195 -0.1035705
0.04162796 0.008373109 0.00227091 -0.056524303 -0.0010158124 -0.013613791 -0.037062492 -0.00886303
-0.017194014 -0.018890368 -0.03204035 -0.01897743 0.033346977 -0.0073988456 -0.041728593 -0.009234641
-0.057337813 -0.050035227 0.004374004 -0.023535855 -0.009400811 -0.017689198 -0.046362016 0.021025501
-0.0041411296 -0.061466973 -0.04318462 0.010249287 -0.000628179 -0.03237052 -0.026478838 0.0016007763
0.03150105 0.02952701 0.043030698 -0.013279766 0.027875824 -0.0045362525 0.023215685 0.022375533
0.021234818 0.0154996 -0.029370766 -0.0185678 0.026477257 0.020295894 0.057590976 0.081585996
-0.021714 0.0073183374 0.007003437 0.04548159 -0.001215889 0.008003314 0.031777866 0.02781436
0.009987623 0.021459585 0.026704567 0.017815148 -0.014137449 0.021952346 0.038232137 0.0030604105
0.053773336 0.051997054 0.01829835 0.025972417 0.009230419 0.012938282 0.052142363 2.0284228e-05
-0.009231888 0.04636793 0.038161937 0.008022058 0.008541477 0.042892173 -0.0016942932 0.023424597
-0.043719266 -0.025321519 -0.05936154 0.006165441 -0.04927927 -9.190225e-05 -0.060676113 -0.03442632
-0.019794246 -0.006470777 0.019352708 -0.015035605 -0.045529652 -0.0408282 -0.06278452 -0.05275029
0.032260943 -0.005991141 -0.023560423 -0.025730738 0.0006508925 -0.014161565 -0.032129187 -0.038810484
-0.020430038 -0.017352251 -0.02605837 -0.0036548944 0.00044284202 -0.023036303 -0.020055888 -0.018319279
-0.08280944 -0.050290205 -0.019909931 -0.02263325 -0.012242052 -0.049833257 -0.039767697 0.022894265
-0.020874733 -0.039807517 -0.022118673 -0.008211352 -0.0052696206 -0.04374285 -0.009901789 -0.018778665
0.040716983 0.029540934 0.039161585 0.0013492325 0.03372903 0.000279122 0.02891281 0.035862893
0.010158369 0.035914153 -0.0022493512 -0.0061642183 0.048778318 0.03330927 0.06351936 0.090938725
00000000: 18ef 8d3c 0f60 4e3c a6c4 ad3a 9bbc 94bb
00000010: 3d49 133c d3fc 1abc 61e9 4e3b 7fb0 873d
00000020: f103 a0bc 1b1f e23d 4294 8c3c 0d84 8fbc
00000030: c454 c33d 365e 5d3c 4825 c93d d1c0 be3d
00000040: 7765 fe3b 8968 d23b 77a6 f1bc f5ea 573d
00000050: f963 e23c 3065 d0bb 6c47 203d cec4 0fbc
00000060: bbc0 0e3d bba1 833c a01b 05bd 6f5c 943d
00000070: 7fde 52bd 8361 2e3c cd9d 0b3d 4789 df3b
00000080: c319 2cbc d619 98bc 5b1e 77bc e898 dc3c
00000090: 238e b03c c064 32bd 7395 b13d 2b60 373d
000000a0: 9565 e63c a1f1 d33d 1338 8b3d 02f9 14bd
000000b0: 5397 303c 5acf 163c 16d1 3e3d 501f 8abc
000000c0: 5565 fbbc 8de9 d1bc 5031 30bd d0bb 583c
000000d0: aba5 c1bc 791f 9a3a 808e c3bc f14f 90bc
000000e0: b5b0 a8bc 1721 86bc ce53 e33c 148e 8f3c
000000f0: df12 ebbc 060d aabc 8dad 5cbd 6c42 a7bd
00000100: 5621 b13c be7e 14bc 0ec4 a2bb e863 42bd
00000110: 2e94 54bb db4f a1bb 8729 08bd 68b4 f4bc
00000120: 917a 7dbc 556b b5bc 3dde c7bc ad0e 89bc
00000130: 8081 4e3c 74bf a9bc 0e2b 11bd 6472 b1bb
00000140: 015c 55bd 5dfd 60bd d163 acbc 2cb6 debc
00000150: 5c87 fbbb f40c 29bc efb5 4fbd b383 2cbb
00000160: 7def f83b 02c6 3fbd c284 19bd ea43 1cbc
00000170: d626 22bc ac9d 27bd 8524 f93a c7d5 b1bc
00000180: 0cf7 49bd 0dca b6bc 0a5d 1bbd 5a0a 5e3c
00000190: 5eb2 0bbd 0947 233c e153 80bd 1f5e d1bc
000001a0: 5c10 0fbc f80f f6bc a694 be3c 750d 1639
000001b0: 1181 d2bc 22d3 a5bc eccd 54bd c51c d4bd
000001c0: 1482 2a3d 5d2f 093c 8cd3 143b 0786 67bd
000001d0: 0225 85ba 610c 5fbc d7ce 17bd 3e36 11bc
000001e0: 76da 8cbc f9bf 9abc be3c 03bd 8e76 9bbc
000001f0: d796 083d 0472 f2bb 9aeb 2abd e44c 17bc
00000200: 0edb 6abd bdf1 4cbd ce53 8f3b 44ce c0bc
00000210: dc05 1abc f0e8 90bc 19e6 3dbd ac3d ac3c
00000220: 50b2 87bb cbc4 7bbd 5be2 30bd a0ec 273c
00000230: 61ac 24ba f396 04bd 26ea d8bc 24d1 d13a
00000240: 3f07 013d a1e2 f13c f540 303d 6093 59bc
00000250: d75b e43c d8a4 94bb d22e be3c e54c b73c
00000260: a4f4 ad3c 09f2 7d3c f69a f0bc 801b 98bc
00000270: d5e6 d83c 9343 a63c 84e4 6b3d 8f16 a73d
00000280: 8fe1 b1bc aace ef3b 167d e53b e74a 3a3d
00000290: 775e 9fba 5520 033c 8229 023d f1da e33c
000002a0: 21a3 233c 03cc af3c 89c3 da3c 13f1 913c
000002b0: c2a0 67bc 68d5 b33c 4d99 1c3d 2b91 483b
000002c0: 6e41 5c3d ddfa 543d 6ce6 953c 1bc4 d43c
000002d0: 2f3b 173c 17fb 533c 3b93 553d 0c28 aa37
000002e0: 5841 17bc 4cec 3d3d b14f 1c3d f36e 033c
000002f0: 8df1 0b3c b4af 2f3d 0c13 deba f1e4 bf3c
00000300: f912 33bd 136f cfbc 1625 73bd 7807 ca3b
00000310: 0fd9 49bd a5bb c0b8 8487 78bd 9d02 0dbd
00000320: 8b27 a2bc d008 d4bb 9289 9e3c e657 76bc
00000330: 4d7d 3abd 783b 27bd 2c95 80bd b010 58bd
00000340: 0d24 043d 5551 c4bb ca01 c1bc 45c9 d2bc
00000350: a8a0 2a3a e905 68bc e599 03bd bef7 1ebd
00000360: e55c a7bc 4f26 8ebc 5d78 d5bc f486 6fbb
00000370: 402d e839 a1b6 bcbc 3f4c a4bc 5012 96bc
00000380: ff97 a9bd 1afd 4dbd 271a a3bc 5e69 b9bc
00000390: e392 48bc f51d 4cbd 74e3 22bd c18c bb3c
000003a0: 7d01 abbc 350d 23bd 3832 b5bc e888 06bc
000003b0: c8ac acbb b42b 33bd 1d3b 22bc b7d5 99bc
000003c0: dac6 263d d4ff f13c e667 203d bbd8 b03a
000003d0: 7427 0a3d 1f57 9239 8fda ec3c f8e4 123d
000003e0: 4a6f 263c b81a 133d da69 13bb 36fd c9bb
000003f0: c6cb 473d 4d6f 083d 7016 823d 153e ba3d

mixer_1.Self_Attention_0.k.bias f4 [48]
3.425183e-08 2.690353e-08 1.8374323e-08 -1.5245963e-08 7.857869e-09 -3.4827465e-09 -1.524164e-08 -2.3648372e-08
-7.2413835e-09 1.672004e-08 3.945155e-08 -7.510129e-09 1.5311182e-08 -2.1187015e-08 2.214142e-08 -1.2698132e-08
-1.773147e-08 -2.9136443e-08 -1.803383e-08 1.7365068e-09 1.3090676e-08 2.0830909e-08 -2.3817641e-08 -7.3576842e-09
-2.3132685e-08 -3.1823308e-09 2.943703e-08 -1.7629667e-10 -1.0220078e-08 3.9593964e-08 2.764694e-08 1.4840177e-08
2.6097446e-08 -4.8098546e-08 3.0858228e-08 -2.6356153e-08 1.6329416e-09 1.2685352e-08 -1.0238772e-08 -1.9603048e-08
-2.1229187e-09 -4.6574695e-09 -1.2347102e-08 -1.1027476e-08 -2.2091896e-08 -7.689022e-09 -3.6672244e-08 2.0436925e-08
00000000: 491c 1333 7d19 e732 90d5 9d32 3af6 82b2
00000010: 46ff 0632 2055 6fb1 b9ec 82b2 5223 cbb2
00000020: e2cf f8b1 c29f 8f32 7071 2933 e605 01b2
00000030: a585 8332 bdfe b5b2 7f31 be32 fa26 5ab2
00000040: ea4f 98b2 b747 fab2 d0e8 9ab2 e7a9 ee30
00000050: 67e5 6032 a7ef b232 8c97 ccb2 e0ce fcb1
00000060: 50b5 c6b2 28b0 5ab1 b7dc fc32 1ad7 41af
00000070: 6194 2fb2 060e 2a33 447c ed32 caf3 7e32
00000080: e42c e032 e994 4eb3 fb88 0433 cb65 e2b2
00000090: 066e e030 c5ee 5932 98e6 2fb2 8f63 a8b2
000000a0: c8e2 11b1 8907 a0b1 211f 54b2 5a73 3db2
000000b0: 98c4 bdb2 ad18 04b2 8f81 1db3 468d af32

mixer_1.Self_Attention_0.v.weight f4 [48, 48]
-0.07354818 0.028001986 0.17342876 -0.06481605 0.0294215 0.06741965 -0.019833662 -0.060392566
-0.025902038 0.13887396 -0.096653394 0.020130642 0.025596907 0.007634736 -0.014382572 0.076705284
-0.066623434 -0.010743968 -0.009575264 -0.11270901 0.06431722 -0.04418771 0.04324472 0.085170485
-0.042926416 0.082786314 0.01793968 -0.0102890665 0.021772493 -0.14940612 0.019425148 0.043738037
0.01630398 -0.041125465 0.045184586 0.0723558 0.05334161 0.02852624 0.027260091 0.031915214
-0.12375341 0.1257539 -0.06272707 -0.04594828 0.06527543 -0.06585805 0.06153077 0.03043139
-0.06277247 -0.03484965 0.009088261 -0.0072403653 -0.055644635 0.030003631 0.035474427 -0.029058104
-0.04610685 0.0147787705 -0.017137622 0.014148326 -0.006042176 -0.024128363 -0.022544073 -0.066075265
-0.017764298 -0.041902892 -0.047005314 -0.030816123 0.023435589 -0.038737494 -0.009528529 -0.010097629
0.0071117543 0.019825075 -0.010615445 -0.016539458 -0.01174677 -0.04472048 -0.033382967 -0.0073816874
-0.0189547 0.0056702713 -0.018909417 -0.016771374 -0.00971344 -0.025727445 -0.051445514 0.002427569
-0.034044024 0.013795442 -0.0693571 -0.033809043 -0.020258313 -0.0476391 -0.02997802 -0.060296245
0.034894153 0.071928434 -0.017826121 0.013159559 0.05622934 -0.030475197 -0.013398839 -0.033901297
-0.00031051505 -0.09410595 0.049829453 -0.010470117 -0.071191825 -0.054763496 0.10780323 -0.014183763
0.019264441 0.05065312 0.07688428 0.1158679 -0.038951483 0.055552244 -0.020395396 -0.026805324
-0.10725267 -0.06728093 -0.023564551 0.011320528 -0.0046723248 0.03951042 0.09906849 0.017511895
0.037022885 -0.056332495 -0.034001283 -0.016433276 0.019245079 -0.048126753 -0.019694258 0.0110870395
0.0759306 -0.0024037135 0.13191369 0.036182035 0.022643395 0.09493123 0.013745082 0.064772755
-0.02668532 -0.02803781 0.13320972 -0.014929184 -0.06075746 0.09210657 0.036087234 0.060088787
0.006328123 0.07981278 0.00078237103 0.040158376 0.007551747 -0.032014657 -0.033508632 -0.06209657
0.0017358883 -0.07279403 -0.025472706 0.035889138 -0.0033771608 -0.019514453 -0.00045168397 0.0064665414
-0.034423646 0.039173465 -0.048316598 0.01944774 -0.012333171 -0.058870047 -0.053633194 0.007208736
-0.009169393 -0.054252487 -0.0094334325 -0.04239201 -0.038903788 0.020799696 -0.009165636 0.0057228864
-0.008975749 0.071579956 -0.11434575 -0.025412023 -0.08119448 -0.041102123 -0.052144736 -0.037367016
0.08378032 0.05743833 -0.0007771701 0.027912125 0.0785195 -0.057788722 0.0049289125 0.03924325
0.04293468 -0.005201969 0.029094813 0.015122605 0.0109300185 0.04966552 0.061528765 0.07112935
0.045084406 0.058778394 0.03639713 0.043041848 -0.025211634 0.053547397 -0.008483416 0.0042255423
0.01005058 -0.016576353 0.007832291 0.007769231 0.014906078 0.06455996 0.07821272 0.012634171
0.020083865 -0.008160575 0.019146193 0.020535367 0.011470793 0.042994246 0.068795964 0.013724092
0.05532616 -0.02190645 0.11672441 0.050855767 0.057167426 0.08222193 0.0393956 0.10081576
-0.07967858 -0.047258552 -0.0025727923 -0.018064259 -0.06842713 0.033511046 0.0037412732 -0.03317363
-0.046804667 -0.014024921 -0.024264405 0.012342395 -0.014700301 -0.033143308 -0.047709193 -0.050475735
00000000: 6ea0 96bd 6c64 e53c 4f97 313e 47be 84bd
00000010: 5c05 f13c 5013 8a3d 347a a2bc 325e 77bd
00000020: 8330 d4bc fa34 0e3e 37f2 c5bd 04e9 a43c
00000030: 9bb0 d13c cf2c fa3b e1a4 6bbc a917 9d3d
00000040: de71 88bd 7807 30bc 91e1 1cbc fbd3 e6bd
00000050: bfb8 833d 2cfe 34bd 6021 313d dd6d ae3d
00000060: 9cd3 2fbd df8b a93d 3cf6 923c 7993 28bc
00000070: 3a5c b23c ebfd 18be 7d21 9f3c a826 333d
00000080: ed8f 853c 2d73 28bd 7913 393d 472f 943d
00000090: bb7c 5a3d dcaf e93c 8e50 df3c 87b9 023d
000000a0: 6e72 fdbd a1c5 003e 0d77 80bd 4334 3cbd
000000b0: 20af 853d 96e0 86bd b007 7c3d 404b f93c
000000c0: da8e 80bd 82be 0ebd eee6 143c 9640 edbb
000000d0: a1eb 63bd 2dca f53c a24d 113d 430b eebc
000000e0: 89da 3cbd a822 723c 3364 8cbc 61ce 673c
000000f0: 72fd c5bb d8a8 c5bc 59ae b8bc 7852 87bd
00000100: 6f86 91bc 5ea2 2bbd a588 40bd 1872 fcbc
00000110: fefb bf3c 35ab 1ebd 8c1d 1cbc 8770 25bc
00000120: b809 e93b 3268 a23c 67ec 2dbc c27d 87bc
00000130: 8675 40bc d22c 37bd 94bc 08bd 15e2 f1bb
00000140: e346 9bbc afcd b93b ece7 9abc 1f64 89bc
00000150: 1f25 1fbc 5dc2 d2bc 88b8 52bd d917 1f3b
00000160: bf71 0bbd 4706 623c 180b 8ebd 5a7b 0abd
00000170: c3f4 a5bc 3821 43bd 7794 f5bc 32f9 76bd
00000180: 2ced 0e3d 374f 933d 1608 92bc 319b 573c
00000190: bd50 663d 1fa7 f9bc ce86 5bbc 16dc 0abd
000001a0: a0cc a2b9 9fba c0bd f819 4c3d db8a 2bbc
000001b0: 05cd 91bd b04f 60bd f1c7 dc3d 0463 68bc
000001c0: 76d0 9d3c a579 4f3d 8175 9d3d 264c ed3d
000001d0: 978b 1fbd c08a 633d 3f14 a7bc d796 dbbc
000001e0: 4aa7 dbbd 96ca 89bd 720a c1bc bc79 393c
000001f0: 4d1a 99bb aed5 213d 6ce4 ca3d 1b75 8f3c
00000200: 4fa5 173d e7bc 66bd ee44 0bbd 149f 86bc
00000210: dba7 9d3c 8f20 45bd da55 a1bc 6aa6 353c
00000220: 8181 9b3d 9f87 1dbb 6214 073e 9d33 143d
00000230: a47e b93c 4e6b c23d 0d33 613c 94a7 843d
00000240: 2c9b dabc 8daf e5bc 2168 083e 8999 74bc
00000250: d0dc 78bd 5fa2 bc3d 35d0 133d a91f 763d
00000260: 255c cf3b e274 a33d 0818 4d3a 1c7d 243d
00000270: a574 f73b cd21 03bd 5940 09bd f958 7ebd
00000280: bf86 e33a 0915 95bd 23ac d0bc 7d00 133d
00000290: 5b53 5dbb c6dc 9fbc ffcf ecb9 48e5 d33b
000002a0: cfff 0cbd 5b74 203d a0e7 45bd de50 9f3c
000002b0: 1211 4abc b821 71bd 7bae 5bbd 4337 ec3b
000002c0: 393b 16bc db37 5ebd af8e 1abc 3fa3 2dbd
000002d0: 9459 1fbd 2064 aa3c 772b 16bc 0d87 bb3b
000002e0: 050f 13bc 8398 923d 1b2e eabd e02c d0bc
000002f0: 4b49 a6bd b35a 28bd b895 55bd 280e 19bd
00000300: 0495 ab3d 7444 6b3d 01bb 4bba f8a7 e43c
00000310: d5ce a03d deb3 6cbd b782 a13b 88bd 203d
00000320: 46dc 2f3d 4775 aabb 3f58 ee3c cdc4 773c
00000330: d213 333c 136e 4b3d 9605 7c3d 44ac 913d
00000340: 6daa 383d 9dc1 703d 2815 153d a64c 303d
00000350: a188 cebc 8454 5b3d 07fe 0abc 6b76 8a3b
00000360: 30ab 243c 22cb 87bc 0253 003c 0995 fe3b
00000370: 9f38 743c 0338 843d fe2d a03d 8eff 4e3c
00000380: eb86 a43c efb3 05bc 7ad8 9c3c c939 a83c
00000390: feef 3b3c bc1a 303d e6e4 8c3d 04db 603c
000003a0: af9d 623d 2875 b3bc 350d ef3d 234e 503d
000003b0: 6428 6a3d f963 a83d 485d 213d 7e78 ce3d
000003c0: 862e a3bd 2f92 41bd 4b9c 28bb 7ffb 93bc
000003d0: 8623 8cbd e142 093d 2630 753b 12e1 07bd
000003e0: 40b6 3fbd c8c8 65bc 25c6 c6bc c237 4a3c
000003f0: 88d9 70bc 47c1 07bd b76a 43bd a5bf 4ebd

mixer_1.Self_Attention_0.v.bias f4 [48]
0.06922131 -0.02730167 0.08271628 0.008941833 0.04154433 -0.025366694 -0.08347657 0.01819042
0.00032065954 -0.033817455 0.04069509 0.032843526 0.015123909 0.0024935233 0.082137346 -0.034085374
-0.019879218 -0.024198452 0.053282507 0.078944385 0.01772639 -0.091896586 -0.016147044 0.10101443
0.036416333 0.1702105 0.07278748 0.02432412 0.001825747 -0.042184375 -0.0095722405 -0.022138728
0.023372974 0.026047353 -0.13375045 0.05121311 -0.020615589 0.028329365 0.008633615 -0.03186047
-0.06644554 0.018987646 0.025722265 -0.099249616 -0.1476721 0.023820585 0.040037565 -0.0034690718
00000000: e7c3 8d3d c0a7 dfbc 2767 a93d c480 123c
00000010: 632a 2a3d d0cd cfbc c4f5 aabd 1304 953c
00000020: 321e a839 2c84 0abd e5af 263d ef86 063d
00000030: 46ca 773c 616a 233b a037 a83d 1b9d 0bbd
00000040: bed9 a2bc d53b c6bc c23e 5a3d 98ad a13d
00000050: ef36 913c 4734 bcbd ce46 84bc a7e0 ce3d
00000060: 4b29 153d a94b 2e3e 9a11 953d 6043 c73c
00000070: e74d ef3a 86c9 2cbd e3d4 1cbc 475c b5bc
00000080: ae78 bf3c 4261 d53c e1f5 08be d7c4 513d
00000090: 06e2 a8bc fc12 e83c 0274 0d3c 2080 02bd
000000a0: 9914 88bd fb8b 9b3c 80b7 d23c 6243 cbbd
000000b0: 5b37 17be 6323 c33c 6efe 233d 5e59 63bb

mixer_1.ChannelMixer.mlp.0.weight f4 [48, 48]
-0.15360644 -0.021332575 0.012604801 -0.016824929 0.031856623 -0.030729821 -0.006130418 -0.043999523
0.0011620248 0.027734747 0.01867293 0.032332715 0.027575998 0.03805909 0.031827834 0.1257978
-0.020194175 -0.018962927 0.015320078 0.027103394 0.031953838 -0.024405895 -0.030753056 0.028475473
0.040086947 0.060065094 0.034343697 0.020481078 0.031891115 0.05508848 -0.011988681 -0.03943848
0.02807142 0.011390681 -0.058327146 0.034944758 -0.03524211 0.026299577 -0.033221584 -0.016691258
-0.023308676 0.030518092 0.021135356 -0.16106458 -0.055752423 0.034589525 0.026840208 0.031910706
-0.20182392 -0.015665608 0.0048808176 -0.015458319 0.024576137 -0.018385507 -0.0064716744 -0.027998151
0.0011942269 0.021675985 0.014145782 0.021921357 0.019019358 0.02057198 0.019234002 0.07389222
-0.018067945 -0.015642103 0.013704105 0.021676457 0.025899416 -0.014641658 -0.016740201 0.011910239
0.0217413 0.029854331 0.0269884 0.017637301 0.025445504 0.032227207 -0.007992743 -0.023852339
0.021271117 0.010107013 -0.033015113 0.022177102 -0.020634964 0.02258969 -0.022238502 -0.014694446
-0.01430148 0.022685079 0.01469068 -0.14460379 -0.025724841 0.021120016 0.018975843 0.020436998
-0.19438852 -0.047839336 0.084421426 -0.081302926 0.062825866 -0.07487879 -0.070437826 -0.14785263
0.001004011 0.124755 0.040460095 0.0689207 0.06933148 0.09809463 0.09832304 0.19306736
-0.057070322 -0.0646983 0.02634864 0.07927178 0.10312184 -0.07308103 -0.08456375 0.07770269
0.09825502 0.11518056 0.09293762 0.05720546 0.08549921 0.08447993 -0.033649806 -0.11063501
0.07489482 0.03740162 -0.11913744 0.09120669 -0.088007785 0.04607718 -0.061673507 -0.050398037
-0.067890584 0.07801749 0.053674836 -0.25019184 -0.022391578 0.10278114 0.05090315 0.07910316
0.14670841 0.024841366 -0.044516478 0.0205124 -0.04313346 0.041349266 0.037737925 0.09644774
-0.0012663241 -0.08879559 -0.021973923 -0.04839849 -0.036562603 -0.049801152 -0.034980156 -0.17369354
0.026102498 0.025280563 -0.028768897 -0.04147903 -0.054448113 0.03943016 0.040028688 -0.036297683
-0.048784897 -0.0778138 -0.025043422 -0.020950764 -0.046487156 -0.055589642 0.018280193 0.04624338
-0.03583852 -0.012873236 0.06201145 -0.043111395 0.046737045 -0.02597305 0.042316087 0.026191281
0.030557454 -0.04126206 -0.026939293 0.1685043 0.0581011 -0.048552863 -0.031450912 -0.041067567
0.12193067 0.022625836 -0.033103008 0.02528865 -0.041486736 0.041602835 0.037199646 0.08420387
-0.0005277211 -0.09308304 -0.01921059 -0.04939329 -0.035954174 -0.05189168 -0.030415874 -0.15975478
0.026558062 0.028506195 -0.027313348 -0.045147516 -0.05635531 0.026580585 0.039179407 -0.03274614
-0.053683743 -0.058550872 -0.015969668 -0.02451496 -0.046913564 -0.054862604 0.013115704 0.045212958
-0.035745136 -0.013241024 0.06251027 -0.044552106 0.04673858 -0.026907105 0.04568476 0.021397
0.030912561 -0.041611295 -0.025309647 0.1535165 0.07378025 -0.04745579 -0.02985787 -0.0408118
-0.09888518 -0.04911328 0.07748539 -0.06311879 0.079399005 -0.06970229 -0.07777097 -0.12709688
0.0022960743 0.10915593 0.058414195 0.07540556 0.06790738 0.09365956 0.092566244 0.14125685
00000000: 024b 1dbe a7c1 aebc 5e84 4e3c 6fd4 89bc
00000010: 177c 023d 1bbd fbbc ace1 c8bb d838 34bd
00000020: 154f 983a fb33 e33c f9f7 983c 4f6f 043d
00000030: 0fe7 e13c d9e3 1b3d e75d 023d 23d1 003e
00000040: 416e a5bc 2458 9bbc 1001 7b3c f007 de3c
00000050: 07e2 023d dfee c7bc d5ed fbbc 6545 e93c
00000060: 3632 243d d106 763d faab 0c3d efc7 a73c
00000070: 42a0 023d 75a4 613d 2c6c 44bc 3e8a 21bd
00000080: 09f6 e53c fb9f 3a3c 72e8 6ebd 3c22 0f3d
00000090: 085a 10bd 3672 d73c 5b13 08bd 1bbc 88bc
000000a0: d6f1 bebc 1401 fa3c 0e24 ad3c 1dee 24be
000000b0: a75c 64bd bfad 0d3d ffdf db3c cdb4 023d
000000c0: eeaa 4ebe 2955 80bc 44ef 9f3b e444 7dbc
000000d0: e553 c93c 349d 96bc 5710 d4bb 615c e5bc
000000e0: 9b87 9c3a d691 b13c b6c3 673c 6b94 b33c
000000f0: 7cce 9b3c 9286 a83c a090 9d3c ce54 973d
00000100: 3a03 94bc de23 80bc 2f87 603c d392 b13c
00000110: 032b d43c 91e3 6fbc bf22 89bc 2a23 433c
00000120: d01a b23c 1291 f43c c716 dd3c 1a7c 903c
00000130: 1773 d03c ad00 043d fef3 02bc fb65 c3bc
00000140: c440 ae3c e397 253c db3a 07bd c1ac b53c
00000150: a80a a9bc 030e b93c 852d b6bc f9c0 70bc
00000160: c150 6abc 0fd6 b93c 2eb1 703c 0413 14be
00000170: e7bc d2bc e203 ad3c 3a73 9b3c 7e6b a73c
00000180: c90d 47be 2ef3 43bd 24e5 ac3d 2682 a6bd
00000190: d9aa 803d 0d5a 99bd b541 90bd ae66 17be
000001a0: 0599 833a 8d7f ff3d 7cb9 253d 4c26 8d3d
000001b0: aafd 8d3d d6e5 c83d 975d c93d 73b3 453e
000001c0: 92c2 69bd 8b80 84bd 1ad9 d73c 3e59 a23d
000001d0: 8b31 d33d 82ab 95bd c22f adbd 9722 9f3d
000001e0: ee39 c93d c9e3 eb3d 1456 be3d 4650 6a3d
000001f0: 361a af3d d003 ad3d 61d4 09bd 9c94 e2bd
00000200: 7562 993d 7132 193d 55fe f3bd 93ca ba3d
00000210: 6d3d b4bd 6dbb 3c3d 5c9d 7cbd 2c6e 4ebd
00000220: 380a 8bbd a2c7 9f3d 25da 5b3d 2519 80be
00000230: 8b6e b7bc eb7e d23d d27f 503d d600 a23d
00000240: bb3a 163e 1f80 cb3c e956 36bd 9f09 a83c
00000250: b6ac 30bd d95d 293d 1593 1a3d 6586 c53d
00000260: c9fa a5ba 76da b5bd a802 b4bc 7f3d 46bd
00000270: abc2 15bd 4bfc 4bbd 5a47 0fbd b8dc 31be
00000280: e8d4 d53c 2f19 cf3c c0ac ebbc eae5 29bd
00000290: fc04 5fbd 8581 213d 1ff5 233d e1ac 14bd
000002a0: acd2 47bd d75c 9fbd dd27 cdbc f0a0 abbc
000002b0: 5169 3ebd f7b1 63bd 58c0 953c b369 3d3d
000002c0: 69cb 12bd 44ea 52bc b8ff 7d3d 9395 30bd
000002d0: 586f 3f3d 6fc5 d4bc a253 2d3d 198f d63c
000002e0: a053 fa3c 6802 29bd cbaf dcbc 648c 2c3e
000002f0: 6bfb 6d3d 5edf 46bd acd2 00bd 7736 28bd
00000300: cab6 f93d d159 b93c 0597 07bd 252a cf3c
00000310: ffed 29bd bc67 2a3d a85e 183d 1473 ac3d
00000320: c356 0aba 52a2 bebd 875f 9dbc 9e50 4abd
00000330: af44 13bd 5f8c 54bd b62a f9bc c296 23be
00000340: 4b90 d93c d385 e93c 3ec0 dfbc 9aec 38bd
00000350: d3d4 66bd 87bf d93c 967a 203d d120 06bd
00000360: 7ce3 5bbd 0ad3 6fbd d2d2 82bc 99d3 c8bc
00000370: 7028 40bd 9cb7 60bd 40e3 563c 3931 393d
00000380: 7e69 12bd e1f0 58bc 6205 803d 457c 36bd
00000390: f470 3f3d 4a6c dcbc f11f 3b3d c348 af3c
000003a0: 573c fd3c 9b70 2abd 2d56 cfbc 6e33 1d3e
000003b0: 1a1a 973d 0161 42bd 7e98 f4bc 462a 27bd
000003c0: 5084 cabd 022b 49bd a9b0 9e3d 6d44 81bd
000003d0: f29b a23d 13c0 8ebd 6346 9fbd af25 02be
000003e0: bc79 163b 258d df3d b943 6f3d 3b6e 9a3d
000003f0: 0613 8b3d 95d0 bf3d 5f93 bd3d a3a5 103e

mixer_1.ChannelMixer.mlp.0.bias f4 [48]
0.09639749 0.097542845 0.1708814 -0.16138813 -0.024907237 0.16532323 0.066587396 -0.10584941
0.098909646 -0.14330629 -0.08765692 -0.15771288 -0.19683562 -0.11634414 0.033103187 -0.07182265
0.16620676 -0.10738782 0.12302908 0.1570375 -0.08113464 0.14674562 0.16658352 0.0039475537
0.15570585 -0.0037987854 0.036023535 -0.032141432 0.11462888 0.18191147 0.0537046 -0.019416668
0.074517615 -0.06111502 -0.036705695 -0.10309939 -0.058188114 -0.11492562 0.09580025 0.106632106
0.09584764 0.032530233 -0.0004898298 -0.122755125 0.15172027 0.122330375 0.12909167 -0.0043135714
00000000: 0c6c c53d 8bc4 c73d 89fb 2e3e ee42 25be
00000010: 430a ccbc 7e4a 293e f95e 883d 93c7 d8bd
00000020: 2491 ca3d e2be 12be 7985 b3bd 7c7f 21be
00000030: 478f 49be d645 eebd 3597 073d c117 93bd
00000040: 1b32 2a3e 25ee dbbd acf6 fb3d 70ce 203e
00000050: eb29 a6bd 7c44 163e df94 2a3e 7b5a 813b
00000060: 5b71 1f3e 0bf5 78bb 6a8d 133d bca6 03bd
00000070: 8cc2 ea3d 0047 3a3e 5bf9 5b3d b40f 9fbc
00000080: b19c 983d be53 7abd b658 16bd c625 d3bd
00000090: a956 6ebd 205e ebbd ec32 c43d ef61 da3d
000000a0: c44b c43d 6c3e 053d ec67 00ba 0a67 fbbd
000000b0: 8f5c 1b3e 5988 fa3d 9b30 043e dc58 8dbb
