Interpretability analysis/q/IMCE_min_weights.pth (torch, 160467 bytes, 361 tensors)

mixer_1.mlp1.0.weight f4 [48, 48]
0	0x3e152a3d	0.14566894
1	0x3d5dae36	0.05412122
2	0xbc8fb003	-0.017539984
3	0x3d4edc4b	0.050503056
4	0xbd1bb537	-0.038014617
5	0x3da86814	0.08222976
6	0xbd80f716	-0.06297128
7	0x3e2623f9	0.1622466
8	0x3cc0a7be	0.023517486
9	0xbc40c548	-0.0117657855
10	0xbd01b693	-0.031668257
11	0xbd7e1e55	-0.062040646
12	0xbd74de48	-0.059782296
13	0xbd5c9fd5	-0.053863365
14	0x3df7ded9	0.12103052
15	0x3df31388	0.1186896
16	0x3d004faa	0.031325974
17	0xbd466c92	-0.048443384
18	0x3dae2cd4	0.08504644
19	0xbdfdd3ef	-0.12393939
20	0x3d82463f	0.06361055
21	0xbd47e33f	-0.048800703
22	0xba99d791	-0.0011737217
23	0xbd0faa14	-0.03507431
24	0x3d1f3e3a	0.038877703
25	0x3dd4eac8	0.103963435
26	0x3d8bf60e	0.068340406
27	0xbddc4c3e	-0.107567295
28	0xbda5191f	-0.08061432
29	0x3d5baab6	0.0536296
30	0xbd4e08f8	-0.050301522
31	0x3dc511fb	0.0962257
32	0x3e082d4c	0.1329853
33	0xbda26c43	-0.079308055
34	0x3d7cd300	0.061724663
35	0xbda7fc1b	-0.08202382
36	0x3ddcabf9	0.10774989
37	0x3dad41b1	0.08459795
38	0x3ccf03fc	0.025270455
39	0x3dd0a8e1	0.10188461
40	0x3caf6c9e	0.021414097
41	0xbdd9c037	-0.10632365
42	0x3c0e4a8b	0.008684765
43	0xbd7a57d1	-0.061118905
44	0xbd27a30a	-0.04092697
45	0xbe1d9673	-0.15389423
46	0xbdbd4b4f	-0.092428796
47	0xbd9bfdba	-0.07616754
48	0x3e110f9e	0.14166114
49	0x3cf6239c	0.030046277
50	0xbd9ebe4f	-0.07751142
51	0xbc618f3c	-0.01376706
52	0xbd84dbe6	-0.06487255
53	0xbce4bc01	-0.027921678
54	0xbdcb224f	-0.09918653
55	0x3e10190a	0.14072052
56	0x3e1c9809	0.15292372
57	0xbcdce5f0	-0.026965111
58	0x3d880b50	0.06642783
59	0xbce8793e	-0.028378125
60	0x3dacac10	0.08431256
61	0x3d9cdb49	0.07659013
62	0x3e10dd63	0.14146952
63	0x3dfaabdd	0.122398116
64	0x3d988db0	0.074489
65	0x3d144162	0.036195166
66	0xbdbc6297	-0.09198492
67	0xbe033ee9	-0.12816967
68	0xbdb21b47	-0.08696609
69	0xbdc99111	-0.09842122
70	0xbe249b90	-0.16074967
71	0x3e169634	0.14705735
72	0xbdddc13f	-0.108278744
73	0x3dad572c	0.08463892
74	0x3e008c8d	0.12553616
75	0xbe065e1a	-0.13121834
76	0xbdaae524	-0.08344486
77	0x3ce27a97	0.027646346
78	0x3dcd7cc2	0.10033561
79	0x3d5109fb	0.05103491
80	0xbcad2cdc	-0.021139555
81	0x3d4b8086	0.049683116
82	0xbdf34af2	-0.11879529
83	0xba7eba71	-0.0009717113
84	0x3ceef06e	0.02916738
85	0xbd321304	-0.043475166
86	0xbd22b12a	-0.039719738
87	0xbde8ada5	-0.11361245
88	0xbd45666a	-0.048193373
89	0x3d9b417e	0.07580851
90	0xbc39568e	-0.01131214
91	0x3dded417	0.10880297
92	0x3d6fd038	0.058548182
93	0x3d9f13d0	0.07767451
94	0x3d68aa80	0.056803226
95	0xbd85605f	-0.06512522
96	0x3d90d70e	0.070722684
97	0x3e02c1f0	0.12769294
98	0xbdfd671c	-0.12373182
99	0x3cffcd4e	0.031225827
100	0x3d9e3f19	0.07726879
101	0x3c86891f	0.016422806
102	0x3dda4d2c	0.106592506
103	0x3e0dce6b	0.13848273
104	0x3e121e3c	0.14269346
105	0x3da8fba4	0.08251122
106	0xbd8c0b92	-0.06838144
107	0x3d90d94b	0.07072695
108	0x3d4c68b8	0.049904555
109	0xbc1864a6	-0.00930134
110	0x3d0cf6fd	0.034415234
111	0x3daac5c2	0.083385006
112	0x3dd04fdc	0.10171482
113	0x3c7a7ee2	0.01528904
114	0x3d88caae	0.06679283
115	0xbd9faa07	-0.07796102
116	0xbcc6fa65	-0.02428932
117	0xbd941da3	-0.07232215
118	0x3dca6ded	0.09884248
119	0xbd6426e8	-0.055701166
120	0xbc8d0e6c	-0.017218791
121	0xbd5f56c8	-0.05452612
122	0xbcc44db5	-0.023962835
123	0xbd9c68df	-0.0763719
124	0x3dc4f791	0.09617532
125	0xbc116967	-0.0088752275
126	0xbcec2aa0	-0.028828919
127	0xbdbd6717	-0.092481785
128	0x3d0026c8	0.031286985
129	0x3cc427c7	0.023944749
130	0x3c3d1778	0.01154124
131	0x3d819634	0.06327477
132	0x3e0e5efc	0.13903421
133	0x3c9bb449	0.019006865
134	0x3def603f	0.11688279
135	0xbd969d36	-0.07354204
136	0x3d5b9f3b	0.05361865
137	0x3d0cf2d0	0.03441125
138	0x3c9384af	0.018007604
139	0x3d98c0ce	0.074586496
140	0x3dfa67f8	0.12226862
141	0x3d7fc656	0.062445007
142	0x3cd06186	0.025437128
143	0x3ce4f660	0.027949512
144	0x3d3374b9	0.043812487
145	0xbdacf918	-0.08445948
146	0xbd57a0ef	-0.052643713
147	0xbddf8d3c	-0.1091561
148	0xbd4cf655	-0.050039608
149	0x3d838677	0.064221315
150	0xbdab4183	-0.08362105
151	0x3d779bcf	0.060451325
152	0x3e0a19a2	0.1348634
153	0x3df01481	0.11722661
154	0xbdba03d1	-0.09082759
155	0x3db83ac8	0.08995587
156	0xbdf803dc	-0.12110111
157	0xbbf03466	-0.007330465
158	0x3c292a98	0.010325097
159	0x3dc5e9b0	0.09663713
160	0xbd35806a	-0.04431192
161	0x3e3a24f2	0.18178156
162	0x3e0ac582	0.13551906
163	0xbd79084d	-0.060798932
164	0x3d46c63d	0.0485289
165	0xbda3e0be	-0.080018505
166	0xbdab0879	-0.083512254
167	0xbc9b62ed	-0.01896807
168	0xbdb7a951	-0.089678414
169	0x3dee0fdc	0.11624119
170	0x3e0722a5	0.1319681
171	0xbe0ed348	-0.13947785
172	0x3e1435db	0.14473669
173	0xbd9ac8d3	-0.075578354
174	0xbd5071c9	-0.050889764
175	0x3d871452	0.06595673
176	0x3d51bb79	0.05120418
177	0x3e128f3c	0.14312452
178	0xbb93267d	-0.004490672
179	0xbbd11234	-0.006380344
180	0x3dfc585a	0.12321539
181	0x3e34f474	0.17671376
182	0xbd8c2f3f	-0.06844949
183	0x3ca97f10	0.020690471
184	0x3db676cb	0.08909377
185	0xbc8cbf17	-0.017180962
186	0x3bf54df2	0.0074860984
187	0x3c6f3ea5	0.014602338
188	0xbe00611f	-0.12537049
189	0xbd04844b	-0.032352727
190	0x3a82acd5	0.0009969721
191	0x3d719a1b	0.058984857
192	0x3d5e7dbd	0.054319132
193	0xbd841d01	-0.064508446
194	0xbdf5cafa	-0.12001605
195	0x3dc64aae	0.09682213
196	0xbcc78dec	-0.024359666
197	0x3cd63918	0.026150271
198	0xbd5a9065	-0.05336036
199	0x3c644712	0.01393296
200	0x3d87fb02	0.06639673
201	0x3de1a380	0.11017513
202	0x3e3178f9	0.17331304
203	0x3d4c7cf4	0.049923852
204	0xbde0e898	-0.10981864
205	0x3ddf4f62	0.10903813
206	0xbe260334	-0.1621216
207	0x3d3627ff	0.044471737
208	0x3da24ff2	0.079254046
209	0x3e0058ba	0.12533846
210	0xbd0d178a	-0.034446277
211	0xbe2e3dd1	-0.17015769
212	0x3d712536	0.058873378
213	0x3d996428	0.074898064
214	0xbd09c781	-0.033637527
215	0xbd2275f1	-0.03966326
216	0xbdb97e45	-0.09057287
217	0x3d1d613a	0.0384228
218	0x3df53902	0.11973764
219	0xbdb589e8	-0.08864194
220	0xbd350fb8	-0.044204444
221	0x3c99c4e5	0.018770644
222	0xbd2b0ac6	-0.04175832
223	0xbd626b9e	-0.055278413
224	0xbd7ab0e9	-0.06120387
225	0x3d77d7a6	0.060508393
226	0x3dc3f2f5	0.09567825
227	0xbd3efc7b	-0.046627503
228	0xbd3c6c8a	-0.04600195
229	0x3db4f9e7	0.088367276
230	0x3d5a90d0	0.05336076
231	0xbd488358	-0.048953384
232	0x3d7db1de	0.061937205
233	0x3b4fe81c	0.0031724041
234	0x3b5881df	0.0033036394
235	0xbd8ce8ee	-0.06880365
236	0xbd3f68a0	-0.046730638
237	0xbde45150	-0.11148322
238	0xbd538aaa	-0.051645912
239	0x3d994d58	0.07485455
240	0xbd0dadae	-0.034589462
241	0xbd461496	-0.048359476
242	0xbd6212bb	-0.055193644
243	0xba19a8c6	-0.0005861636
244	0x3d78639a	0.060641862
245	0xbc626b9f	-0.013819604
246	0xbd54e78b	-0.05197863
247	0x3db222a7	0.08698016
248	0xbb2475f4	-0.002509472
249	0x3bfd99a1	0.0077392613
250	0xbc3a4606	-0.011369234
251	0x3c8ed5d3	0.017435944
252	0x3de36c6c	0.11104664
253	0xbd91b31c	-0.071142405
254	0x3e011367	0.12605058
255	0x3da1835f	0.07886385

mixer_1.mlp1.0.bias f4 [48]
0	0xbce26083	-0.027633911
1	0xbda54c8b	-0.0807124
2	0xbc9b6f64	-0.018974014
3	0xbd81bda5	-0.06335
4	0x3da34310	0.079717755
5	0xbdc5430b	-0.09631928
6	0x3d846ad4	0.06465688
7	0xbde2f640	-0.11082125
8	0x3da622b8	0.08112091
9	0x3ddd2f36	0.108000204
10	0xbdbb2a90	-0.091389775
11	0xbe1a0ed3	-0.15044717
12	0xbddd2a8f	-0.10799133
13	0x3d93c335	0.07214967
14	0xbdf666e6	-0.12031345
15	0x3d495553	0.049153637
16	0x3cf9ef62	0.030509654
17	0xbc51caf1	-0.012804733
18	0xbdc39a60	-0.09550929
19	0xbc27021c	-0.010193374
20	0x3bc3b46f	0.005972437
21	0xbc8ac0e6	-0.016937684
22	0xbdddfbfe	-0.10839079
23	0xbd1e23fd	-0.03860854
24	0x3cab978e	0.02094629
25	0x3db21e0a	0.08697136
26	0x3e226a02	0.15860751
27	0xbdf6fbdb	-0.12059756
28	0x3b2d19c8	0.0026413072
29	0xbe0f07a3	-0.13967757
30	0x3d158711	0.036505762
31	0x3def7f6a	0.11694224
32	0x3ddec194	0.10876766
33	0xbdec7c1d	-0.1154711
34	0x3dbae2a5	0.0912526
35	0xbe095289	-0.13410391
36	0xbdded6a1	-0.10880781
37	0xbdeba650	-0.11506331
38	0x3df095ff	0.117473595
39	0x3dbc2962	0.09187581
40	0xbe125d3c	-0.14293379
41	0xbd0b5c62	-0.03402365
42	0xbcfed64c	-0.031108044
43	0x3c1fd688	0.009755738
44	0xbd2cad85	-0.04215767
45	0xbdcfb8d2	-0.101426736
46	0xbddef8d4	-0.10887304
47	0xbde215a7	-0.11039286

mixer_1.mlp2.0.weight f4 [48, 48]
0	0x3d1224ab	0.0356795
1	0x3e18dab5	0.1492718
2	0x3e034c6a	0.12822118
3	0x3c906ed6	0.017630976
4	0xbc08a736	-0.008340647
5	0xbdda2942	-0.106524006
6	0x3dc0e51b	0.094186984
7	0xbdcf3823	-0.10118129
8	0x3e054b0f	0.13016914
9	0x3ddbf434	0.107399374
10	0xbd1e1a1e	-0.038599126
11	0x3d3dc533	0.046330642
12	0x3d0f4761	0.03498018
13	0x3bd428e5	0.0064746016
14	0x3c8e091b	0.017338326
15	0xbd991490	-0.07474625
16	0x3d999608	0.07499319
17	0xbbc17ae5	-0.0059045427
18	0x3c2e895b	0.010652865
19	0x3e06717a	0.13129225
20	0x3c9d4594	0.019198216
21	0xbdbbebda	-0.091758445
22	0x3d3defed	0.04637139
23	0x3dc1831e	0.09448837
24	0xbc3d50ac	-0.011554878
25	0xbda9093d	-0.08253715
26	0xbcf01b3e	-0.029309865
27	0x3d5374a9	0.051624928
28	0xbdef5880	-0.11686802
29	0x3d643ecb	0.055723947
30	0xbd23ce55	-0.039991695
31	0xbd3e7c9c	-0.046505556
32	0x3d966fbb	0.0734553
33	0xbd601dcd	-0.05471592
34	0x3e183e73	0.14867572
35	0xbe1a7dad	-0.15087004
36	0xbd030239	-0.03198454
37	0x3b8bf6ce	0.004271365
38	0x3db327f5	0.087478556
39	0x3dfea5a8	0.1243394
40	0x3df141a7	0.117801
41	0xbdfd0bb8	-0.12355751
42	0x3dfe8d89	0.124293394
43	0x3d27f8c3	0.041008722
44	0xbe0e6f9d	-0.13909765
45	0x3e25c112	0.16186932
46	0x3d59dd54	0.05318959
47	0x3bcab404	0.0061860103
48	0x3da1ff4c	0.07910022
49	0xbd9566a7	-0.0729497
50	0xbe0f0913	-0.13968305
51	0xbc79ac0e	-0.015238775
52	0xbdcb67e1	-0.09931923
53	0x3d92086c	0.071305126
54	0xbd2b45a6	-0.04181447
55	0x3d1c3df0	0.038145006
56	0xbdb639c8	-0.0889774
57	0xbdb664fe	-0.089059815
58	0x3c73cb02	0.014879944
59	0x3d994bc0	0.07485151
60	0x3d0e49b6	0.034738265
61	0x3d91613b	0.07098623
62	0xbdb90bf4	-0.09035483
63	0xbc9197ff	-0.017772673
64	0x3e031f22	0.12804845
65	0x3d37122a	0.044695057
66	0x3d99e1cd	0.07513771
67	0x3d56edb5	0.05247279
68	0xbdc2fd4a	-0.09520967
69	0xbc7ab8c9	-0.015302845
70	0x3db563b8	0.088569105
71	0x3e01f0c1	0.12689497
72	0xbd8be835	-0.06831399
73	0xbdfb53f4	-0.12271872
74	0x3c88bf09	0.016692655
75	0xbdac9de3	-0.08428552
76	0x3dd3de9c	0.10345194
77	0xbcca118e	-0.024666574
78	0xbcf016bc	-0.029307716
79	0x3de6f259	0.11276693
80	0xbda452d2	-0.08023609
81	0xb926ea70	-0.00015918328
82	0x3d928843	0.07154896
83	0xbbf29a88	-0.0074036755
84	0xbd3496ef	-0.044089254
85	0x3dc930f5	0.09823791
86	0x3b86afc8	0.00411031
87	0x3ceb76d5	0.028743187
88	0x3d65304d	0.055954266
89	0x3e49b58a	0.19698158
90	0x3da9a178	0.08282751
91	0xbddcceff	-0.10781669
92	0x3e0203e9	0.12696804
93	0xbd876c17	-0.066124134
94	0x3d78f0cf	0.060776528
95	0xbd5b7be3	-0.053584944
96	0x38b7c034	8.7619206e-05
97	0xbce34cf2	-0.027746651
98	0xbd4dec10	-0.050273955
99	0x3d96701e	0.073456034
100	0x3d271f16	0.04080113
101	0x3d7bedd7	0.06150612
102	0xbc16a91c	-0.009195592
103	0xbdaa0abe	-0.0830283
104	0x3d90e8af	0.07075631
105	0x3d49f727	0.04930797
106	0x3c12ee71	0.008967982
107	0x3db08973	0.08619966
108	0xbd22642d	-0.039646316
109	0xbdbadc77	-0.091240816
110	0x3e063b61	0.13108589
111	0x3c76bc51	0.015059547
112	0xbb2bdc54	-0.0026223855
113	0xbc2ed07f	-0.0106698265
114	0x3df9940e	0.12186442
115	0xbd3750d1	-0.044754807
116	0xbdbc5463	-0.09195783
117	0xbcf55437	-0.029947383
118	0x3d80d7fc	0.06291196
119	0x3cd4bb8d	0.025968337
120	0x3d69356e	0.05693572
121	0xbd258c73	-0.040417146
122	0x3ddd1fef	0.107971065
123	0xbdfff6ab	-0.1249822
124	0x3d9dfe3e	0.077145085
125	0xbd9c1a5e	-0.07622217
126	0x3d853b50	0.065054536
127	0x3cee55a9	0.02909358
128	0x3d2c5a45	0.042078275
129	0x3d88ba8a	0.066762045
130	0x3ce021e9	0.02735992
131	0xbdd72856	-0.1050574
132	0xbdfd9ff4	-0.12384024
133	0x3e06f175	0.13178046
134	0x3ce3548b	0.027750274
135	0xbdb44605	-0.08802418
136	0xbb669566	-0.0035184263
137	0x3d3f788c	0.04674582
138	0x3e198e6f	0.1499574
139	0xbe05b408	-0.13056958
140	0xbd55aba7	-0.052165654
141	0x3e1aa63b	0.15102474
142	0x3d886f1f	0.0666182
143	0xbd2023cc	-0.03909664
144	0xbbed6b9c	-0.007245494
145	0xbd1fac4f	-0.038982686
146	0xbc88ca3f	-0.016698001
147	0xbc2d968d	-0.010594976
148	0xbb4f57c7	-0.0031638013
149	0xbcfb665d	-0.030688459
150	0x3d6c594c	0.057702348
151	0xbd9bcad5	-0.076070465
152	0x3bdc3344	0.0067199785
153	0x3e02340c	0.12715167
154	0xbd65968c	-0.056051776
155	0x3cc46b29	0.02397688
156	0x3d93a874	0.07209864
157	0x3e14387b	0.1447467
158	0x3d9e018e	0.0771514
159	0xbe1a6b09	-0.15079893
160	0xbd982b83	-0.07430174
161	0xbd99083a	-0.07472272
162	0x3d7ae48b	0.06125311
163	0x3a78a471	0.0009484953
164	0x3cc75785	0.024333725
165	0x3d548633	0.051885795
166	0x3c81515f	0.015785871
167	0x3d24dc2a	0.040249027
168	0x3d4a1e78	0.049345464
169	0xbd52d1fc	-0.051469788
170	0xbd8e1be5	-0.06938914
171	0x3df57e58	0.11986989
172	0x3d43edee	0.04783433
173	0x3dae37bc	0.08506724
174	0x3de577dd	0.11204503
175	0xbd1004e4	-0.035160914
176	0xbccf25a4	-0.025286503
177	0xbcc38cea	-0.023870904
178	0xbd81f83c	-0.06346175
179	0xbd4e527c	-0.050371632
180	0x3e215fbb	0.15759175
181	0xbad1e104	-0.0016012494
182	0xbd59d466	-0.053181075
183	0x3d527766	0.0513834
184	0x3da41fb9	0.08013863
185	0xbd407e93	-0.04699571
186	0xbc9824bd	-0.018572206
187	0x3e10fcfb	0.14159004
188	0x3dcc9e8b	0.09991177
189	0x3db43a5d	0.088001944
190	0xbd56cd37	-0.052441802
191	0x3d851d86	0.06499772
192	0x3d907489	0.07053477
193	0x3d595144	0.053056017
194	0x3dc61f09	0.09673888
195	0xbda70348	-0.08154923
196	0xbde062c8	-0.10956341
197	0xbd821207	-0.06351095
198	0x3c3ac68d	0.011399877
199	0x3d9336a1	0.07188154
200	0xbdcccfc6	-0.10000567
201	0xbdbace57	-0.091213875
202	0x3db56ea4	0.08858994
203	0xbdeac8de	-0.114640936
204	0xbd1f626b	-0.038912218
205	0xbdc577da	-0.096420005
206	0x3d0c39a5	0.03423466
207	0x3cdf5a2a	0.027264673
208	0xbd2d2ec0	-0.042280912
209	0x39f0513a	0.00045836886
210	0x3d3c7cc9	0.046017442
211	0xbe0659e1	-0.13120224
212	0xbb9311c4	-0.004488202
213	0x3d95f6cb	0.07322463
214	0xbd08447b	-0.033268433
215	0x3dfe7d8b	0.12426289
216	0xbbb7183a	-0.005587605
217	0x3d1372e3	0.035998236
218	0x3cc9ccb7	0.024633748
219	0xbde1ebc3	-0.11031296
220	0xbb5780a7	-0.003288308
221	0x3e007aa1	0.12546779
222	0x3da87bed	0.08226762
223	0xbcb110fa	-0.02161454
224	0x3bd66eac	0.006543955
225	0x3c482821	0.012216599
226	0xbdafab82	-0.085776344
227	0xbdbfb36b	-0.09360393
228	0x3d005a28	0.03133598
229	0xbd8c91aa	-0.06863721
230	0xbda29c0c	-0.0793992
231	0xbd3d2fe2	-0.046188243
232	0xbc4e9863	-0.012609574
233	0xbd7e826a	-0.06213609
234	0xbda8f26d	-0.08249364
235	0xbdfccb73	-0.12343492
236	0xbd8fd9fd	-0.07024
237	0xbdb9cb76	-0.0907201
238	0xbcfade57	-0.030623598
239	0xbd3b8026	-0.04577651
240	0xbd8b2386	-0.06793885
241	0xbd83ceaa	-0.064359024
242	0x3e0b3bb1	0.13596989
243	0x3b919658	0.004442971
244	0x3dd857e4	0.10563639
245	0x3dd38425	0.10327939
246	0xbdd9ba32	-0.10631217
247	0xbdeb584c	-0.11491451
248	0xbe1a0e55	-0.1504453
249	0x3df27834	0.11839333
250	0x3d36e09b	0.044647794
251	0x3d12bd13	0.035824846
252	0xbd5cdf38	-0.053923815
253	0xbd88d673	-0.06681528
254	0xbd539b74	-0.051661924
255	0x3d4685ec	0.04846756

mixer_1.mlp2.0.bias f4 [48]
0	0x3d8300cb	0.063966356
1	0xbd88c303	-0.066778205
2	0x3d9f5fe1	0.07781959
3	0x3dc45c6a	0.09587939
4	0xbb3f6891	-0.0029206614
5	0x3da159cb	0.07878455
6	0x3d303770	0.04302162
7	0x3d06a866	0.03287544
8	0xbe03c469	-0.12867893
9	0xbb894bcf	-0.0041899453
10	0x3d6e6607	0.05820277
11	0xbbbfbbd5	-0.0058512487
12	0xbcf9b0a6	-0.03047974
13	0x3dc0911a	0.09402676
14	0xbdf37728	-0.118879616
15	0xbdc69ef7	-0.09698289
16	0x3bfa8b3e	0.0076459935
17	0xbd10683c	-0.035255656
18	0x3dae40c2	0.08508445
19	0xbd2d47e6	-0.042304896
20	0x3d799d85	0.060941238
21	0x3db28bd9	0.0871808
22	0x3c906bc6	0.017629515
23	0xbcdeef9c	-0.027213864
24	0xbd1977e9	-0.03746787
25	0xbd8d58d2	-0.06901707
26	0xbd96d11b	-0.073641025
27	0x3d387ca8	0.045040756
28	0xbd2cb1c6	-0.042161725
29	0x3d12b63b	0.03581832
30	0x3c35dddc	0.011100259
31	0xbd4d1388	-0.050067455
32	0x3cf9f8da	0.03051417
33	0x3c726afe	0.014796017
34	0x3ceb2a74	0.028706767
35	0x3cb65fb4	0.022262432
36	0x3d3266b7	0.043554988
37	0x3e052fee	0.13006565
38	0x3d55f6e2	0.0522374
39	0x3b1c7c00	0.002387762
40	0xbd9ef4fe	-0.07761572
41	0x3cfc9109	0.030830877
42	0xbbb0e906	-0.0053988723
43	0x3cd1a3f2	0.02559087
44	0xbd6384f8	-0.05554673
45	0x3dcdadc0	0.10042906
46	0x3d9a4f27	0.07534628
47	0x3c8aaf07	0.016929163

mixer_0.0.mlp1.0.weight f4 [48, 3]
0	0xbe1df007	-0.15423594
1	0x3ea570e2	0.32312685
2	0xbe64e403	-0.22352605
3	0xbed4c69d	-0.4155778
4	0xbd58e768	-0.05295506
5	0xbeafdd84	-0.3434869
6	0xbea7bfad	-0.32763425
7	0x3edadca5	0.42746463
8	0x3e190d1c	0.14946407
9	0xbcb8a49d	-0.022539431
10	0xbda698a5	-0.081345834
11	0xbd840d24	-0.06447819
12	0xbe804fd9	-0.2506092
13	0x3d68930f	0.05678087
14	0xbe7475f2	-0.23873118
15	0x3e8b5cd1	0.2721925
16	0xbe9505d0	-0.29105997
17	0x3ec04938	0.3755586
18	0xbecddaca	-0.40205985
19	0x3e9bb58c	0.30411947
20	0x3e22a419	0.15882911
21	0x3dfc6346	0.123236224
22	0x3c342226	0.01099447
23	0xbeb6f7fd	-0.35736075
24	0x3eb5a848	0.3547995
25	0xbe94971a	-0.2902153
26	0x3f057177	0.5212626
27	0x3ebcfff3	0.36914024
28	0x3d6ee836	0.058326922
29	0x3e8372cc	0.2567352
30	0x3e3cf283	0.18451886
31	0xbe1de381	-0.15418817
32	0x3b3f975f	0.0029234511
33	0x3e69f194	0.22846061
34	0x3e8baad9	0.27278784
35	0x3d54f52f	0.051991638
36	0x3c39fec4	0.011352245
37	0xbe8f8379	-0.28029993
38	0x3e075e53	0.13219576
39	0x3dcddd93	0.100520276
40	0xbe79f7c9	-0.24410929
41	0x3d201797	0.039084997
42	0x3a03123c	0.00049999706
43	0x3e3f1ba5	0.1866289
44	0x3da4ed9b	0.08053132
45	0xbdb59149	-0.088656016
46	0x3cd50019	0.026001023
47	0x3cc483e9	0.02398868
48	0xbdcca9e5	-0.09993342
49	0x3e6a8105	0.2290078
50	0xbdf8147c	-0.12113282
51	0xbdd18360	-0.10230136
52	0x3eb82fec	0.3597406
53	0xbd83c155	-0.064333595
54	0x3f068541	0.5254708
55	0xbe55e2da	-0.20887318
56	0x3e048435	0.12941058
57	0xbe6ec8c5	-0.23318775
58	0x3d23db51	0.04000408
59	0x3eadf224	0.339738
60	0x3e03ba0c	0.1286394
61	0xbef24c4d	-0.47323838
62	0xbd08b558	-0.033376068
63	0xbe9cd62a	-0.30632144
64	0xbd1749a1	-0.036935452
65	0x3d577993	0.052606177
66	0xbee257b2	-0.4420753
67	0xbe9dd6fc	-0.30828083
68	0xbe6bba56	-0.230203
69	0x3effaa2e	0.49934524
70	0xbb878aea	-0.004136433
71	0xbee727fe	-0.451477
72	0xbe700433	-0.23439102
73	0xbe561690	-0.20907044
74	0x3e8d8398	0.2763946
75	0x3ef03f07	0.46923086
76	0xbd0aa37f	-0.03384733
77	0x3ef9945e	0.48746008
78	0x3ce66983	0.028126484
79	0xbda42117	-0.08014124
80	0x3e16ddcf	0.14733051
81	0x3ebc6fc9	0.36804035
82	0x3d581357	0.05275282
83	0xbefd779d	-0.4950532
84	0x3e8d1098	0.27551723
85	0xbe11629e	-0.14197776
86	0xbe079cfa	-0.13243476
87	0xbed5f681	-0.4178963
88	0x3e9c222d	0.30494824
89	0xbed180ad	-0.40918484
90	0x3e84a82f	0.25909564
91	0x3b39391d	0.0028262802
92	0xbdc9aedd	-0.09847806
93	0xbdefda9e	-0.1171162
94	0xbd377421	-0.044788484
95	0xbed3b92d	-0.41352215
96	0xbc101533	-0.008794117
97	0xbe5e9c2c	-0.21739262
98	0x3ed9dbba	0.4255045
99	0x3ea12837	0.31475994
100	0xbed52e05	-0.41636673
101	0xbe911185	-0.2833368
102	0xbea001a5	-0.31251255
103	0x3e144bc9	0.14482035
104	0xbbd661f3	-0.006542438
105	0xbe56d682	-0.20980266
106	0xbe4a0a6e	-0.19730541
107	0x3e69a6d8	0.22817552
108	0x3e3af7b6	0.18258557
109	0xbdff55ea	-0.12467559
110	0xbe95d9f5	-0.2926785
111	0x3eda0c8b	0.42587695
112	0x3eabce2c	0.33555734
113	0x3e6735e2	0.22579148
114	0x3edda4e0	0.43289852
115	0xbe5bc4d6	-0.21461806
116	0xbce208f1	-0.027592154
117	0xbe1fef60	-0.15618658
118	0x3e360496	0.17775187
119	0xbe9ad8a6	-0.30243415
120	0x3f02ad97	0.5104613
121	0x3d9dd90b	0.07707413
122	0xbded68fc	-0.1159229
123	0xbefa1c2e	-0.48849624
124	0x3e1e6a54	0.15470248
125	0xbf09e1a9	-0.53859955
126	0x3eba814e	0.36426777
127	0xbd726bc8	-0.05918482
128	0x3e7e096b	0.2480828
129	0xbd28af54	-0.04118283
130	0xbea8cd79	-0.32969263
131	0xbeae957f	-0.3409843
132	0x3ed47114	0.41492522
133	0x3e8e777c	0.27825534
134	0xbc909a00	-0.017651558
135	0xbd7e6781	-0.062110428
136	0xbe632862	-0.22183374
137	0x3ee7ab2f	0.4524779
138	0xbde05aef	-0.10954844
139	0x3c22f64f	0.00994642
140	0x3cf6333d	0.03005373
141	0xbe5833e8	-0.2111355
142	0xbea607e5	-0.32427898
143	0x3ee4dc59	0.44699362

mixer_0.0.mlp1.0.bias f4 [48]
0	0x3e86e39c	0.26345527
1	0x3e8a552a	0.270181
2	0x3ee8ef6d	0.45495167
3	0x3e789515	0.2427562
4	0xbeaaa0d6	-0.33325833
5	0xbdfbceab	-0.12295278
6	0xbc279674	-0.010228742
7	0xbe8cc1a7	-0.27491495
8	0xbe8b1791	-0.27166417
9	0xbedb365d	-0.42814913
10	0x3d448174	0.04797502
11	0xbd9e9335	-0.07742921
12	0x3ee9492b	0.45563635
13	0x3abab19b	0.0014243604
14	0xbd97afbc	-0.074065655
15	0xbe78f546	-0.24312314
16	0xbd4997ce	-0.049217038
17	0xbea311de	-0.3184957
18	0x3e3c823a	0.18409052
19	0x3e877ccf	0.2646241
20	0x3efd71fb	0.49501023
21	0xbec3583c	-0.38153255
22	0x3e1eb280	0.1549778
23	0xbea76298	-0.3269241
24	0xbd13b2f9	-0.036059354
25	0xbd9b58f6	-0.07585327
26	0x3e6d46f4	0.23171598
27	0x3d97d5f5	0.07413856
28	0xbe30693a	-0.17227641
29	0x3c1ec062	0.009689422
30	0x3d9e92c7	0.07742839
31	0xbe41a8bd	-0.18912025
32	0x3eba5dd9	0.36399725
33	0x3f03b8a4	0.51453614
34	0x3e890cce	0.26767582
35	0xbecf6616	-0.40507573
36	0xbec9e4d9	-0.3943241
37	0x3daf881b	0.08570882
38	0x3f061491	0.5237513
39	0xbdd8b728	-0.10581809
40	0x3e4b478f	0.19851516
41	0x3dc15f84	0.09442046
42	0xbec62c2b	-0.38705572
43	0x3b61c662	0.003445052
44	0xbe521a2b	-0.20517795
45	0x3d787dca	0.060666837
46	0xbe94ead7	-0.2908542
47	0x3ea3c551	0.31986478

mixer_0.0.mlp1.2.weight f4 [48, 48]
0	0xbcccc21c	-0.024994902
1	0xbca79a72	-0.020459387
2	0xbd3ef410	-0.046619475
3	0xbd30e032	-0.04318256
4	0x3d4a1444	0.049335733
5	0x3d943737	0.07237094
6	0xbbb5b14d	-0.0055448175
7	0x3d3b1c7f	0.045681473
8	0x3d3319e9	0.04372588
9	0x3d6b7a63	0.057489764
10	0xbd30808d	-0.043091346
11	0xbd445191	-0.04792935
12	0x3d6fcfd9	0.05854783
13	0xbca595e9	-0.020213084
14	0xbc617266	-0.013760185
15	0x3b185196	0.0023241988
16	0x3d70418c	0.05865626
17	0x3d74c441	0.059757475
18	0x3d673190	0.05644375
19	0xbe18cffd	-0.14923091
20	0x3cb0c338	0.021577463
21	0x3d703e72	0.058653302
22	0xbd81b04c	-0.06332454
23	0x3b3c7e3e	0.002876177
24	0x3d9ed414	0.077552944
25	0x3c4906b4	0.012269665
26	0xbdfa90a2	-0.12234618
27	0x3d9513c1	0.072791584
28	0xbcad35fa	-0.021143902
29	0xbc137200	-0.008999348
30	0x3d83ea22	0.06441142
31	0xbcf71a34	-0.030163862
32	0xbda14988	-0.07875353
33	0x3de16b29	0.11006767
34	0x3d9b720e	0.075901136
35	0xbd33d039	-0.04389975
36	0x3d3c529e	0.045977227
37	0xbd234ef8	-0.039870232
38	0x3d21ad7b	0.039472084
39	0xbc2b42b6	-0.010452917
40	0x3c4d20b4	0.012520004
41	0xbde382d9	-0.111089416
42	0x3cc0c175	0.023529748
43	0x3dee63e7	0.116401486
44	0xbda9441d	-0.08264945
45	0xbe171898	-0.14755476
46	0x3d5afd26	0.053464077
47	0x3d6dd2b3	0.058062267
48	0xbdbf36ba	-0.0933661
49	0x3d6c9a26	0.057764195
50	0x3b8e451b	0.004341734
51	0x3b4870d3	0.0030584827
52	0xbcfc1250	-0.03077045
53	0x3de7a1fb	0.11310192
54	0x3be58174	0.0070039574
55	0xbd8a94a7	-0.067666344
56	0x3db17131	0.08664168
57	0xbd8f23ad	-0.069892265
58	0xbd0cb4c7	-0.03435209
59	0xbd6c3b7e	-0.057673924
60	0xbdc625ac	-0.09675154
61	0x3d473b8c	0.048640773
62	0x3d1d02e6	0.038332842
63	0xbb6278f1	-0.003455695
64	0x3d3347e8	0.043769747
65	0x3d8aed7b	0.06783577
66	0xbdd92698	-0.10603064
67	0xbd6e4aee	-0.058176927
68	0xbdaf00d4	-0.0854508
69	0xbd71d0c1	-0.059036974
70	0x3daa25a7	0.08307963
71	0xbdee140b	-0.11624917
72	0xbce6a116	-0.028152984
73	0x3da541c2	0.08069183
74	0x3d40e13c	0.0470898
75	0xbc9c4d27	-0.019079758
76	0xbd272c8d	-0.04081397
77	0x3dc40a18	0.09572238
78	0xbdaa1bc4	-0.08306077
79	0xbd9729a9	-0.07380993
80	0xbc93c5fb	-0.01803874
81	0xbdab0fc6	-0.08352618
82	0x3cd15b09	0.025556104
83	0x3c412d84	0.011790637
84	0xb9d9fc4a	-0.00041577435
85	0x3db2bf36	0.08727877
86	0x3d19ab80	0.03751707
87	0x3d71de44	0.05904986
88	0x3bc29945	0.0059386813
89	0xbd9652b3	-0.073399924
90	0x3a2fd75e	0.00067078124
91	0xbc0f12ac	-0.008732479
92	0xbd070db2	-0.032972045
93	0xbd29231a	-0.04129324
94	0xbca11da2	-0.01966745
95	0x3dbabafb	0.09117695
96	0x3ce22803	0.02760697
97	0xbc5a5cd9	-0.013327801
98	0xbd3df959	-0.046380375
99	0xbcb51d02	-0.022108559
100	0xbda23a45	-0.0792127
101	0x3da41667	0.080120854
102	0xbd22c453	-0.03973801
103	0x3d374b61	0.04474962
104	0x3d1945f6	0.037420236
105	0xbdbc116c	-0.091830105
106	0xbc82a8b8	-0.015949592
107	0xbce9500c	-0.028480552
108	0xbd8b4c49	-0.068016596
109	0x3d3ed6f5	0.046591718
110	0x3d2312eb	0.039812963
111	0xbd970cad	-0.073754646
112	0xbc1aedec	-0.009456139
113	0xbccbf054	-0.02489487
114	0x3d4fb59f	0.050710317
115	0xba51d928	-0.0008005076
116	0x3dd06b48	0.10176712
117	0x3d8d2338	0.06891483
118	0x3d8c9ae1	0.06865478
119	0x3d241002	0.04005433
120	0xbd51cb20	-0.051219106
121	0x3d8862b2	0.0665945
122	0xbd335310	-0.043780386
123	0x3a76f647	0.00094208535
124	0x3dc6279f	0.09675526
125	0x3daff7e9	0.08592207
126	0xbc5ed81e	-0.013601331
127	0x3d9b3d5d	0.075800635
128	0xba25c931	-0.00063242303
129	0xbdabc912	-0.083879605
130	0xba790ee0	-0.0009500813
131	0xbd1585bb	-0.03650449
132	0xbc9dd241	-0.019265296
133	0x3c0d46b0	0.00862281
134	0x3da1117e	0.078646645
135	0x3c803dc4	0.015654452
136	0xbcfeaecb	-0.031089207
137	0x3d9a84e4	0.07544878
138	0x3db3861d	0.087658145
139	0x3c99a495	0.018755237
140	0xbd1dce51	-0.038526837
141	0x3d1d442a	0.038395084
142	0x3bbb60ff	0.00571835
143	0xbdb7032d	-0.089361526
144	0x3d374de6	0.044752024
145	0x3d0be869	0.03415719
146	0x3e0ef2c2	0.13959792
147	0xbc413820	-0.011793166
148	0x3d4f6e27	0.05064216
149	0xb9af5ebe	-0.0003344919
150	0x3d738cb3	0.059460353
151	0xbd2fe89b	-0.04294644
152	0x3debcde7	0.11513882
153	0x3d224698	0.039618105
154	0xbdf38510	-0.11890614
155	0x3cfa9c8d	0.030592227
156	0x3deb8f4a	0.115019396
157	0xbde0bbc6	-0.10973315
158	0xbcd1caeb	-0.025609454
159	0xbd95e298	-0.0731861
160	0x3dc5e470	0.096627116
161	0xbde296a2	-0.11063887
162	0x3c1648d4	0.009172637
163	0x3cd47949	0.02593674
164	0xbd4d086e	-0.050056867
165	0xbdd62285	-0.10455803
166	0x3d8874d9	0.06662912
167	0xbdf56e60	-0.11983943
168	0x3cb36470	0.021898478
169	0x3d99d33b	0.07510992
170	0xbd3aeadc	-0.045634136
171	0xbdb12ad2	-0.086507455
172	0x3d1fe76e	0.039039068
173	0x3e0e8a0c	0.13919848
174	0xbd1be842	-0.038063295
175	0x3c8ba8d1	0.017048271
176	0x3e03c18d	0.12866803
177	0xbddadeba	-0.10687013
178	0x3d4c04a2	0.049809106
179	0x3cef8890	0.029239923
180	0xbd666cbb	-0.056256037
181	0x3c2c3fff	0.010513305
182	0x3ca1aa8f	0.019734649
183	0x3df35c63	0.11882856
184	0x3cc424f9	0.023943411
185	0x3d3e8041	0.04650903
186	0x3c089282	0.008335711
187	0x3d72bdae	0.059262924
188	0x3d8ef2b1	0.069798835
189	0x3d867ef1	0.06567181
190	0xbd930262	-0.07178189
191	0xbd95e89b	-0.073197566
192	0x3d461e95	0.04836901
193	0x3cd512c9	0.026009934
194	0xbd5cf98b	-0.05394892
195	0xbd213480	-0.03935671
196	0x3da44cd2	0.08022465
197	0xbd5bbd96	-0.0536476
198	0x3d21e19d	0.039521802
199	0x3cde7390	0.027154714
200	0xbde2057f	-0.110362045
201	0xbd17c3a8	-0.037051827
202	0x3c22dd88	0.0099405125
203	0x3db5dab9	0.08879609
204	0xbdfb3246	-0.12265448
205	0x3a47581f	0.00076043786
206	0xbc3dd449	-0.011586257
207	0xbcaa1ab1	-0.02076468
208	0x3db3a108	0.08770949
209	0x3db5edd0	0.0888325
210	0xbd8a3f24	-0.06750324
211	0xbd163a56	-0.036676727
212	0xbd104e96	-0.035231195
213	0xbd46811e	-0.04846298
214	0xbbd86a23	-0.0066044494
215	0x3c5b5941	0.013387979
216	0x3c0c5ccb	0.008567045
217	0xbe01f22d	-0.12690039
218	0xbdd3cc24	-0.10341671
219	0x3e0d3264	0.13788754
220	0xbd70fd9d	-0.058835614
221	0x3d9ad54d	0.07560215
222	0xbcf51d5d	-0.029921228
223	0x3db8d41b	0.09024831
224	0x3d0ea3e8	0.034824282
225	0x3d48ff9c	0.049071893
226	0x3d48a020	0.048980832
227	0xbde3f2ca	-0.11130293
228	0xbda249ea	-0.07924254
229	0xbdd13952	-0.10216011
230	0xbdbaec12	-0.09127058
231	0x3de27d0a	0.110590056
232	0xbd76b6cf	-0.060232934
233	0x3d9009ee	0.07033144
234	0x3b82e887	0.0039950046
235	0x3d8120a4	0.06305054
236	0x3d206471	0.03915829
237	0x3cefeaa0	0.029286683
238	0xbb5dd223	-0.0033847175
239	0xbd51a8d0	-0.051186383
240	0xbd0ef015	-0.03489693
241	0xbd96ca7a	-0.07362838
242	0xbd542be3	-0.051799666
243	0x3d08d0bc	0.03340219
244	0xbd4d4dcc	-0.05012302
245	0xbdcb0034	-0.09912148
246	0x3dac2063	0.08404615
247	0x3daf740f	0.08567058
248	0x3dbf94fe	0.0935459
249	0x3cd78518	0.026308581
250	0x3d311e05	0.04324152
251	0x3c5198f9	0.012792819
252	0x3c6dfa21	0.014524967
253	0xbccb09dd	-0.024784977
254	0x3d3c1d24	0.04592623
255	0x3d71ab7e	0.05900144

mixer_0.0.mlp1.2.bias f4 [48]
0	0xbd7167d3	-0.058936905
1	0xbcf82132	-0.030289266
2	0xbd8079be	-0.062732205
3	0xbd02d78e	-0.03194385
4	0x3deade75	0.114682116
5	0x3bfa8b24	0.0076459814
6	0x3d53ee35	0.051740844
7	0xbda59859	-0.08085699
8	0x3d0bf0ea	0.0341653
9	0xbd339fe5	-0.04385366
10	0x3dc03e1f	0.09386849
11	0x3dbee0f6	0.09320252
12	0xbcbe435c	-0.023225479
13	0xbd9be832	-0.07612647
14	0xbdc713ca	-0.09720571
15	0x3dcaac27	0.09896117
16	0x3e06b71d	0.1315579
17	0xbc03403c	-0.00801092
18	0xbda794c3	-0.08182671
19	0x3e000ab6	0.12504086
20	0xbd519bb6	-0.05117389
21	0xbd87bb85	-0.066275634
22	0x3d76f2b1	0.060290042
23	0xbde7c63f	-0.11317109
24	0xbdb189cd	-0.086688615
25	0x3d9048e4	0.07045153
26	0xbc862322	-0.016374175
27	0xbd82524f	-0.06363355
28	0x3e00bd2e	0.12572166
29	0x3e0f0738	0.13967597
30	0x3ccab062	0.024742309
31	0x3e21ee0f	0.15813468
32	0x3d18abc6	0.03727319
33	0xbce2ff2f	-0.027709572
34	0x3e06fc27	0.13182126
35	0xbdd6c9bc	-0.104876965
36	0xbbacbe9c	-0.005271746
37	0xbe19c8d0	-0.1501801
38	0xbd594c0c	-0.05305104
39	0x3cd2dd36	0.025740247
40	0x3d7250df	0.059159156
41	0xbcffd2af	-0.031228391
42	0x3c84b0ce	0.016197588
43	0x3dae2ce5	0.08504657
44	0x3d045af8	0.032313317
45	0x3d2d43fb	0.04230116
46	0xbdbfd847	-0.093674235
47	0xbd241f92	-0.04006917

mixer_0.0.mlp2.0.weight f4 [48, 2]
0	0xbedd7987	-0.4325678
1	0xbe24b5ae	-0.1608493
2	0xbf034b05	-0.51286346
3	0xbe8a2d8d	-0.26987877
4	0x3ec18bb6	0.37801903
5	0xbec7796d	-0.38959828
6	0xbdc7e60b	-0.09760674
7	0xbe623435	-0.22090228
8	0x3e882170	0.2658801
9	0xbd008e42	-0.031385668
10	0xbddaf5ef	-0.10691439
11	0x3e39526c	0.18097848
12	0xbe4d2858	-0.20034921
13	0xbd62e376	-0.055392705
14	0x3ef68414	0.48147643
15	0xbefcbd09	-0.49362972
16	0xbe9371e9	-0.28797844
17	0xbd9253e9	-0.07144911
18	0xbe7b0cd8	-0.24516618
19	0xbe16cab0	-0.14725757
20	0x3eb91f53	0.3615671
21	0xbe15382f	-0.14572214
22	0xbe79bdb4	-0.24388772
23	0xbe019ea6	-0.12658176
24	0x3ef9cb6d	0.48788014
25	0xba9d818e	-0.001201676
26	0xbd106e39	-0.035261367
27	0xbefe654e	-0.49686664
28	0xbea4c804	-0.3218385
29	0xbe2a0a44	-0.16605479
30	0x3eb105b4	0.34574664
31	0xbe61bfbb	-0.22045796
32	0xbe42c8d4	-0.19021922
33	0xbe630674	-0.2217043
34	0xbe76afda	-0.2409052
35	0x3e8412a4	0.25795472
36	0x3e310e6c	0.17290658
37	0xbedf34d2	-0.43594986
38	0xbdbff900	-0.09373665
39	0x3d16a748	0.036780626
40	0x3c8264e7	0.015917255
41	0xbe279a92	-0.16367558
42	0x3e96c635	0.29448095
43	0xbe9ae461	-0.30252364
44	0x3d9bdf2a	0.076109245
45	0x3de47e6e	0.11156927
46	0x3efa9dbf	0.48948476
47	0xbe92b066	-0.28650206
48	0x3eb142b4	0.34621203
49	0xbe02adce	-0.12761614
50	0x3ee72342	0.45144087
51	0xbdeaf996	-0.11473386
52	0x3d9f6f47	0.07784896
53	0xbe9b487e	-0.30328745
54	0x3ec5d12d	0.3863615
55	0x3f0232e9	0.5085893
56	0xbe83084a	-0.25592262
57	0xbe9c427f	-0.30519482
58	0xbe3e97bd	-0.18612571
59	0x3e5eb647	0.21749221
60	0xbdcc2cbc	-0.0996947
61	0x3e09a1bd	0.13440605
62	0xbe03e583	-0.1288052
63	0xbe8c2a06	-0.2737581
64	0x3e150859	0.14553966
65	0xbe941460	-0.28921795
66	0xbe650e59	-0.22368754
67	0x3e05c18e	0.13062117
68	0x3cde02e4	0.027100988
69	0xbd9622a1	-0.07330824
70	0xbd525583	-0.05135108
71	0xbe280a5c	-0.16410202
72	0x3d82931a	0.06375714
73	0x3e441dd9	0.19152011
74	0x3eb1600b	0.34643587
75	0x3d099ca7	0.03359666
76	0xbe2c778d	-0.1684248
77	0xbeffa964	-0.49933922
78	0xbd950fca	-0.07278402
79	0xbe5077c0	-0.20358181
80	0x3e2a29cf	0.16617511
81	0x3e9afa01	0.30268863
82	0xbde1cf16	-0.11025827
83	0x3d9d953e	0.07694481
84	0x3e5fb4c7	0.21846305
85	0xbe685512	-0.22688702
86	0xbe076212	-0.13221005
87	0xbee668fc	-0.45001972
88	0xbda5c973	-0.08095064
89	0x3d7824e6	0.060582064
90	0xbf035035	-0.5129426
91	0x3ed1e0d5	0.40991846
92	0xbeb51b7a	-0.35372525
93	0x3e846915	0.2586142
94	0x3f055043	0.52075595
95	0xbdc07ebd	-0.093991734

mixer_0.0.mlp2.0.bias f4 [48]
0	0x3f26503e	0.6496619
1	0x3ee79f33	0.45238647
2	0x3e206f64	0.15667492
3	0x3f272b8e	0.65300834
4	0xbed70ee9	-0.42003563
5	0xbea06892	-0.3132978
6	0xbeff04fd	-0.49808493
7	0xbe7a9fdb	-0.24475043
8	0x3d10f277	0.035387482
9	0x3eafae00	0.3431244
10	0xbe9f80ec	-0.31153047
11	0x3eb57261	0.35438827
12	0xbe456b1e	-0.19279143
13	0xbeb534cc	-0.35391843
14	0x3f2abc2e	0.6669339
15	0xbe52af60	-0.20574713
16	0xbe062ccf	-0.1310303
17	0x3f15b265	0.58475333
18	0x3f0fffbf	0.5624961
19	0xbe9bd9c1	-0.3043957
20	0x3ed1a0a0	0.4094286
21	0xbe5c463f	-0.21511172
22	0xbec02d50	-0.3753457
23	0xbdfd7a04	-0.12376788
24	0xbea3c612	-0.31987053
25	0xbe27efdc	-0.16400093
26	0xbc87abfd	-0.016561503
27	0x3f0c0c44	0.54706216
28	0xbea17c3c	-0.31540096
29	0xbe94af80	-0.29040146
30	0xbe4d3b8f	-0.20042251
31	0xbe8c0003	-0.2734376
32	0x3d4838f9	0.04888246
33	0x3f29753a	0.661945
34	0xbeb3f98c	-0.35151327
35	0xbe6b34b7	-0.22969328
36	0xbe2dccd9	-0.16972674
37	0xbe47a894	-0.19497901
38	0xbec75dfc	-0.38938892
39	0x3d44059b	0.04785691
40	0x3e994c9e	0.29941267
41	0x3ed4c1b8	0.41554046
42	0xbe958fdb	-0.29211316
43	0xbea0a978	-0.31379294
44	0xbe529282	-0.20563701
45	0x3eb44e3d	0.3521594
46	0x3e9df235	0.30848852
47	0xbe2a1870	-0.16610885

mixer_0.0.mlp2.2.weight f4 [48, 48]
0	0xbdfeb9e9	-0.12437803
1	0x3d5b91e1	0.053605918
2	0xbd980814	-0.07423416
3	0xbbad794a	-0.005294
4	0x3bde9b00	0.00679338
5	0xbd22c094	-0.039734438
6	0xbcecf2f2	-0.02892444
7	0x3dba0a68	0.09084016
8	0xbc9bc743	-0.019015914
9	0x3d658fb2	0.05604524
10	0x3a8c0de5	0.0010685293
11	0xbdd03196	-0.10165708
12	0xbd04487d	-0.032295693
13	0xbd90c327	-0.07068472
14	0xbd02e82a	-0.03195969
15	0x3d40927d	0.047014702
16	0x3ca0deb3	0.019637441
17	0xbd233334	-0.039843753
18	0xbdbfaf8e	-0.09359656
19	0xbc3fa9e6	-0.011698222
20	0xbdb0a3b1	-0.08624972
21	0x3b11a533	0.002222371
22	0x3c752140	0.014961541
23	0xbdafd821	-0.08586145
24	0xbbffa2fc	-0.0078014117
25	0x3d3127b3	0.04325075
26	0xbd4b09ba	-0.049569823
27	0xbd2aee8a	-0.041731395
28	0x3da54e82	0.08071615
29	0xbc0e8a91	-0.008700029
30	0x3aa397d6	0.0012481164
31	0x3d5e2f98	0.054244608
32	0xbcca18ca	-0.024670023
33	0xbd7a0f06	-0.061049484
34	0x3cbf054f	0.023317961
35	0xbacbad72	-0.0015539362
36	0x3ca6f17b	0.020378819
37	0xba747f56	-0.0009326836
38	0xbd9283cf	-0.07154047
39	0xbd10a9df	-0.03531825
40	0x3d32248d	0.04349189
41	0x3b2ba538	0.0026191007
42	0x3b9fc525	0.0048757964
43	0x3df560d6	0.119813606
44	0x3c68fbc6	0.014220184
45	0x3d61f09f	0.055161115
46	0xbe087dd7	-0.13329254
47	0xbdadb138	-0.084810674
48	0x3e107693	0.14107732
49	0x3d2677b9	0.04064152
50	0x3d92617a	0.071474984
51	0x3b433d58	0.0029791202
52	0xbd1b2537	-0.037877288
53	0xbb2737c7	-0.0025515424
54	0xbdf0a823	-0.117508195
55	0x3c97240f	0.018449811
56	0x3d8e0308	0.06934172
57	0x3be016ff	0.006838679
58	0x3d63fc75	0.055660684
59	0xbdbf4ed7	-0.093412094
60	0x3dc7e5c5	0.09760622
61	0xbc0e6d18	-0.008693002
62	0xbd914d05	-0.070947684
63	0x3db42885	0.08796791
64	0xbca8aa10	-0.020588905
65	0x3e0dfc2c	0.13865727
66	0xbda44900	-0.08021736
67	0xbd9d8577	-0.07691472
68	0xbd8461c8	-0.06463963
69	0xbd9a7178	-0.07541174
70	0xbd825d1f	-0.06365418
71	0xbddb4912	-0.107072964
72	0xbdebc1e7	-0.11511593
73	0x3dd5fc6a	0.10448535
74	0x3daafee8	0.08349401
75	0x3e42ccfc	0.19023508
76	0xbdc7b48d	-0.09751234
77	0xbd9ad0bc	-0.07559344
78	0x3c0d1858	0.008611761
79	0xbdffd487	-0.12491708
80	0xbd87be1b	-0.066280566
81	0x3df541e0	0.11975455
82	0xbd41622a	-0.047212757
83	0xbd967f5e	-0.07348512
84	0x3b106ed9	0.0022038727
85	0xbd1dd155	-0.038529713
86	0xbd5fca0f	-0.054636057
87	0xbc128be3	-0.008944484
88	0x3e2a91b9	0.16657151
89	0x3a864df4	0.001024662
90	0xbdbf7783	-0.09348967
91	0xbe06cde1	-0.13164474
92	0x3c2638ac	0.010145348
93	0x3df558c5	0.11979822
94	0xbd9e068a	-0.07716091
95	0xbd92ed3c	-0.07174155
96	0x3c7a583a	0.015279824
97	0x3a6fdcd6	0.00091500336
98	0xbdeced0d	-0.11568651
99	0x3e2bf11d	0.16791196
100	0xbdb3419d	-0.08752749
101	0xbcf9dd33	-0.030500984
102	0xbdb03846	-0.08604483
103	0xbd5449a1	-0.05182803
104	0x3b24b024	0.0025129402
105	0x3e1aa154	0.15100604
106	0xbc175af5	-0.009237994
107	0x3d9c1ec5	0.07623056
108	0x3cdb5832	0.026775453
109	0xbd96ecb6	-0.07369368
110	0x3df12f7f	0.11776637
111	0x3da753a8	0.08170253
112	0x3cfa051c	0.030520014
113	0x3d6244bc	0.05524133
114	0x3c58cf52	0.013233023
115	0xbdba43d6	-0.0909497
116	0x3dd35b74	0.10320178
117	0xbe17ea53	-0.14835481
118	0xbc23b3b9	-0.00999158
119	0xbc23e93b	-0.010004337
120	0xbb6b521f	-0.0035907102
121	0x3b5a8110	0.0033341087
122	0xbcd90163	-0.026489919
123	0x3d9bd3b4	0.076087385
124	0x3cd63bb0	0.026151508
125	0xbda910d7	-0.08255165
126	0x3b995b43	0.0046800687
127	0x3d0af486	0.033924602
128	0x3cb15c88	0.021650568
129	0x3e237b4d	0.15965004
130	0xbd7def64	-0.06199588
131	0x3ab886ab	0.001407822
132	0xbbb017ba	-0.005373922
133	0xbe1e465f	-0.15456532
134	0xbe15ca34	-0.14627916
135	0xbc783513	-0.015149373
136	0x3d30b219	0.043138597
137	0x3dd83f42	0.105589405
138	0x3d1b399f	0.03789675
139	0xbd444cd9	-0.04792485
140	0xbd80a6fe	-0.06281851
141	0x3d5140fb	0.05108736
142	0x3d59b572	0.053151555
143	0xbe09a558	-0.1344198
144	0xbdd6a98d	-0.10481558
145	0x3d980381	0.07422543
146	0xbd717f7d	-0.058959473
147	0x3d335925	0.043786187
148	0x3d825eda	0.06365748
149	0xbb5db6f5	-0.0033830975
150	0x3d4fe78f	0.05075794
151	0xbc7acac1	-0.015307129
152	0x3d052885	0.032509346
153	0x3db28a15	0.08717743
154	0xbd8094cc	-0.06278381
155	0x3d2b7b2e	0.04186552
156	0xbcc4346f	-0.023950784
157	0x3dd53016	0.10409562
158	0x3d30ce29	0.04316536
159	0xbd40f58a	-0.047109164
160	0x3d976323	0.07391956
161	0xbdf71a60	-0.120655775
162	0xbda5869e	-0.08082317
163	0xbd11b061	-0.0355686
164	0xbd1ad3f3	-0.037799787
165	0x3c84508c	0.016151689
166	0x3be21596	0.006899546
167	0xbd3b5a3e	-0.04574036
168	0x3ca489f6	0.020085316
169	0x3c4f291c	0.012644079
170	0xbd608adc	-0.054819927
171	0xbcadb0b2	-0.021202419
172	0x3da8be6e	0.082394466
173	0xbce991b2	-0.028511856
174	0x3b389eaf	0.0028170755
175	0xbc65e392	-0.014031308
176	0x3de54cca	0.11196287
177	0x3d8face6	0.070154
178	0x3b7ac187	0.0038262324
179	0xbb3ca1e4	-0.0028783018
180	0x3c8e9e18	0.01740937
181	0x3d5a7073	0.053329896
182	0xbc9838ba	-0.018581737
183	0x3d29ab12	0.04142291
184	0xbd7ce046	-0.06173732
185	0xbd07761c	-0.033071622
186	0xbda28779	-0.079359956
187	0xbb650d34	-0.0034950497
188	0xbd026e12	-0.031843252
189	0xbd4da32d	-0.050204445
190	0x3caacb21	0.020848813
191	0x3c84832f	0.016175834
192	0x3d851871	0.064988025
193	0xbd94e351	-0.0726992
194	0xbcb30f6f	-0.021857945
195	0x3d423098	0.047409624
196	0x3d3256a8	0.043539673
197	0x3daa357e	0.08310984
198	0x3ddc4bf8	0.107566774
199	0xbda29d1e	-0.07940124
200	0xbd3ca4e4	-0.04605569
201	0xbd9b4852	-0.075821534
202	0x3de28076	0.11059658
203	0x3d6bfe47	0.057615545
204	0x3dcdd72c	0.100508064
205	0x3d86322e	0.0655254
206	0xbdad528a	-0.08463009
207	0xbd140f05	-0.036147136
208	0xbc277478	-0.010220639
209	0xbda37665	-0.07981566
210	0xbdfad770	-0.12248123
211	0x3b0db0d1	0.0021620283
212	0xbdd5f8f5	-0.104478754
213	0x3e023459	0.12715282
214	0x3d389123	0.04506029
215	0xbda73bd0	-0.08165705
216	0x3d92d8b3	0.07170238
217	0xbb7d05b3	-0.0038608133
218	0x3df39f0a	0.11895569
219	0xbc4cf32e	-0.01250915
220	0x3dbe8880	0.09303379
221	0x3cb36a1b	0.021901181
222	0xbcb271f9	-0.021782862
223	0x3e0a6a27	0.13517056
224	0x3d183c53	0.037166905
225	0xbe0f8992	-0.14017323
226	0x3db6f354	0.0893313
227	0x3b31e425	0.0027144041
228	0x3ceae59c	0.02867394
229	0xbdb48669	-0.08814699
230	0xbc01d183	-0.007923487
231	0x3c4b8680	0.012422204
232	0xbd16b721	-0.03679574
233	0x3c0742a9	0.008255639
234	0xbb991848	-0.004672084
235	0xbd462d8b	-0.048383277
236	0xbb3828fb	-0.0028100598
237	0xbd04e5df	-0.032445785
238	0xbe0249b6	-0.12723431
239	0x3ddfd32d	0.109289505
240	0xbda5df11	-0.08099187
241	0x3d70b88f	0.05876976
242	0x3d6a8399	0.057254408
243	0xbde339af	-0.11094987
244	0x3cfe7d71	0.031065674
245	0xbd1292d4	-0.035784557
246	0x3caece87	0.021338714
247	0x3e1632d7	0.14667831
248	0xbba02496	-0.004887174
249	0x3d7a2978	0.061074704
250	0x398e5601	0.00027148428
251	0xbdd39e67	-0.10332947
252	0x3ce551bf	0.027993081
253	0xbcd2d2f4	-0.025735356
254	0xbd55240e	-0.052036338
255	0x3cafd145	0.021462092

mixer_0.0.mlp2.2.bias f4 [48]
0	0xbd66889e	-0.056282632
1	0xbc54f1c4	-0.012997095
2	0x3d9e2e28	0.07723647
3	0xbdaec639	-0.08533902
4	0xbd0747e5	-0.03302755
5	0xbe1a5fd2	-0.15075615
6	0xbe2e24fa	-0.17006293
7	0xbdcdc932	-0.100481406
8	0x3dabd4c1	0.08390189
9	0xbd7a6fde	-0.06114184
10	0xbd45bd49	-0.04827622
11	0x3de8d6e7	0.11369114
12	0xbdb36a89	-0.08760554
13	0x3d804c7b	0.062645875
14	0x3de694f4	0.11258879
15	0xbca65802	-0.020305637
16	0xbdfd0870	-0.12355125
17	0x3e0e9e2d	0.13927527
18	0xbcfb28ce	-0.030659106
19	0xbdbb506c	-0.09146199
20	0xbe38b714	-0.18038589
21	0x3dc77d86	0.097407386
22	0xbd2d1891	-0.042259756
23	0xbdc0791a	-0.09398098
24	0x3d59e6ea	0.053198732
25	0x3dba5619	0.09098453
26	0x3e2a57ab	0.16635005
27	0x3ce4601e	0.027877863
28	0x3db1a2eb	0.08673652
29	0x3dc7cf7b	0.09756371
30	0xbaf70a39	-0.0018847651
31	0xbd1d4144	-0.03839232
32	0xbe05caf4	-0.13065702
33	0x3e241e1e	0.16027114
34	0xbcf3c48f	-0.029756812
35	0x3d8d8029	0.0690921
36	0x3d1cd1bc	0.038285956
37	0x3e116c34	0.14201432
38	0x3e1e47f3	0.15457134
39	0xbde968b5	-0.113969244
40	0x3e16c6a8	0.14724219
41	0xbdb7a506	-0.089670226
42	0x3e1d6654	0.15371066
43	0x3de4f75c	0.111799926
44	0x3d0d6dc9	0.034528527
45	0x3c35ec45	0.011103694
46	0x3e0449e6	0.12918815
47	0x3e19d957	0.15024315

mixer_0.0.mlp3.0.weight f4 [48, 7]
0	0x3cd9a291	0.026566776
1	0xbe231970	-0.15927672
2	0xbdc773c1	-0.09738875
3	0x3d05f577	0.032704797
4	0xbbd688d8	-0.0065470748
5	0x3e1e0587	0.15431796
6	0xbdde2b55	-0.10848109
7	0x3c86a521	0.016436161
8	0xbc2d492c	-0.010576528
9	0xbe392c72	-0.18083361
10	0xbe7d7676	-0.2475222
11	0x3e19b7d6	0.15011534
12	0x3d9e4a88	0.077290595
13	0x3d33f4eb	0.043934744
14	0x3e16d58d	0.147299
15	0x3e43a6d4	0.19106609
16	0xbdcc4ec9	-0.099759646
17	0x3e74728a	0.23871818
18	0x3cf66f76	0.030082446
19	0x3dc6f80f	0.09715282
20	0x3e864763	0.2622634
21	0xbea0e3e2	-0.3142386
22	0xbe2c5165	-0.16827925
23	0xbe0fe258	-0.14051187
24	0xbdbfa8b7	-0.09358352
25	0x3ebb98b7	0.3663995
26	0x3e19e5c1	0.1502905
27	0xbd54a8fd	-0.051918972
28	0xbe1b1377	-0.15144144
29	0xbe8fb1a9	-0.2806523
30	0x3d859f75	0.06524555
31	0x3e913753	0.28362522
32	0xbea0d4fc	-0.31412494
33	0x3e4a6d99	0.1976837
34	0xbcf500ae	-0.02990755
35	0xbdee9eec	-0.11651406
36	0xbd975946	-0.073900744
37	0x3cf79f87	0.030227436
38	0x3c8a802c	0.01690682
39	0x3e45f18f	0.19330429
40	0xbe0ee20b	-0.13953416
41	0xbd36ace6	-0.044598483
42	0xbd3b66cc	-0.04575233
43	0xbe73b4ef	-0.2379949
44	0x3d8c35bc	0.068461865
45	0x3e809858	0.2511623
46	0xbe8af087	-0.27136633
47	0xbe6c922f	-0.2310264
48	0x3d8a341d	0.06748221
49	0x3d99e971	0.075152285
50	0x3e929cef	0.28635356
51	0xbe48d8b4	-0.19613916
52	0x3e3f3069	0.18670811
53	0x3ecca430	0.39969015
54	0xbe04949c	-0.12947315
55	0xbe947227	-0.2899334
56	0x3e476979	0.19473828
57	0x3ec5528a	0.38539535
58	0xbdd4a5f1	-0.10383213
59	0x3da7aca2	0.08187224
60	0x3dff9528	0.12479621
61	0xbc48fa3a	-0.01226669
62	0x3df7cf91	0.12100137
63	0xbe3902eb	-0.1806752
64	0xbd8c9170	-0.068636775
65	0x3dd3a079	0.10333342
66	0x3ca2ca6c	0.019871913
67	0x3ea04358	0.3130138
68	0xbe0c51ca	-0.13703075
69	0xbe862e60	-0.26207256
70	0xbe0fc890	-0.14041352
71	0xbe85868d	-0.26079217
72	0x3e93e7e0	0.28887844
73	0xbd65d992	-0.056115694
74	0x3e1547da	0.1457819
75	0x3db5db63	0.08879735
76	0xbe63d141	-0.22247793
77	0x3e788711	0.24270274
78	0x3e1b72f5	0.15180571
79	0x3e174b3f	0.14774798
80	0xbdd12833	-0.102127455
81	0x3e939338	0.28823256
82	0x3e14f5ee	0.1454694
83	0x3e2ef75e	0.1708655
84	0xbdb4a284	-0.0882006
85	0xbe15a29d	-0.14612813
86	0xbe0f1247	-0.13971816
87	0xbcb32c1a	-0.021871615
88	0xbe927ee0	-0.28612423
89	0x3e048cb7	0.12944303
90	0x3e598704	0.2124291
91	0x3e12203b	0.14270107
92	0xbd87f3c0	-0.066382885
93	0xbe37526a	-0.17902532
94	0x3d18ff59	0.037352894
95	0x3eb5199e	0.35371107
96	0x3cbbe1ca	0.022934813
97	0xbe1e3613	-0.15450315
98	0xbe3d1641	-0.1846552
99	0x3d618207	0.055055644
100	0x3d68c25c	0.05682598
101	0x3e8e6f13	0.27819118
102	0xbe199f3f	-0.15002154
103	0x3dd75b4f	0.105154626
104	0x3d4b961a	0.049703695
105	0xbd724c8a	-0.059155025
106	0x3d2b5f01	0.04183865
107	0x3da0ff42	0.078611866
108	0x3e90edbd	0.2830638
109	0x3b87c7d1	0.004143693
110	0x3e56a0d9	0.20959796
111	0xbe879842	-0.2648335
112	0x3c184bae	0.009295387
113	0x3d13fb64	0.036128417
114	0xbb9771fc	-0.0046217423
115	0x3e7890c1	0.24273969
116	0x3e4f7f95	0.20263512
117	0x3e41e792	0.18935993
118	0x3cb1223a	0.021622766
119	0xbdbd0204	-0.092289
120	0xbd9a6f33	-0.07540741
121	0xbd7c395b	-0.061578136
122	0x3de32155	0.11090342
123	0x3e4918c6	0.19638357
124	0x3ea4282c	0.320619
125	0x3db9f898	0.090806186
126	0x3e5386db	0.20656912
127	0xbe900e3d	-0.28135863
128	0xbdee52f6	-0.11636917
129	0xbdae8ffe	-0.08523558
130	0xbe767973	-0.24069767
131	0x3e02002e	0.12695381
132	0x3e969e1d	0.29417506
133	0xbe590b38	-0.21195686
134	0xbd2d950f	-0.04237848
135	0xbd5fb20c	-0.054613158
136	0x3e8dbf49	0.27685001
137	0xbd49c3f4	-0.04925914
138	0x3cd1f96e	0.025631633
139	0xbe26783b	-0.16256802
140	0x3df7d7be	0.121016964
141	0x3e476227	0.19471036
142	0x3d1b8366	0.03796711
143	0xbe020df0	-0.12700629
144	0xbeb4ce67	-0.35313722
145	0x3d811efe	0.063047394
146	0x3e73b60a	0.23799911
147	0xbe8dbc28	-0.27682614
148	0xbdc6a6f4	-0.096998125
149	0xbe9c4e8a	-0.3052867
150	0x3d5e88c4	0.05432965
151	0x3dd24757	0.10267513
152	0xbe63d2d4	-0.22248393
153	0xbcd757f5	-0.026287058
154	0x3e83bc89	0.25729778
155	0x3e6c40dc	0.23071617
156	0xbeab6140	-0.33472633
157	0xbeaa506e	-0.33264488
158	0x3eac54d7	0.33658478
159	0xbd9a1273	-0.0752305
160	0xbe1a9580	-0.15096092
161	0x3e8422e2	0.25807863
162	0x3e8bcc47	0.2730429
163	0xbde8cfb0	-0.11367738
164	0xbdfa6254	-0.12225786
165	0x3d123161	0.035691623
166	0x3d94fdfb	0.072750054
167	0xbe3ab187	-0.18231784
168	0xbeaae12d	-0.3337492
169	0xbe1e374d	-0.15450783
170	0xbea4f9ec	-0.32221925
171	0x3d6d5d54	0.057950333
172	0xbda63328	-0.08115226
173	0x3ea21c1a	0.31662065
174	0x3e6f8a7b	0.2339267
175	0x3e8c6eef	0.27428386
176	0xbd87f425	-0.06638364
177	0xbe1b120f	-0.15143608
178	0xbe4ca522	-0.19984868
179	0x3edb5ad0	0.42842722
180	0xbeb5b699	-0.35490873
181	0xbea63c69	-0.32467964
182	0xbe96b14a	-0.29432136
183	0xbe370192	-0.17871693
184	0x3d9d5959	0.07683057
185	0x3e7d49c5	0.24735172
186	0xbdccd596	-0.10001676
187	0xbc16cf19	-0.009204649
188	0xbd0ec707	-0.034857776
189	0x3ebf5874	0.37372172
190	0x3e318e65	0.17339475
191	0x3e0ae6b0	0.13564563
192	0x3e376a87	0.1791173
193	0xbe97978f	-0.29607818
194	0x3ba5f3ea	0.005064477
195	0x3e7b822d	0.24561377
196	0x3e607dfc	0.21923059
197	0xbe646bce	-0.22306749
198	0x3e4c095a	0.19925442
199	0xbe39e9fa	-0.18155661
200	0x3de7c458	0.113167465
201	0xbe5ccd6f	-0.21562742
202	0x3e143e5f	0.14476918
203	0xbe0b2dc4	-0.13591677
204	0xbe926780	-0.2859459
205	0x3d55f961	0.05223978
206	0x3e80f1dd	0.25184527
207	0x3de54ac3	0.111959
208	0x3e536e61	0.20647575
209	0x3e94b979	0.29047754
210	0xbe24fd00	-0.16112137
211	0x3e0c227f	0.13685034
212	0xbd93fdb8	-0.072261274
213	0xbea67cb1	-0.32517007
214	0xbe87d966	-0.2653305
215	0x3e92dbec	0.28683412
216	0xbe7f1ee8	-0.24914134
217	0xbe306d83	-0.17229275
218	0x3e010556	0.12599692
219	0xbd5ec723	-0.05438913
220	0xbcfb2461	-0.030656995
221	0x3c4cac5c	0.012492266
222	0xbd4a4b55	-0.04938825
223	0x3debe3f5	0.11518089
224	0x3d8309c2	0.063983455
225	0xbdbc8d62	-0.09206654
226	0xbe6f6a78	-0.23380458
227	0xbe24a16d	-0.16077204
228	0xbdfb7051	-0.12277282
229	0x3d63200c	0.055450484
230	0x3db58ef8	0.0886516
231	0x3e1e637b	0.15467636
232	0xbe82db15	-0.2555777
233	0x3e850e04	0.25987256
234	0x3da99503	0.08280375
235	0x3e80cdb1	0.2515693
236	0xbead4737	-0.33843395
237	0xbcdd8d55	-0.027044931
238	0xbe411e01	-0.18859102
239	0xbd9166c4	-0.07099679
240	0xbd9f582f	-0.077804916
241	0x3ec79a29	0.38984802
242	0xbdd69ec3	-0.104795
243	0x3dbbfc0c	0.091789335
244	0xbd1535a7	-0.03642812
245	0x3dae61a7	0.085147195
246	0x3e2f04de	0.170917
247	0xbd0365c7	-0.032079484
248	0x3e7ca63b	0.24672787
249	0xbbc03f53	-0.005866924
250	0xbcb25289	-0.021767871
251	0xbe854c5d	-0.26034823
252	0x3e1db6c9	0.15401758
253	0xbecd5af7	-0.40108463
254	0xbd78a5a1	-0.06070483
255	0x3e70d9e6	0.23520622

mixer_0.0.mlp3.0.bias f4 [48]
0	0xbe05499b	-0.1301636
1	0x3d07b68b	0.03313307
2	0x3e996797	0.29961845
3	0xbe9c3a20	-0.30513096
4	0x3dc8804f	0.09790098
5	0xbe2113dd	-0.15730233
6	0x3def7734	0.11692658
7	0xbe160ffd	-0.14654537
8	0x3eab6efa	0.33483106
9	0xbea2339e	-0.31680006
10	0x3e88d83b	0.2672747
11	0x3e1d716c	0.15375298
12	0xbe722c20	-0.23649645
13	0x3b94bbce	0.0045389896
14	0x3c8444e0	0.016146123
15	0xbe46bf3d	-0.19408889
16	0x3e42fef3	0.19042568
17	0x3dc4723c	0.09592101
18	0xbe06b5a0	-0.13155222
19	0xbe0eaa3d	-0.13932128
20	0xbd842f94	-0.06454387
21	0x3eabe5af	0.33573672
22	0x3e2da644	0.16957957
23	0xbe436548	-0.19081604
24	0xbe352540	-0.17689991
25	0x3eb1bab8	0.34712768
26	0xbcf22bf1	-0.029561969
27	0xbe93babc	-0.28853405
28	0xbd1be2cb	-0.038058084
29	0x3d938f38	0.07205051
30	0xbd282861	-0.041054133
31	0x3de4b721	0.111677416
32	0xbe4b99cd	-0.19882889
33	0x3c8b32bc	0.016991965
34	0xbe6fdb9d	-0.2342362
35	0xbe9fa870	-0.31183195
36	0x3e670292	0.22559574
37	0xbd06b35c	-0.032885894
38	0xbde7f0f2	-0.113252535
39	0xbe3fcc90	-0.18730378
40	0x3e98d064	0.2984649
41	0x3ea990fc	0.33118427
42	0x3e66abb3	0.22526436
43	0xbd5dc4ee	-0.054142885
44	0x3e83b4cf	0.25723884
45	0x3d6b4a05	0.057443637
46	0x3dccd7f5	0.10002128
47	0x3e0bd56a	0.1365563
