Interpretability analysis/q/MLP_min_weights.pth (torch, 39767 bytes, 165 tensors)

model.mlp1.0.weight f4 [48, 12]
0	0x3e068f51	0.13140608
1	0xbc5c1b6d	-0.013434273
2	0xbe29400a	-0.16528335
3	0x3d3be5b5	0.045873363
4	0xbd9d4f53	-0.076811455
5	0x3da9d2b5	0.08292142
6	0x3e88395b	0.2660626
7	0x3dd8e472	0.105904475
8	0x3f035ccd	0.5131348
9	0x3d6d1686	0.05788281
10	0x3da63b84	0.081168205
11	0x3eae70d9	0.3407047
12	0x3d99b1d7	0.075046234
13	0xbaa95c4a	-0.0012921181
14	0xbde3836e	-0.111090526
15	0xbe16a896	-0.14712748
16	0x3ac9b00d	0.001538755
17	0x3da2ac70	0.07943046
18	0xbd7258d6	-0.05916675
19	0xbd32c8ed	-0.04364865
20	0x3e7a5141	0.24445058
21	0xbc8a1450	-0.016855389
22	0xbe4841e1	-0.19556381
23	0x3e51f45f	0.20503376
24	0x3d5ae81e	0.05344402
25	0x3e46ae03	0.19402318
26	0xbdbf765d	-0.09348748
27	0xbdbcba96	-0.09215276
28	0x3c94b8c5	0.018154511
29	0xbd8d0bde	-0.06887029
30	0xbd0a8ef0	-0.033827722
31	0xbd523933	-0.05132408
32	0xbe3058dd	-0.17221399
33	0x3b60f42b	0.0034325223
34	0x3e38c017	0.18042026
35	0xbe435e3d	-0.19078918
36	0xbbad2702	-0.005284191
37	0xbe2e8f6f	-0.17046903
38	0x3de95893	0.11393847
39	0xbdfab2a2	-0.12241103
40	0xbc01866c	-0.007905584
41	0xbd8893a9	-0.06668789
42	0x3e4c24fc	0.19935983
43	0x3e01cb59	0.12675227
44	0xbe37fed2	-0.179683
45	0x3e3b58e6	0.18295631
46	0xbe9b6200	-0.30348206
47	0xbddc9132	-0.10769881
48	0x3d314a36	0.043283664
49	0xbcc91cca	-0.02454986
50	0x3daa4630	0.083141685
51	0x3e0b277c	0.13589281
52	0xbc99672a	-0.01872595
53	0xbdfc7531	-0.1232704
54	0xbe64e2f8	-0.22352207
55	0x3b3affdb	0.002853385
56	0x3ea0f349	0.31435612
57	0x3c382dd3	0.011241394
58	0x3d829488	0.06375986
59	0x3e1d2065	0.15344389
60	0x3cff5731	0.031169506
61	0x3e1b3f14	0.15160781
62	0xbe0e0034	-0.13867265
63	0x3e43c58e	0.1911833
64	0xbe0afdc7	-0.13573371
65	0x3d7c8937	0.061654296
66	0xbe45c251	-0.19312407
67	0xbe2d8b0d	-0.16947575
68	0x3e7a6795	0.24453576
69	0x3d478073	0.048706483
70	0x3d9d0518	0.07666987
71	0x3e220a0b	0.15824144
72	0xbc4b8297	-0.012421272
73	0xbd06def3	-0.032927465
74	0xbe7d67f0	-0.2474668
75	0xbc103feb	-0.008804302
76	0x3df8e733	0.12153473
77	0x3e51762f	0.2045524
78	0xbeb2a8fa	-0.34894544
79	0xbe43f8dd	-0.19137903
80	0x3e92af6d	0.28649464
81	0x3cc8fb50	0.024533898
82	0x3cf7f667	0.030268861
83	0x3e6a7155	0.22894795
84	0x3b622372	0.003450599
85	0xbc141f5c	-0.00904068
86	0x3daf05e5	0.08546046
87	0xbdac9548	-0.08426911
88	0x3de92e45	0.11385778
89	0xbc1168ff	-0.008875131
90	0x3e150f7e	0.14556691
91	0x3d9323fa	0.07184596
92	0xbdd6e427	-0.10492735
93	0x3d7273c5	0.059192438
94	0x3e708a6b	0.23490302
95	0x3d92f794	0.07176128
96	0xbe22c4c4	-0.15895373
97	0x3cdca14d	0.026932383
98	0xbe070081	-0.13183786
99	0x3dcc29a1	0.099688776
100	0xbe31066e	-0.17287609
101	0xbe393ec2	-0.18090346
102	0x3e904baf	0.28182742
103	0xbe462d10	-0.19353127
104	0xbe03458b	-0.12819497
105	0xbddbd5c5	-0.10734133
106	0xbde78a64	-0.11305693
107	0xbddacc89	-0.10683543
108	0xba202fe0	-0.00061106496
109	0xbb416940	-0.0029512197
110	0xbbb5c421	-0.005547062
111	0x3dde1bf1	0.10845173
112	0x3cfa98fd	0.030590529
113	0x3d22fd31	0.039792243
114	0x3e02cc39	0.12773217
115	0x3d94c730	0.072645545
116	0xbd229729	-0.03969494
117	0x3dbee6ca	0.09321363
118	0xbe5fe911	-0.21866252
119	0xbe677723	-0.22604041
120	0xbe1a468c	-0.15065974
121	0x3cf1f0dc	0.029533796
122	0xbc49a021	-0.012306244
123	0xbd9243af	-0.07141816
124	0xbcadb6b1	-0.021205278
125	0x3c3e512c	0.011616033
126	0xbebee15e	-0.37281317
127	0x3d843cf6	0.0645694
128	0x3e5778bc	0.2104215
129	0xbdf019e9	-0.11723692
130	0x3de209bc	0.11037013
131	0xbdc2ad8c	-0.09505758
132	0xbe2cf4e9	-0.16890301
133	0xbe155759	-0.14584102
134	0xbe32661e	-0.17421767
135	0x3e4ee15f	0.2020316
136	0xbe1173f6	-0.14204392
137	0xbe360c93	-0.17778234
138	0x3dcfd92d	0.10148845
139	0xbe3247fd	-0.17410274
140	0xbeabe108	-0.33570123
141	0x3e2c2ea8	0.16814673
142	0xbe866d46	-0.26255244
143	0x3e2583a9	0.16163506
144	0xbddc4d7b	-0.10756966
145	0xbd0e7e0e	-0.034788184
146	0x3d80083a	0.06251569
147	0x3e890bc8	0.267668
148	0xbe1c18d4	-0.15243846
149	0x3e0d338d	0.13789196
150	0xbde94205	-0.11389545
151	0x3cc3f65e	0.023921188
152	0xbc0108da	-0.0078756455
153	0x3e0e964d	0.13924523
154	0x3e4cf46e	0.20015118
155	0x3d7bd7a6	0.061484955
156	0x3e646e86	0.22307786
157	0x3e438d93	0.19096975
158	0x3dd256a4	0.10270432
159	0xbccf94be	-0.02533948
160	0xbe2e47c2	-0.17019561
161	0xbdb786d3	-0.089612626
162	0xbe964680	-0.29350662
163	0xbe2cc78d	-0.16872998
164	0x3e1f602a	0.15564027
165	0xbdede195	-0.11615292
166	0x3dc62629	0.09675247
167	0xbe2d1475	-0.16902335
168	0xbc4b7c13	-0.012419718
169	0xbe2fdbaf	-0.17173646
170	0xbe3f6ce4	-0.18693882
171	0x3cc2d196	0.023781579
172	0xbca9dd3a	-0.020735372
173	0xbe170145	-0.14746578
174	0x3d5cd02e	0.053909473
175	0x3ca44b9d	0.020055586
176	0xbe32091e	-0.1738629
177	0xbe1082af	-0.14112352
178	0xbdeff290	-0.11716187
179	0xbe8b7b3f	-0.27242467
180	0x3cbce5cd	0.023058796
181	0x3e5be805	0.21475227
182	0x3dbaf3b7	0.09128516
183	0xbd49f995	-0.049310286
184	0xbdd77075	-0.10519496
185	0x3e322b05	0.17399223
186	0x3d21c2be	0.03949236
187	0xbd62db52	-0.05538494
188	0x3e74d38a	0.23908821
189	0xbe09b23c	-0.13446897
190	0xbeb52160	-0.35377026
191	0x3e8a55b4	0.2701851
192	0xbdaa8611	-0.083263524
193	0xbe3684f1	-0.1782415
194	0xbd5dee98	-0.05418262
195	0x3d79fd47	0.06103256
196	0x3b9f1eaa	0.0048559504
197	0xbb85a73a	-0.004078773
198	0xbeace743	-0.3377019
199	0x3e0f0cc3	0.13969712
200	0xbb8824ad	-0.0041547627
201	0xbd891420	-0.06693292
202	0x3e758833	0.23977737
203	0xbe5dd4e7	-0.21663247
204	0x3b67d019	0.0035371839
205	0x3e383871	0.1799028
206	0x3e58e48e	0.21180937
207	0x3de718dd	0.11284039
208	0xbdaa3e08	-0.08312613
209	0xbdfb9343	-0.12283947
210	0xbe97b9d2	-0.29633957
211	0xbc030c24	-0.0079985
212	0x3e284576	0.16432747
213	0xbe22bee7	-0.15893136
214	0xbd5d6e98	-0.05406055
215	0xbde3061d	-0.110851504
216	0xbe63490b	-0.22195832
217	0x3dbd9ddc	0.09258625
218	0x3e30c565	0.172628
219	0x3d431fb5	0.04763766
220	0x3dd2c219	0.102909274
221	0x3e24ed35	0.16106112
222	0xbeee82f8	-0.46584296
223	0x3e603ada	0.2189745
224	0x3e1b38b8	0.15158355
225	0xbdc777f2	-0.09739675
226	0xbd413990	-0.047174037
227	0xbcdb621d	-0.026780182
228	0xbe9376d5	-0.288016
229	0xbdd39a9d	-0.103322245
230	0xbc93a383	-0.018022304
231	0x3de34627	0.11097365
232	0xbc8692b5	-0.016427377
233	0x3e5d1fb3	0.21594124
234	0xbde1c08e	-0.11023055
235	0xbd03ca89	-0.032175574
236	0xbe47c39e	-0.19508216
237	0x3d732cd8	0.05936894
238	0x3dc5564b	0.096356
239	0x3cd71ffb	0.026260367
240	0xbdb9c6c8	-0.09071118
241	0x3e383a83	0.1799107
242	0xbdf5ed8b	-0.12008198
243	0x3d81b4ac	0.063332886
244	0x3d872634	0.065990835
245	0x3e9d09c0	0.306715
246	0xbe52f8c7	-0.20602714
247	0x3c59f8c4	0.013303939
248	0xbc0a8863	-0.008455369
249	0x3bdf56a2	0.0068157474
250	0xbd80bc3e	-0.06285904
251	0x3be55e61	0.0069997762
252	0xbe75af5b	-0.23992674
253	0x3e153af8	0.14573276
254	0x3a2a9379	0.00065069605
255	0x3e4355e0	0.19075727

model.mlp1.0.bias f4 [48]
0	0x3e82205a	0.25415307
1	0xbe3d8d05	-0.18510826
2	0xbd129a05	-0.035791416
3	0x3da610e9	0.08108694
4	0xbce4330b	-0.02785637
5	0x3c04db15	0.008108874
6	0xbe43694c	-0.19083136
7	0xbdd2169d	-0.102582194
8	0xbdc1a9bd	-0.09456203
9	0x3cc1475d	0.023593599
10	0xbdaccd7f	-0.08437633
11	0x3d389c5b	0.045070987
12	0x3ce0103d	0.027351493
13	0xbd8cebbe	-0.06880902
14	0xbc5e88af	-0.013582393
15	0xbcb13f09	-0.021636503
16	0x3dc30de8	0.09524137
17	0xbdc0b017	-0.094085865
18	0x3dd70425	0.104988374
19	0xbe32d982	-0.17465785
20	0x3cd4e3f7	0.025987608
21	0xbd662483	-0.056187164
22	0xbdc173d8	-0.094459236
23	0xbd64fd73	-0.05590577
24	0xbd48fbaf	-0.04906815
25	0xbd806a72	-0.06270303
26	0xbe1d833d	-0.15382095
27	0xbddd8f67	-0.108183675
28	0xbe57e2b2	-0.21082571
29	0xbd70fab8	-0.058832854
30	0x3dae393b	0.085070096
31	0x3e673fd5	0.22582944
32	0x3d39635e	0.04526078
33	0xbca91f8c	-0.020644926
34	0xbd505b1b	-0.050868135
35	0xbc9c9cab	-0.019117674
36	0x3db3538d	0.087561704
37	0xbdcd6161	-0.10028339
38	0x3d401536	0.04689523
39	0x3d2a380f	0.041557368
40	0x3df3afde	0.118987784
41	0x3e4348fd	0.19070812
42	0x3d6d0d0c	0.05787377
43	0x3d5ab45f	0.05339467
44	0x3dcaed3e	0.099085316
45	0x3ce3486e	0.027744498
46	0xbe4a42eb	-0.1975209
47	0xbe1224d4	-0.14271861

model.mlp2.0.weight f4 [48, 48]
0	0xbd05c53c	-0.0326588
1	0xbb694af1	-0.0035597647
2	0x3daba004	0.0838013
3	0x3dc83deb	0.09777435
4	0x3d9da073	0.07696619
5	0x3d099a19	0.033594225
6	0xbd80113a	-0.06253286
7	0x3e29f7fb	0.16598503
8	0x3be59488	0.0070062317
9	0x3d9d2f99	0.07675094
10	0xbd5cd306	-0.053912185
11	0x3db96796	0.090529606
12	0x3d834b41	0.06410838
13	0xbd72073b	-0.059088927
14	0xbd1d367f	-0.03838205
15	0xbd40cd75	-0.04707094
16	0xbd92f935	-0.07176439
17	0x3da21629	0.07914383
18	0xbc53d291	-0.012928621
19	0xbdb7ed42	-0.089808
20	0x3d73207e	0.05935716
21	0x3c940241	0.018067481
22	0x3c6bb017	0.014385245
23	0x3cbea6b6	0.023272853
24	0x3d0b3372	0.03398461
25	0xbd4d3628	-0.050100476
26	0x3d8e1e9c	0.06939432
27	0xbd824b09	-0.06361968
28	0x3c62ae15	0.01383545
29	0xbdce0b9f	-0.1006081
30	0xbd0b0c96	-0.03394755
31	0xbd008109	-0.031373058
32	0x3d8395b8	0.06425041
33	0x3da11997	0.07866209
34	0x3d335664	0.04378356
35	0xbdda73c7	-0.10666614
36	0xbc1da862	-0.009622665
37	0xbe4909e1	-0.19632675
38	0x3dde9ac5	0.10869364
39	0x3d08893d	0.033334006
40	0x3a46e20a	0.0007586783
41	0x3d8cca1f	0.06874489
42	0x3d55e101	0.052216534
43	0xbda55082	-0.08071996
44	0x3d52ab0c	0.051432654
45	0xbdb2d8bb	-0.08732744
46	0xbc522dcf	-0.012828304
47	0xbe0346ca	-0.12819973
48	0xbcd65586	-0.026163828
49	0x3dc243ef	0.094856136
50	0x3c14e297	0.009087226
51	0xbc8c6df3	-0.017142272
52	0x3decd506	0.115640685
53	0x3d1e9103	0.038712513
54	0x3dc7e680	0.09760761
55	0xbdc1df3c	-0.09466407
56	0x3dadcf51	0.08486808
57	0x3c20832d	0.0097969
58	0x3d4a34cf	0.04936677
59	0xbdab9386	-0.08377747
60	0x3ddc7964	0.10765341
61	0x3dabb5b0	0.083842635
62	0x3daf1289	0.08548457
63	0x3da25383	0.07926085
64	0x3d848b6e	0.064719066
65	0xbb94a2e5	-0.00453602
66	0x3d8d3a0d	0.06895838
67	0x3df0c9db	0.11757251
68	0x3dcb7595	0.09934536
69	0x3e0e1274	0.13874227
70	0xbd64721c	-0.055772886
71	0xbcfbed01	-0.03075266
72	0x3dacd00b	0.084381185
73	0xbd897a32	-0.0671276
74	0xbc649e12	-0.0139537025
75	0x3e25c0f6	0.1618689
76	0xbd5b5763	-0.053550135
77	0x3df20efd	0.11819265
78	0x3d28a461	0.04117239
79	0xbd971680	-0.073773384
80	0x3cd55692	0.026042257
81	0x3cdf2451	0.027238997
82	0x3c71d7c0	0.014760911
83	0x3dc0feee	0.09423624
84	0x3d0f520e	0.034990363
85	0x3d06767a	0.03282783
86	0xbc853bc2	-0.016263846
87	0x3db81b0d	0.089895345
88	0xbc1750e1	-0.009235592
89	0x3c39c126	0.011337554
90	0x3c161444	0.009160105
91	0x3d911605	0.07084278
92	0x3d508652	0.050909348
93	0x3da30c0c	0.07961282
94	0x3e129f7f	0.14318655
95	0x3da16f3f	0.07882547
96	0xbd77469b	-0.06037007
97	0x3d1db189	0.03849939
98	0xbe09eb94	-0.13468772
99	0xbdd3a04d	-0.10333309
100	0x3e06604d	0.13122673
101	0x3da53d04	0.080682784
102	0xbde056a5	-0.10954026
103	0xbe7c130c	-0.24616641
104	0x3d9be93b	0.076128446
105	0xbd040574	-0.032231763
106	0x3da595cb	0.08085211
107	0xbd551b0c	-0.052027747
108	0x3d36c9ab	0.04462592
109	0x3cd4c719	0.025973843
110	0xbd8ac05c	-0.06774971
111	0xbd6f5251	-0.058428112
112	0xbd4441dc	-0.04791437
113	0xbdb8447b	-0.089974366
114	0xb88cced9	-6.7142486e-05
115	0xbcfbd43c	-0.03074085
116	0x3d0cbbb1	0.034358684
117	0x3b0dcff2	0.0021638838
118	0xba85e933	-0.0010216594
119	0xbd2f5094	-0.042801455
120	0x3c232da2	0.00995961
121	0xbc527680	-0.012845635
122	0xbcc60754	-0.024173416
123	0x3e00c87f	0.12576483
124	0xbd217a4d	-0.039423276
125	0xbc8d3e49	-0.017241614
126	0x3cc92e62	0.02455825
127	0xbe167d89	-0.14696325
128	0x3d9bebfc	0.0761337
129	0xbe01c6be	-0.1267347
130	0xbdee9a80	-0.11650562
131	0xbdee8734	-0.11646882
132	0xbd94908a	-0.07254131
133	0xbe1cd39c	-0.15315098
134	0xbceb08ee	-0.028690781
135	0x3c904578	0.01761125
136	0xbda0ecd0	-0.078576684
137	0x3dab357b	0.0835981
138	0xbd3f663b	-0.046728354
139	0x3b9511a4	0.004549222
140	0xbda06c60	-0.07833171
141	0x3dcbf069	0.09957964
142	0x3d62abce	0.055339627
143	0x3cc09248	0.023507252
144	0xbca7d4e6	-0.02048726
145	0x3d7f06a6	0.0622622
146	0xba6ba9d7	-0.00089898467
147	0xbcf509b4	-0.029911853
148	0x3b84d088	0.004053179
149	0x3d13a6c8	0.036047727
150	0xbcb4f407	-0.022089018
151	0xbcb6cfdf	-0.022315918
152	0x3c426a5d	0.011866179
153	0xbcac5853	-0.02103821
154	0x3ce4e849	0.027942793
155	0xbcccd834	-0.025005437
156	0xbd5b8009	-0.0535889
157	0x3d99626b	0.07489475
158	0xbc164854	-0.009172518
159	0x3d2f88e2	0.04285515
160	0x3d1a0a16	0.037607275
161	0x3d0e890c	0.034798667
162	0xbc142b63	-0.009043547
163	0xbcd39e0f	-0.025832204
164	0x3d110bd7	0.035411682
165	0xbdbed21e	-0.093174204
166	0x3c7f28f4	0.015573729
167	0xbc5f53b5	-0.013630797
168	0x3dc52151	0.09625495
169	0x3bccd914	0.0062514637
170	0x3c5ae3d5	0.013359983
171	0x3c6d7406	0.014492994
172	0x3d778e72	0.06043858
173	0x3c3de20c	0.011589538
174	0x3cfca050	0.030838162
175	0x3ca9f283	0.020745521
176	0x3ca116de	0.019664224
177	0xbcbae47a	-0.022814024
178	0xbc79c22a	-0.015244046
179	0x3d5de016	0.054168783
180	0x3d98644d	0.07441006
181	0x3d467a4a	0.048456468
182	0x3bc2462c	0.0059287753
183	0xbc5c8963	-0.01346049
184	0xbbfed0fa	-0.007776377
185	0x3dac01f6	0.083988115
186	0x3c51947f	0.012791752
187	0xbc1b6436	-0.009484341
188	0x3c1dab48	0.009623356
189	0x3d7f7a7a	0.062372662
190	0xbcd6d80f	-0.026226072
191	0xbbecea5d	-0.0072300867
192	0xbe03c84c	-0.12869376
193	0x3d7d6523	0.06186403
194	0x3cac582a	0.021038134
195	0xbe55a78e	-0.20864698
196	0xbb1521e3	-0.0022755794
197	0x3d516a23	0.05112661
198	0x3c04a023	0.00809482
199	0xbe22192b	-0.15829913
200	0xbd9e2ebb	-0.07723757
201	0xbd1b7083	-0.037949096
202	0x3dedd950	0.11613715
203	0x3c50d056	0.012744984
204	0x3c7012d8	0.01465293
205	0x3b10b722	0.0022081812
206	0x3a0fd257	0.000548636
207	0xbde7d0c2	-0.11319114
208	0x3e0386ae	0.12844345
209	0x3d4dc184	0.05023338
210	0x3dc08372	0.09400071
211	0x3e2d61fc	0.1693191
212	0x3d750095	0.05981501
213	0xbc5c02ee	-0.013428433
214	0xbdf20e6c	-0.11819157
215	0x3d3bf03a	0.045883395
216	0x3dd923b9	0.10602517
217	0xbde318af	-0.110886924
218	0xbd8d0905	-0.06886486
219	0x3d541089	0.05177358
220	0xbdd9cbbb	-0.10634562
221	0x3e48f019	0.1962284
222	0xbde3f1e1	-0.11130119
223	0x3be4869b	0.006974054
224	0x3e0245a4	0.12721878
225	0xbe8c0f18	-0.27355266
226	0x3dcc14d4	0.0996491
227	0xbae99937	-0.0017822151
228	0x3dd6e430	0.10492742
229	0x3d06036a	0.0327181
230	0xbe0d5ed6	-0.13805708
231	0x3df7fd76	0.12108891
232	0x3dfb76c0	0.12278509
233	0xbc3fa49f	-0.011696964
234	0x3ceb4496	0.028719228
235	0x3d8c8612	0.068615094
236	0x3d06b90f	0.03289133
237	0x3bfd837a	0.0077366205
238	0x3dac3910	0.08409321
239	0x3e88e983	0.26740655
240	0xb96c964e	-0.00022562707
241	0x3d2c1f36	0.042021953
242	0xbc9a2ddc	-0.018820696
243	0xbe03cdc2	-0.12871459
244	0x3db39000	0.087677
245	0x3d240250	0.040041268
246	0x3d95ad78	0.07308477
247	0xbde47106	-0.1115437
248	0xbd343bfd	-0.04400252
249	0x3a356c14	0.0006920707
250	0x3af7d990	0.0018909443
251	0x3c378957	0.011202178
252	0xbd663c63	-0.056209933
253	0x3c84e57e	0.016222712
254	0xbd8f4bc1	-0.06996871
255	0x3d5d51ae	0.054032974

model.mlp2.0.bias f4 [48]
0	0x3dcbf12a	0.09958108
1	0x3e5cda8b	0.21567743
2	0x3dc08dec	0.094020694
3	0xbe1f0e68	-0.1553284
4	0x3d4e5f0f	0.050383624
5	0xbd2a5e71	-0.041593973
6	0x3e562cb1	0.20915486
7	0x3dbaa291	0.09113038
8	0x3da2ee25	0.07955579
9	0x3de5fc69	0.11229784
10	0xbd83c105	-0.064333
11	0x3b42cdc9	0.0029724708
12	0x3e04e774	0.12978917
13	0xbd61c5e1	-0.055120353
14	0x3e4b463e	0.19851014
15	0x3e37f757	0.17965446
16	0x3e1e0881	0.15432931
17	0xbd42b957	-0.047540035
18	0xbd5149cd	-0.051095773
19	0x3dbb2dd3	0.091396
20	0xbcbfd1a8	-0.023415402
21	0x3def9215	0.11697785
22	0xbd65024d	-0.055910397
23	0x3e1b2b46	0.15153226
24	0xbcf16a32	-0.029469583
25	0x3d9c5165	0.07632712
26	0x3ca5ee1b	0.02025514
27	0xbdadbeef	-0.08483683
28	0x3cf8e2be	0.030381557
29	0x3d8329b9	0.06404442
30	0x3df3535e	0.118811354
31	0x3d50f799	0.051017378
32	0x3d7eea99	0.06223545
33	0x3e070002	0.13183597
34	0xbdb3b380	-0.08774471
35	0x3d8ffa75	0.07030193
36	0xbca8378a	-0.020534296
37	0x3df778cf	0.12083589
38	0xbda01bfa	-0.07817836
39	0x3cdbed13	0.026846444
40	0x3e2c4bbb	0.16825764
41	0x3d00a43d	0.03140663
42	0xbdb70387	-0.0893622
43	0xbcede859	-0.029041456
44	0x3d5715da	0.052511074
45	0x3e55a1fe	0.20862576
46	0xbc6330cd	-0.0138666155
47	0xbb2180b3	-0.002464336

model.mlp3.0.weight f4 [48, 48]
0	0xbd05c53c	-0.0326588
1	0xbb694af1	-0.0035597647
2	0x3daba004	0.0838013
3	0x3dc83deb	0.09777435
4	0x3d9da073	0.07696619
5	0x3d099a19	0.033594225
6	0xbd80113a	-0.06253286
7	0x3e29f7fb	0.16598503
8	0x3be59488	0.0070062317
9	0x3d9d2f99	0.07675094
10	0xbd5cd306	-0.053912185
11	0x3db96796	0.090529606
12	0x3d834b41	0.06410838
13	0xbd72073b	-0.059088927
14	0xbd1d367f	-0.03838205
15	0xbd40cd75	-0.04707094
16	0xbd92f935	-0.07176439
17	0x3da21629	0.07914383
18	0xbc53d291	-0.012928621
19	0xbdb7ed42	-0.089808
20	0x3d73207e	0.05935716
21	0x3c940241	0.018067481
22	0x3c6bb017	0.014385245
23	0x3cbea6b6	0.023272853
24	0x3d0b3372	0.03398461
25	0xbd4d3628	-0.050100476
26	0x3d8e1e9c	0.06939432
27	0xbd824b09	-0.06361968
28	0x3c62ae15	0.01383545
29	0xbdce0b9f	-0.1006081
30	0xbd0b0c96	-0.03394755
31	0xbd008109	-0.031373058
32	0x3d8395b8	0.06425041
33	0x3da11997	0.07866209
34	0x3d335664	0.04378356
35	0xbdda73c7	-0.10666614
36	0xbc1da862	-0.009622665
37	0xbe4909e1	-0.19632675
38	0x3dde9ac5	0.10869364
39	0x3d08893d	0.033334006
40	0x3a46e20a	0.0007586783
41	0x3d8cca1f	0.06874489
42	0x3d55e101	0.052216534
43	0xbda55082	-0.08071996
44	0x3d52ab0c	0.051432654
45	0xbdb2d8bb	-0.08732744
46	0xbc522dcf	-0.012828304
47	0xbe0346ca	-0.12819973
48	0xbcd65586	-0.026163828
49	0x3dc243ef	0.094856136
50	0x3c14e297	0.009087226
51	0xbc8c6df3	-0.017142272
52	0x3decd506	0.115640685
53	0x3d1e9103	0.038712513
54	0x3dc7e680	0.09760761
55	0xbdc1df3c	-0.09466407
56	0x3dadcf51	0.08486808
57	0x3c20832d	0.0097969
58	0x3d4a34cf	0.04936677
59	0xbdab9386	-0.08377747
60	0x3ddc7964	0.10765341
61	0x3dabb5b0	0.083842635
62	0x3daf1289	0.08548457
63	0x3da25383	0.07926085
64	0x3d848b6e	0.064719066
65	0xbb94a2e5	-0.00453602
66	0x3d8d3a0d	0.06895838
67	0x3df0c9db	0.11757251
68	0x3dcb7595	0.09934536
69	0x3e0e1274	0.13874227
70	0xbd64721c	-0.055772886
71	0xbcfbed01	-0.03075266
72	0x3dacd00b	0.084381185
73	0xbd897a32	-0.0671276
74	0xbc649e12	-0.0139537025
75	0x3e25c0f6	0.1618689
76	0xbd5b5763	-0.053550135
77	0x3df20efd	0.11819265
78	0x3d28a461	0.04117239
79	0xbd971680	-0.073773384
80	0x3cd55692	0.026042257
81	0x3cdf2451	0.027238997
82	0x3c71d7c0	0.014760911
83	0x3dc0feee	0.09423624
84	0x3d0f520e	0.034990363
85	0x3d06767a	0.03282783
86	0xbc853bc2	-0.016263846
87	0x3db81b0d	0.089895345
88	0xbc1750e1	-0.009235592
89	0x3c39c126	0.011337554
90	0x3c161444	0.009160105
91	0x3d911605	0.07084278
92	0x3d508652	0.050909348
93	0x3da30c0c	0.07961282
94	0x3e129f7f	0.14318655
95	0x3da16f3f	0.07882547
96	0xbd77469b	-0.06037007
97	0x3d1db189	0.03849939
98	0xbe09eb94	-0.13468772
99	0xbdd3a04d	-0.10333309
100	0x3e06604d	0.13122673
101	0x3da53d04	0.080682784
102	0xbde056a5	-0.10954026
103	0xbe7c130c	-0.24616641
104	0x3d9be93b	0.076128446
105	0xbd040574	-0.032231763
106	0x3da595cb	0.08085211
107	0xbd551b0c	-0.052027747
108	0x3d36c9ab	0.04462592
109	0x3cd4c719	0.025973843
110	0xbd8ac05c	-0.06774971
111	0xbd6f5251	-0.058428112
112	0xbd4441dc	-0.04791437
113	0xbdb8447b	-0.089974366
114	0xb88cced9	-6.7142486e-05
115	0xbcfbd43c	-0.03074085
116	0x3d0cbbb1	0.034358684
117	0x3b0dcff2	0.0021638838
118	0xba85e933	-0.0010216594
119	0xbd2f5094	-0.042801455
120	0x3c232da2	0.00995961
121	0xbc527680	-0.012845635
122	0xbcc60754	-0.024173416
123	0x3e00c87f	0.12576483
124	0xbd217a4d	-0.039423276
125	0xbc8d3e49	-0.017241614
126	0x3cc92e62	0.02455825
127	0xbe167d89	-0.14696325
128	0x3d9bebfc	0.0761337
129	0xbe01c6be	-0.1267347
130	0xbdee9a80	-0.11650562
131	0xbdee8734	-0.11646882
132	0xbd94908a	-0.07254131
133	0xbe1cd39c	-0.15315098
134	0xbceb08ee	-0.028690781
135	0x3c904578	0.01761125
136	0xbda0ecd0	-0.078576684
137	0x3dab357b	0.0835981
138	0xbd3f663b	-0.046728354
139	0x3b9511a4	0.004549222
140	0xbda06c60	-0.07833171
141	0x3dcbf069	0.09957964
142	0x3d62abce	0.055339627
143	0x3cc09248	0.023507252
144	0xbca7d4e6	-0.02048726
145	0x3d7f06a6	0.0622622
146	0xba6ba9d7	-0.00089898467
147	0xbcf509b4	-0.029911853
148	0x3b84d088	0.004053179
149	0x3d13a6c8	0.036047727
150	0xbcb4f407	-0.022089018
151	0xbcb6cfdf	-0.022315918
152	0x3c426a5d	0.011866179
153	0xbcac5853	-0.02103821
154	0x3ce4e849	0.027942793
155	0xbcccd834	-0.025005437
156	0xbd5b8009	-0.0535889
157	0x3d99626b	0.07489475
158	0xbc164854	-0.009172518
159	0x3d2f88e2	0.04285515
160	0x3d1a0a16	0.037607275
161	0x3d0e890c	0.034798667
162	0xbc142b63	-0.009043547
163	0xbcd39e0f	-0.025832204
164	0x3d110bd7	0.035411682
165	0xbdbed21e	-0.093174204
166	0x3c7f28f4	0.015573729
167	0xbc5f53b5	-0.013630797
168	0x3dc52151	0.09625495
169	0x3bccd914	0.0062514637
170	0x3c5ae3d5	0.013359983
171	0x3c6d7406	0.014492994
172	0x3d778e72	0.06043858
173	0x3c3de20c	0.011589538
174	0x3cfca050	0.030838162
175	0x3ca9f283	0.020745521
176	0x3ca116de	0.019664224
177	0xbcbae47a	-0.022814024
178	0xbc79c22a	-0.015244046
179	0x3d5de016	0.054168783
180	0x3d98644d	0.07441006
181	0x3d467a4a	0.048456468
182	0x3bc2462c	0.0059287753
183	0xbc5c8963	-0.01346049
184	0xbbfed0fa	-0.007776377
185	0x3dac01f6	0.083988115
186	0x3c51947f	0.012791752
187	0xbc1b6436	-0.009484341
188	0x3c1dab48	0.009623356
189	0x3d7f7a7a	0.062372662
190	0xbcd6d80f	-0.026226072
191	0xbbecea5d	-0.0072300867
192	0xbe03c84c	-0.12869376
193	0x3d7d6523	0.06186403
194	0x3cac582a	0.021038134
195	0xbe55a78e	-0.20864698
196	0xbb1521e3	-0.0022755794
197	0x3d516a23	0.05112661
198	0x3c04a023	0.00809482
199	0xbe22192b	-0.15829913
200	0xbd9e2ebb	-0.07723757
201	0xbd1b7083	-0.037949096
202	0x3dedd950	0.11613715
203	0x3c50d056	0.012744984
204	0x3c7012d8	0.01465293
205	0x3b10b722	0.0022081812
206	0x3a0fd257	0.000548636
207	0xbde7d0c2	-0.11319114
208	0x3e0386ae	0.12844345
209	0x3d4dc184	0.05023338
210	0x3dc08372	0.09400071
211	0x3e2d61fc	0.1693191
212	0x3d750095	0.05981501
213	0xbc5c02ee	-0.013428433
214	0xbdf20e6c	-0.11819157
215	0x3d3bf03a	0.045883395
216	0x3dd923b9	0.10602517
217	0xbde318af	-0.110886924
218	0xbd8d0905	-0.06886486
219	0x3d541089	0.05177358
220	0xbdd9cbbb	-0.10634562
221	0x3e48f019	0.1962284
222	0xbde3f1e1	-0.11130119
223	0x3be4869b	0.006974054
224	0x3e0245a4	0.12721878
225	0xbe8c0f18	-0.27355266
226	0x3dcc14d4	0.0996491
227	0xbae99937	-0.0017822151
228	0x3dd6e430	0.10492742
229	0x3d06036a	0.0327181
230	0xbe0d5ed6	-0.13805708
231	0x3df7fd76	0.12108891
232	0x3dfb76c0	0.12278509
233	0xbc3fa49f	-0.011696964
234	0x3ceb4496	0.028719228
235	0x3d8c8612	0.068615094
236	0x3d06b90f	0.03289133
237	0x3bfd837a	0.0077366205
238	0x3dac3910	0.08409321
239	0x3e88e983	0.26740655
240	0xb96c964e	-0.00022562707
241	0x3d2c1f36	0.042021953
242	0xbc9a2ddc	-0.018820696
243	0xbe03cdc2	-0.12871459
244	0x3db39000	0.087677
245	0x3d240250	0.040041268
246	0x3d95ad78	0.07308477
247	0xbde47106	-0.1115437
248	0xbd343bfd	-0.04400252
249	0x3a356c14	0.0006920707
250	0x3af7d990	0.0018909443
251	0x3c378957	0.011202178
252	0xbd663c63	-0.056209933
253	0x3c84e57e	0.016222712
254	0xbd8f4bc1	-0.06996871
255	0x3d5d51ae	0.054032974

model.mlp3.0.bias f4 [48]
0	0x3dcbf12a	0.09958108
1	0x3e5cda8b	0.21567743
2	0x3dc08dec	0.094020694
3	0xbe1f0e68	-0.1553284
4	0x3d4e5f0f	0.050383624
5	0xbd2a5e71	-0.041593973
6	0x3e562cb1	0.20915486
7	0x3dbaa291	0.09113038
8	0x3da2ee25	0.07955579
9	0x3de5fc69	0.11229784
10	0xbd83c105	-0.064333
11	0x3b42cdc9	0.0029724708
12	0x3e04e774	0.12978917
13	0xbd61c5e1	-0.055120353
14	0x3e4b463e	0.19851014
15	0x3e37f757	0.17965446
16	0x3e1e0881	0.15432931
17	0xbd42b957	-0.047540035
18	0xbd5149cd	-0.051095773
19	0x3dbb2dd3	0.091396
20	0xbcbfd1a8	-0.023415402
21	0x3def9215	0.11697785
22	0xbd65024d	-0.055910397
23	0x3e1b2b46	0.15153226
24	0xbcf16a32	-0.029469583
25	0x3d9c5165	0.07632712
26	0x3ca5ee1b	0.02025514
27	0xbdadbeef	-0.08483683
28	0x3cf8e2be	0.030381557
29	0x3d8329b9	0.06404442
30	0x3df3535e	0.118811354
31	0x3d50f799	0.051017378
32	0x3d7eea99	0.06223545
33	0x3e070002	0.13183597
34	0xbdb3b380	-0.08774471
35	0x3d8ffa75	0.07030193
36	0xbca8378a	-0.020534296
37	0x3df778cf	0.12083589
38	0xbda01bfa	-0.07817836
39	0x3cdbed13	0.026846444
40	0x3e2c4bbb	0.16825764
41	0x3d00a43d	0.03140663
42	0xbdb70387	-0.0893622
43	0xbcede859	-0.029041456
44	0x3d5715da	0.052511074
45	0x3e55a1fe	0.20862576
46	0xbc6330cd	-0.0138666155
47	0xbb2180b3	-0.002464336

model.mlp4.0.weight f4 [48, 48]
0	0xbd05c53c	-0.0326588
1	0xbb694af1	-0.0035597647
2	0x3daba004	0.0838013
3	0x3dc83deb	0.09777435
4	0x3d9da073	0.07696619
5	0x3d099a19	0.033594225
6	0xbd80113a	-0.06253286
7	0x3e29f7fb	0.16598503
8	0x3be59488	0.0070062317
9	0x3d9d2f99	0.07675094
10	0xbd5cd306	-0.053912185
11	0x3db96796	0.090529606
12	0x3d834b41	0.06410838
13	0xbd72073b	-0.059088927
14	0xbd1d367f	-0.03838205
15	0xbd40cd75	-0.04707094
16	0xbd92f935	-0.07176439
17	0x3da21629	0.07914383
18	0xbc53d291	-0.012928621
19	0xbdb7ed42	-0.089808
20	0x3d73207e	0.05935716
21	0x3c940241	0.018067481
22	0x3c6bb017	0.014385245
23	0x3cbea6b6	0.023272853
24	0x3d0b3372	0.03398461
25	0xbd4d3628	-0.050100476
26	0x3d8e1e9c	0.06939432
27	0xbd824b09	-0.06361968
28	0x3c62ae15	0.01383545
29	0xbdce0b9f	-0.1006081
30	0xbd0b0c96	-0.03394755
31	0xbd008109	-0.031373058
32	0x3d8395b8	0.06425041
33	0x3da11997	0.07866209
34	0x3d335664	0.04378356
35	0xbdda73c7	-0.10666614
36	0xbc1da862	-0.009622665
37	0xbe4909e1	-0.19632675
38	0x3dde9ac5	0.10869364
39	0x3d08893d	0.033334006
40	0x3a46e20a	0.0007586783
41	0x3d8cca1f	0.06874489
42	0x3d55e101	0.052216534
43	0xbda55082	-0.08071996
44	0x3d52ab0c	0.051432654
45	0xbdb2d8bb	-0.08732744
46	0xbc522dcf	-0.012828304
47	0xbe0346ca	-0.12819973
48	0xbcd65586	-0.026163828
49	0x3dc243ef	0.094856136
50	0x3c14e297	0.009087226
51	0xbc8c6df3	-0.017142272
52	0x3decd506	0.115640685
53	0x3d1e9103	0.038712513
54	0x3dc7e680	0.09760761
55	0xbdc1df3c	-0.09466407
56	0x3dadcf51	0.08486808
57	0x3c20832d	0.0097969
58	0x3d4a34cf	0.04936677
59	0xbdab9386	-0.08377747
60	0x3ddc7964	0.10765341
61	0x3dabb5b0	0.083842635
62	0x3daf1289	0.08548457
63	0x3da25383	0.07926085
64	0x3d848b6e	0.064719066
65	0xbb94a2e5	-0.00453602
66	0x3d8d3a0d	0.06895838
67	0x3df0c9db	0.11757251
68	0x3dcb7595	0.09934536
69	0x3e0e1274	0.13874227
70	0xbd64721c	-0.055772886
71	0xbcfbed01	-0.03075266
72	0x3dacd00b	0.084381185
73	0xbd897a32	-0.0671276
74	0xbc649e12	-0.0139537025
75	0x3e25c0f6	0.1618689
76	0xbd5b5763	-0.053550135
77	0x3df20efd	0.11819265
78	0x3d28a461	0.04117239
79	0xbd971680	-0.073773384
80	0x3cd55692	0.026042257
81	0x3cdf2451	0.027238997
82	0x3c71d7c0	0.014760911
83	0x3dc0feee	0.09423624
84	0x3d0f520e	0.034990363
85	0x3d06767a	0.03282783
86	0xbc853bc2	-0.016263846
87	0x3db81b0d	0.089895345
88	0xbc1750e1	-0.009235592
89	0x3c39c126	0.011337554
90	0x3c161444	0.009160105
91	0x3d911605	0.07084278
92	0x3d508652	0.050909348
93	0x3da30c0c	0.07961282
94	0x3e129f7f	0.14318655
95	0x3da16f3f	0.07882547
96	0xbd77469b	-0.06037007
97	0x3d1db189	0.03849939
98	0xbe09eb94	-0.13468772
99	0xbdd3a04d	-0.10333309
100	0x3e06604d	0.13122673
101	0x3da53d04	0.080682784
102	0xbde056a5	-0.10954026
103	0xbe7c130c	-0.24616641
104	0x3d9be93b	0.076128446
105	0xbd040574	-0.032231763
106	0x3da595cb	0.08085211
107	0xbd551b0c	-0.052027747
108	0x3d36c9ab	0.04462592
109	0x3cd4c719	0.025973843
110	0xbd8ac05c	-0.06774971
111	0xbd6f5251	-0.058428112
112	0xbd4441dc	-0.04791437
113	0xbdb8447b	-0.089974366
114	0xb88cced9	-6.7142486e-05
115	0xbcfbd43c	-0.03074085
116	0x3d0cbbb1	0.034358684
117	0x3b0dcff2	0.0021638838
118	0xba85e933	-0.0010216594
119	0xbd2f5094	-0.042801455
120	0x3c232da2	0.00995961
121	0xbc527680	-0.012845635
122	0xbcc60754	-0.024173416
123	0x3e00c87f	0.12576483
124	0xbd217a4d	-0.039423276
125	0xbc8d3e49	-0.017241614
126	0x3cc92e62	0.02455825
127	0xbe167d89	-0.14696325
128	0x3d9bebfc	0.0761337
129	0xbe01c6be	-0.1267347
130	0xbdee9a80	-0.11650562
131	0xbdee8734	-0.11646882
132	0xbd94908a	-0.07254131
133	0xbe1cd39c	-0.15315098
134	0xbceb08ee	-0.028690781
135	0x3c904578	0.01761125
136	0xbda0ecd0	-0.078576684
137	0x3dab357b	0.0835981
138	0xbd3f663b	-0.046728354
139	0x3b9511a4	0.004549222
140	0xbda06c60	-0.07833171
141	0x3dcbf069	0.09957964
142	0x3d62abce	0.055339627
143	0x3cc09248	0.023507252
144	0xbca7d4e6	-0.02048726
145	0x3d7f06a6	0.0622622
146	0xba6ba9d7	-0.00089898467
147	0xbcf509b4	-0.029911853
148	0x3b84d088	0.004053179
149	0x3d13a6c8	0.036047727
150	0xbcb4f407	-0.022089018
151	0xbcb6cfdf	-0.022315918
152	0x3c426a5d	0.011866179
153	0xbcac5853	-0.02103821
154	0x3ce4e849	0.027942793
155	0xbcccd834	-0.025005437
156	0xbd5b8009	-0.0535889
157	0x3d99626b	0.07489475
158	0xbc164854	-0.009172518
159	0x3d2f88e2	0.04285515
160	0x3d1a0a16	0.037607275
161	0x3d0e890c	0.034798667
162	0xbc142b63	-0.009043547
163	0xbcd39e0f	-0.025832204
164	0x3d110bd7	0.035411682
165	0xbdbed21e	-0.093174204
166	0x3c7f28f4	0.015573729
167	0xbc5f53b5	-0.013630797
168	0x3dc52151	0.09625495
169	0x3bccd914	0.0062514637
170	0x3c5ae3d5	0.013359983
171	0x3c6d7406	0.014492994
172	0x3d778e72	0.06043858
173	0x3c3de20c	0.011589538
174	0x3cfca050	0.030838162
175	0x3ca9f283	0.020745521
176	0x3ca116de	0.019664224
177	0xbcbae47a	-0.022814024
178	0xbc79c22a	-0.015244046
179	0x3d5de016	0.054168783
180	0x3d98644d	0.07441006
181	0x3d467a4a	0.048456468
182	0x3bc2462c	0.0059287753
183	0xbc5c8963	-0.01346049
184	0xbbfed0fa	-0.007776377
185	0x3dac01f6	0.083988115
186	0x3c51947f	0.012791752
187	0xbc1b6436	-0.009484341
188	0x3c1dab48	0.009623356
189	0x3d7f7a7a	0.062372662
190	0xbcd6d80f	-0.026226072
191	0xbbecea5d	-0.0072300867
192	0xbe03c84c	-0.12869376
193	0x3d7d6523	0.06186403
194	0x3cac582a	0.021038134
195	0xbe55a78e	-0.20864698
196	0xbb1521e3	-0.0022755794
197	0x3d516a23	0.05112661
198	0x3c04a023	0.00809482
199	0xbe22192b	-0.15829913
200	0xbd9e2ebb	-0.07723757
201	0xbd1b7083	-0.037949096
202	0x3dedd950	0.11613715
203	0x3c50d056	0.012744984
204	0x3c7012d8	0.01465293
205	0x3b10b722	0.0022081812
206	0x3a0fd257	0.000548636
207	0xbde7d0c2	-0.11319114
208	0x3e0386ae	0.12844345
209	0x3d4dc184	0.05023338
210	0x3dc08372	0.09400071
211	0x3e2d61fc	0.1693191
212	0x3d750095	0.05981501
213	0xbc5c02ee	-0.013428433
214	0xbdf20e6c	-0.11819157
215	0x3d3bf03a	0.045883395
216	0x3dd923b9	0.10602517
217	0xbde318af	-0.110886924
218	0xbd8d0905	-0.06886486
219	0x3d541089	0.05177358
220	0xbdd9cbbb	-0.10634562
221	0x3e48f019	0.1962284
222	0xbde3f1e1	-0.11130119
223	0x3be4869b	0.006974054
224	0x3e0245a4	0.12721878
225	0xbe8c0f18	-0.27355266
226	0x3dcc14d4	0.0996491
227	0xbae99937	-0.0017822151
228	0x3dd6e430	0.10492742
229	0x3d06036a	0.0327181
230	0xbe0d5ed6	-0.13805708
231	0x3df7fd76	0.12108891
232	0x3dfb76c0	0.12278509
233	0xbc3fa49f	-0.011696964
234	0x3ceb4496	0.028719228
235	0x3d8c8612	0.068615094
236	0x3d06b90f	0.03289133
237	0x3bfd837a	0.0077366205
238	0x3dac3910	0.08409321
239	0x3e88e983	0.26740655
240	0xb96c964e	-0.00022562707
241	0x3d2c1f36	0.042021953
242	0xbc9a2ddc	-0.018820696
243	0xbe03cdc2	-0.12871459
244	0x3db39000	0.087677
245	0x3d240250	0.040041268
246	0x3d95ad78	0.07308477
247	0xbde47106	-0.1115437
248	0xbd343bfd	-0.04400252
249	0x3a356c14	0.0006920707
250	0x3af7d990	0.0018909443
251	0x3c378957	0.011202178
252	0xbd663c63	-0.056209933
253	0x3c84e57e	0.016222712
254	0xbd8f4bc1	-0.06996871
255	0x3d5d51ae	0.054032974

model.mlp4.0.bias f4 [48]
0	0x3dcbf12a	0.09958108
1	0x3e5cda8b	0.21567743
2	0x3dc08dec	0.094020694
3	0xbe1f0e68	-0.1553284
4	0x3d4e5f0f	0.050383624
5	0xbd2a5e71	-0.041593973
6	0x3e562cb1	0.20915486
7	0x3dbaa291	0.09113038
8	0x3da2ee25	0.07955579
9	0x3de5fc69	0.11229784
10	0xbd83c105	-0.064333
11	0x3b42cdc9	0.0029724708
12	0x3e04e774	0.12978917
13	0xbd61c5e1	-0.055120353
14	0x3e4b463e	0.19851014
15	0x3e37f757	0.17965446
16	0x3e1e0881	0.15432931
17	0xbd42b957	-0.047540035
18	0xbd5149cd	-0.051095773
19	0x3dbb2dd3	0.091396
20	0xbcbfd1a8	-0.023415402
21	0x3def9215	0.11697785
22	0xbd65024d	-0.055910397
23	0x3e1b2b46	0.15153226
24	0xbcf16a32	-0.029469583
25	0x3d9c5165	0.07632712
26	0x3ca5ee1b	0.02025514
27	0xbdadbeef	-0.08483683
28	0x3cf8e2be	0.030381557
29	0x3d8329b9	0.06404442
30	0x3df3535e	0.118811354
31	0x3d50f799	0.051017378
32	0x3d7eea99	0.06223545
33	0x3e070002	0.13183597
34	0xbdb3b380	-0.08774471
35	0x3d8ffa75	0.07030193
36	0xbca8378a	-0.020534296
37	0x3df778cf	0.12083589
38	0xbda01bfa	-0.07817836
39	0x3cdbed13	0.026846444
40	0x3e2c4bbb	0.16825764
41	0x3d00a43d	0.03140663
42	0xbdb70387	-0.0893622
43	0xbcede859	-0.029041456
44	0x3d5715da	0.052511074
45	0x3e55a1fe	0.20862576
46	0xbc6330cd	-0.0138666155
47	0xbb2180b3	-0.002464336

model.mlp5.0.weight f4 [48, 48]
0	0xbd05c53c	-0.0326588
1	0xbb694af1	-0.0035597647
2	0x3daba004	0.0838013
3	0x3dc83deb	0.09777435
4	0x3d9da073	0.07696619
5	0x3d099a19	0.033594225
6	0xbd80113a	-0.06253286
7	0x3e29f7fb	0.16598503
8	0x3be59488	0.0070062317
9	0x3d9d2f99	0.07675094
10	0xbd5cd306	-0.053912185
11	0x3db96796	0.090529606
12	0x3d834b41	0.06410838
13	0xbd72073b	-0.059088927
14	0xbd1d367f	-0.03838205
15	0xbd40cd75	-0.04707094
16	0xbd92f935	-0.07176439
17	0x3da21629	0.07914383
18	0xbc53d291	-0.012928621
19	0xbdb7ed42	-0.089808
20	0x3d73207e	0.05935716
21	0x3c940241	0.018067481
22	0x3c6bb017	0.014385245
23	0x3cbea6b6	0.023272853
24	0x3d0b3372	0.03398461
25	0xbd4d3628	-0.050100476
26	0x3d8e1e9c	0.06939432
27	0xbd824b09	-0.06361968
28	0x3c62ae15	0.01383545
29	0xbdce0b9f	-0.1006081
30	0xbd0b0c96	-0.03394755
31	0xbd008109	-0.031373058
32	0x3d8395b8	0.06425041
33	0x3da11997	0.07866209
34	0x3d335664	0.04378356
35	0xbdda73c7	-0.10666614
36	0xbc1da862	-0.009622665
37	0xbe4909e1	-0.19632675
38	0x3dde9ac5	0.10869364
39	0x3d08893d	0.033334006
40	0x3a46e20a	0.0007586783
41	0x3d8cca1f	0.06874489
42	0x3d55e101	0.052216534
43	0xbda55082	-0.08071996
44	0x3d52ab0c	0.051432654
45	0xbdb2d8bb	-0.08732744
46	0xbc522dcf	-0.012828304
47	0xbe0346ca	-0.12819973
48	0xbcd65586	-0.026163828
49	0x3dc243ef	0.094856136
50	0x3c14e297	0.009087226
51	0xbc8c6df3	-0.017142272
52	0x3decd506	0.115640685
53	0x3d1e9103	0.038712513
54	0x3dc7e680	0.09760761
55	0xbdc1df3c	-0.09466407
56	0x3dadcf51	0.08486808
57	0x3c20832d	0.0097969
58	0x3d4a34cf	0.04936677
59	0xbdab9386	-0.08377747
60	0x3ddc7964	0.10765341
61	0x3dabb5b0	0.083842635
62	0x3daf1289	0.08548457
63	0x3da25383	0.07926085
64	0x3d848b6e	0.064719066
65	0xbb94a2e5	-0.00453602
66	0x3d8d3a0d	0.06895838
67	0x3df0c9db	0.11757251
68	0x3dcb7595	0.09934536
69	0x3e0e1274	0.13874227
70	0xbd64721c	-0.055772886
71	0xbcfbed01	-0.03075266
72	0x3dacd00b	0.084381185
73	0xbd897a32	-0.0671276
74	0xbc649e12	-0.0139537025
75	0x3e25c0f6	0.1618689
76	0xbd5b5763	-0.053550135
77	0x3df20efd	0.11819265
78	0x3d28a461	0.04117239
79	0xbd971680	-0.073773384
80	0x3cd55692	0.026042257
81	0x3cdf2451	0.027238997
82	0x3c71d7c0	0.014760911
83	0x3dc0feee	0.09423624
84	0x3d0f520e	0.034990363
85	0x3d06767a	0.03282783
86	0xbc853bc2	-0.016263846
87	0x3db81b0d	0.089895345
88	0xbc1750e1	-0.009235592
89	0x3c39c126	0.011337554
90	0x3c161444	0.009160105
91	0x3d911605	0.07084278
92	0x3d508652	0.050909348
93	0x3da30c0c	0.07961282
94	0x3e129f7f	0.14318655
95	0x3da16f3f	0.07882547
96	0xbd77469b	-0.06037007
97	0x3d1db189	0.03849939
98	0xbe09eb94	-0.13468772
99	0xbdd3a04d	-0.10333309
100	0x3e06604d	0.13122673
101	0x3da53d04	0.080682784
102	0xbde056a5	-0.10954026
103	0xbe7c130c	-0.24616641
104	0x3d9be93b	0.076128446
105	0xbd040574	-0.032231763
106	0x3da595cb	0.08085211
107	0xbd551b0c	-0.052027747
108	0x3d36c9ab	0.04462592
109	0x3cd4c719	0.025973843
110	0xbd8ac05c	-0.06774971
111	0xbd6f5251	-0.058428112
112	0xbd4441dc	-0.04791437
113	0xbdb8447b	-0.089974366
114	0xb88cced9	-6.7142486e-05
115	0xbcfbd43c	-0.03074085
116	0x3d0cbbb1	0.034358684
117	0x3b0dcff2	0.0021638838
118	0xba85e933	-0.0010216594
119	0xbd2f5094	-0.042801455
120	0x3c232da2	0.00995961
121	0xbc527680	-0.012845635
122	0xbcc60754	-0.024173416
123	0x3e00c87f	0.12576483
124	0xbd217a4d	-0.039423276
125	0xbc8d3e49	-0.017241614
126	0x3cc92e62	0.02455825
127	0xbe167d89	-0.14696325
128	0x3d9bebfc	0.0761337
129	0xbe01c6be	-0.1267347
130	0xbdee9a80	-0.11650562
131	0xbdee8734	-0.11646882
132	0xbd94908a	-0.07254131
133	0xbe1cd39c	-0.15315098
134	0xbceb08ee	-0.028690781
135	0x3c904578	0.01761125
136	0xbda0ecd0	-0.078576684
137	0x3dab357b	0.0835981
138	0xbd3f663b	-0.046728354
139	0x3b9511a4	0.004549222
140	0xbda06c60	-0.07833171
141	0x3dcbf069	0.09957964
142	0x3d62abce	0.055339627
143	0x3cc09248	0.023507252
144	0xbca7d4e6	-0.02048726
145	0x3d7f06a6	0.0622622
146	0xba6ba9d7	-0.00089898467
147	0xbcf509b4	-0.029911853
148	0x3b84d088	0.004053179
149	0x3d13a6c8	0.036047727
150	0xbcb4f407	-0.022089018
151	0xbcb6cfdf	-0.022315918
152	0x3c426a5d	0.011866179
153	0xbcac5853	-0.02103821
154	0x3ce4e849	0.027942793
155	0xbcccd834	-0.025005437
156	0xbd5b8009	-0.0535889
157	0x3d99626b	0.07489475
158	0xbc164854	-0.009172518
159	0x3d2f88e2	0.04285515
160	0x3d1a0a16	0.037607275
161	0x3d0e890c	0.034798667
162	0xbc142b63	-0.009043547
163	0xbcd39e0f	-0.025832204
164	0x3d110bd7	0.035411682
165	0xbdbed21e	-0.093174204
166	0x3c7f28f4	0.015573729
167	0xbc5f53b5	-0.013630797
168	0x3dc52151	0.09625495
169	0x3bccd914	0.0062514637
170	0x3c5ae3d5	0.013359983
171	0x3c6d7406	0.014492994
172	0x3d778e72	0.06043858
173	0x3c3de20c	0.011589538
174	0x3cfca050	0.030838162
175	0x3ca9f283	0.020745521
176	0x3ca116de	0.019664224
177	0xbcbae47a	-0.022814024
178	0xbc79c22a	-0.015244046
179	0x3d5de016	0.054168783
180	0x3d98644d	0.07441006
181	0x3d467a4a	0.048456468
182	0x3bc2462c	0.0059287753
183	0xbc5c8963	-0.01346049
184	0xbbfed0fa	-0.007776377
185	0x3dac01f6	0.083988115
186	0x3c51947f	0.012791752
187	0xbc1b6436	-0.009484341
188	0x3c1dab48	0.009623356
189	0x3d7f7a7a	0.062372662
190	0xbcd6d80f	-0.026226072
191	0xbbecea5d	-0.0072300867
192	0xbe03c84c	-0.12869376
193	0x3d7d6523	0.06186403
194	0x3cac582a	0.021038134
195	0xbe55a78e	-0.20864698
196	0xbb1521e3	-0.0022755794
197	0x3d516a23	0.05112661
198	0x3c04a023	0.00809482
199	0xbe22192b	-0.15829913
200	0xbd9e2ebb	-0.07723757
201	0xbd1b7083	-0.037949096
202	0x3dedd950	0.11613715
203	0x3c50d056	0.012744984
204	0x3c7012d8	0.01465293
205	0x3b10b722	0.0022081812
206	0x3a0fd257	0.000548636
207	0xbde7d0c2	-0.11319114
208	0x3e0386ae	0.12844345
209	0x3d4dc184	0.05023338
210	0x3dc08372	0.09400071
211	0x3e2d61fc	0.1693191
212	0x3d750095	0.05981501
213	0xbc5c02ee	-0.013428433
214	0xbdf20e6c	-0.11819157
215	0x3d3bf03a	0.045883395
216	0x3dd923b9	0.10602517
217	0xbde318af	-0.110886924
218	0xbd8d0905	-0.06886486
219	0x3d541089	0.05177358
220	0xbdd9cbbb	-0.10634562
221	0x3e48f019	0.1962284
222	0xbde3f1e1	-0.11130119
223	0x3be4869b	0.006974054
224	0x3e0245a4	0.12721878
225	0xbe8c0f18	-0.27355266
226	0x3dcc14d4	0.0996491
227	0xbae99937	-0.0017822151
228	0x3dd6e430	0.10492742
229	0x3d06036a	0.0327181
230	0xbe0d5ed6	-0.13805708
231	0x3df7fd76	0.12108891
232	0x3dfb76c0	0.12278509
233	0xbc3fa49f	-0.011696964
234	0x3ceb4496	0.028719228
235	0x3d8c8612	0.068615094
236	0x3d06b90f	0.03289133
237	0x3bfd837a	0.0077366205
238	0x3dac3910	0.08409321
239	0x3e88e983	0.26740655
240	0xb96c964e	-0.00022562707
241	0x3d2c1f36	0.042021953
242	0xbc9a2ddc	-0.018820696
243	0xbe03cdc2	-0.12871459
244	0x3db39000	0.087677
245	0x3d240250	0.040041268
246	0x3d95ad78	0.07308477
247	0xbde47106	-0.1115437
248	0xbd343bfd	-0.04400252
249	0x3a356c14	0.0006920707
250	0x3af7d990	0.0018909443
251	0x3c378957	0.011202178
252	0xbd663c63	-0.056209933
253	0x3c84e57e	0.016222712
254	0xbd8f4bc1	-0.06996871
255	0x3d5d51ae	0.054032974

model.mlp5.0.bias f4 [48]
0	0x3dcbf12a	0.09958108
1	0x3e5cda8b	0.21567743
2	0x3dc08dec	0.094020694
3	0xbe1f0e68	-0.1553284
4	0x3d4e5f0f	0.050383624
5	0xbd2a5e71	-0.041593973
6	0x3e562cb1	0.20915486
7	0x3dbaa291	0.09113038
8	0x3da2ee25	0.07955579
9	0x3de5fc69	0.11229784
10	0xbd83c105	-0.064333
11	0x3b42cdc9	0.0029724708
12	0x3e04e774	0.12978917
13	0xbd61c5e1	-0.055120353
14	0x3e4b463e	0.19851014
15	0x3e37f757	0.17965446
16	0x3e1e0881	0.15432931
17	0xbd42b957	-0.047540035
18	0xbd5149cd	-0.051095773
19	0x3dbb2dd3	0.091396
20	0xbcbfd1a8	-0.023415402
21	0x3def9215	0.11697785
22	0xbd65024d	-0.055910397
23	0x3e1b2b46	0.15153226
24	0xbcf16a32	-0.029469583
25	0x3d9c5165	0.07632712
26	0x3ca5ee1b	0.02025514
27	0xbdadbeef	-0.08483683
28	0x3cf8e2be	0.030381557
29	0x3d8329b9	0.06404442
30	0x3df3535e	0.118811354
31	0x3d50f799	0.051017378
32	0x3d7eea99	0.06223545
33	0x3e070002	0.13183597
34	0xbdb3b380	-0.08774471
35	0x3d8ffa75	0.07030193
36	0xbca8378a	-0.020534296
37	0x3df778cf	0.12083589
38	0xbda01bfa	-0.07817836
39	0x3cdbed13	0.026846444
40	0x3e2c4bbb	0.16825764
41	0x3d00a43d	0.03140663
42	0xbdb70387	-0.0893622
43	0xbcede859	-0.029041456
44	0x3d5715da	0.052511074
45	0x3e55a1fe	0.20862576
46	0xbc6330cd	-0.0138666155
47	0xbb2180b3	-0.002464336

model.mlp6.0.weight f4 [48, 48]
0	0xbd05c53c	-0.0326588
1	0xbb694af1	-0.0035597647
2	0x3daba004	0.0838013
3	0x3dc83deb	0.09777435
4	0x3d9da073	0.07696619
5	0x3d099a19	0.033594225
6	0xbd80113a	-0.06253286
7	0x3e29f7fb	0.16598503
8	0x3be59488	0.0070062317
9	0x3d9d2f99	0.07675094
10	0xbd5cd306	-0.053912185
11	0x3db96796	0.090529606
12	0x3d834b41	0.06410838
13	0xbd72073b	-0.059088927
14	0xbd1d367f	-0.03838205
15	0xbd40cd75	-0.04707094
16	0xbd92f935	-0.07176439
17	0x3da21629	0.07914383
18	0xbc53d291	-0.012928621
19	0xbdb7ed42	-0.089808
20	0x3d73207e	0.05935716
21	0x3c940241	0.018067481
22	0x3c6bb017	0.014385245
23	0x3cbea6b6	0.023272853
24	0x3d0b3372	0.03398461
25	0xbd4d3628	-0.050100476
26	0x3d8e1e9c	0.06939432
27	0xbd824b09	-0.06361968
28	0x3c62ae15	0.01383545
29	0xbdce0b9f	-0.1006081
30	0xbd0b0c96	-0.03394755
31	0xbd008109	-0.031373058
32	0x3d8395b8	0.06425041
33	0x3da11997	0.07866209
34	0x3d335664	0.04378356
35	0xbdda73c7	-0.10666614
36	0xbc1da862	-0.009622665
37	0xbe4909e1	-0.19632675
38	0x3dde9ac5	0.10869364
39	0x3d08893d	0.033334006
40	0x3a46e20a	0.0007586783
41	0x3d8cca1f	0.06874489
42	0x3d55e101	0.052216534
43	0xbda55082	-0.08071996
44	0x3d52ab0c	0.051432654
45	0xbdb2d8bb	-0.08732744
46	0xbc522dcf	-0.012828304
47	0xbe0346ca	-0.12819973
48	0xbcd65586	-0.026163828
49	0x3dc243ef	0.094856136
50	0x3c14e297	0.009087226
51	0xbc8c6df3	-0.017142272
52	0x3decd506	0.115640685
53	0x3d1e9103	0.038712513
54	0x3dc7e680	0.09760761
55	0xbdc1df3c	-0.09466407
56	0x3dadcf51	0.08486808
57	0x3c20832d	0.0097969
58	0x3d4a34cf	0.04936677
59	0xbdab9386	-0.08377747
60	0x3ddc7964	0.10765341
61	0x3dabb5b0	0.083842635
62	0x3daf1289	0.08548457
63	0x3da25383	0.07926085
64	0x3d848b6e	0.064719066
65	0xbb94a2e5	-0.00453602
66	0x3d8d3a0d	0.06895838
67	0x3df0c9db	0.11757251
68	0x3dcb7595	0.09934536
69	0x3e0e1274	0.13874227
70	0xbd64721c	-0.055772886
71	0xbcfbed01	-0.03075266
72	0x3dacd00b	0.084381185
73	0xbd897a32	-0.0671276
74	0xbc649e12	-0.0139537025
75	0x3e25c0f6	0.1618689
76	0xbd5b5763	-0.053550135
77	0x3df20efd	0.11819265
78	0x3d28a461	0.04117239
79	0xbd971680	-0.073773384
80	0x3cd55692	0.026042257
81	0x3cdf2451	0.027238997
82	0x3c71d7c0	0.014760911
83	0x3dc0feee	0.09423624
84	0x3d0f520e	0.034990363
85	0x3d06767a	0.03282783
86	0xbc853bc2	-0.016263846
87	0x3db81b0d	0.089895345
88	0xbc1750e1	-0.009235592
89	0x3c39c126	0.011337554
90	0x3c161444	0.009160105
91	0x3d911605	0.07084278
92	0x3d508652	0.050909348
93	0x3da30c0c	0.07961282
94	0x3e129f7f	0.14318655
95	0x3da16f3f	0.07882547
96	0xbd77469b	-0.06037007
97	0x3d1db189	0.03849939
98	0xbe09eb94	-0.13468772
99	0xbdd3a04d	-0.10333309
100	0x3e06604d	0.13122673
101	0x3da53d04	0.080682784
102	0xbde056a5	-0.10954026
103	0xbe7c130c	-0.24616641
104	0x3d9be93b	0.076128446
105	0xbd040574	-0.032231763
106	0x3da595cb	0.08085211
107	0xbd551b0c	-0.052027747
108	0x3d36c9ab	0.04462592
109	0x3cd4c719	0.025973843
110	0xbd8ac05c	-0.06774971
111	0xbd6f5251	-0.058428112
112	0xbd4441dc	-0.04791437
113	0xbdb8447b	-0.089974366
114	0xb88cced9	-6.7142486e-05
115	0xbcfbd43c	-0.03074085
116	0x3d0cbbb1	0.034358684
117	0x3b0dcff2	0.0021638838
118	0xba85e933	-0.0010216594
119	0xbd2f5094	-0.042801455
120	0x3c232da2	0.00995961
121	0xbc527680	-0.012845635
122	0xbcc60754	-0.024173416
123	0x3e00c87f	0.12576483
124	0xbd217a4d	-0.039423276
125	0xbc8d3e49	-0.017241614
126	0x3cc92e62	0.02455825
127	0xbe167d89	-0.14696325
128	0x3d9bebfc	0.0761337
129	0xbe01c6be	-0.1267347
130	0xbdee9a80	-0.11650562
131	0xbdee8734	-0.11646882
132	0xbd94908a	-0.07254131
133	0xbe1cd39c	-0.15315098
134	0xbceb08ee	-0.028690781
135	0x3c904578	0.01761125
136	0xbda0ecd0	-0.078576684
137	0x3dab357b	0.0835981
138	0xbd3f663b	-0.046728354
139	0x3b9511a4	0.004549222
140	0xbda06c60	-0.07833171
141	0x3dcbf069	0.09957964
142	0x3d62abce	0.055339627
143	0x3cc09248	0.023507252
144	0xbca7d4e6	-0.02048726
145	0x3d7f06a6	0.0622622
146	0xba6ba9d7	-0.00089898467
147	0xbcf509b4	-0.029911853
148	0x3b84d088	0.004053179
149	0x3d13a6c8	0.036047727
150	0xbcb4f407	-0.022089018
151	0xbcb6cfdf	-0.022315918
152	0x3c426a5d	0.011866179
153	0xbcac5853	-0.02103821
154	0x3ce4e849	0.027942793
155	0xbcccd834	-0.025005437
156	0xbd5b8009	-0.0535889
157	0x3d99626b	0.07489475
158	0xbc164854	-0.009172518
159	0x3d2f88e2	0.04285515
160	0x3d1a0a16	0.037607275
161	0x3d0e890c	0.034798667
162	0xbc142b63	-0.009043547
163	0xbcd39e0f	-0.025832204
164	0x3d110bd7	0.035411682
165	0xbdbed21e	-0.093174204
166	0x3c7f28f4	0.015573729
167	0xbc5f53b5	-0.013630797
168	0x3dc52151	0.09625495
169	0x3bccd914	0.0062514637
170	0x3c5ae3d5	0.013359983
171	0x3c6d7406	0.014492994
172	0x3d778e72	0.06043858
173	0x3c3de20c	0.011589538
174	0x3cfca050	0.030838162
175	0x3ca9f283	0.020745521
176	0x3ca116de	0.019664224
177	0xbcbae47a	-0.022814024
178	0xbc79c22a	-0.015244046
179	0x3d5de016	0.054168783
180	0x3d98644d	0.07441006
181	0x3d467a4a	0.048456468
182	0x3bc2462c	0.0059287753
183	0xbc5c8963	-0.01346049
184	0xbbfed0fa	-0.007776377
185	0x3dac01f6	0.083988115
186	0x3c51947f	0.012791752
187	0xbc1b6436	-0.009484341
188	0x3c1dab48	0.009623356
189	0x3d7f7a7a	0.062372662
190	0xbcd6d80f	-0.026226072
191	0xbbecea5d	-0.0072300867
192	0xbe03c84c	-0.12869376
193	0x3d7d6523	0.06186403
194	0x3cac582a	0.021038134
195	0xbe55a78e	-0.20864698
196	0xbb1521e3	-0.0022755794
197	0x3d516a23	0.05112661
198	0x3c04a023	0.00809482
199	0xbe22192b	-0.15829913
200	0xbd9e2ebb	-0.07723757
201	0xbd1b7083	-0.037949096
202	0x3dedd950	0.11613715
203	0x3c50d056	0.012744984
204	0x3c7012d8	0.01465293
205	0x3b10b722	0.0022081812
206	0x3a0fd257	0.000548636
207	0xbde7d0c2	-0.11319114
208	0x3e0386ae	0.12844345
209	0x3d4dc184	0.05023338
210	0x3dc08372	0.09400071
211	0x3e2d61fc	0.1693191
212	0x3d750095	0.05981501
213	0xbc5c02ee	-0.013428433
214	0xbdf20e6c	-0.11819157
215	0x3d3bf03a	0.045883395
216	0x3dd923b9	0.10602517
217	0xbde318af	-0.110886924
218	0xbd8d0905	-0.06886486
219	0x3d541089	0.05177358
220	0xbdd9cbbb	-0.10634562
221	0x3e48f019	0.1962284
222	0xbde3f1e1	-0.11130119
223	0x3be4869b	0.006974054
224	0x3e0245a4	0.12721878
225	0xbe8c0f18	-0.27355266
226	0x3dcc14d4	0.0996491
227	0xbae99937	-0.0017822151
228	0x3dd6e430	0.10492742
229	0x3d06036a	0.0327181
230	0xbe0d5ed6	-0.13805708
231	0x3df7fd76	0.12108891
232	0x3dfb76c0	0.12278509
233	0xbc3fa49f	-0.011696964
234	0x3ceb4496	0.028719228
235	0x3d8c8612	0.068615094
236	0x3d06b90f	0.03289133
237	0x3bfd837a	0.0077366205
238	0x3dac3910	0.08409321
239	0x3e88e983	0.26740655
240	0xb96c964e	-0.00022562707
241	0x3d2c1f36	0.042021953
242	0xbc9a2ddc	-0.018820696
243	0xbe03cdc2	-0.12871459
244	0x3db39000	0.087677
245	0x3d240250	0.040041268
246	0x3d95ad78	0.07308477
247	0xbde47106	-0.1115437
248	0xbd343bfd	-0.04400252
249	0x3a356c14	0.0006920707
250	0x3af7d990	0.0018909443
251	0x3c378957	0.011202178
252	0xbd663c63	-0.056209933
253	0x3c84e57e	0.016222712
254	0xbd8f4bc1	-0.06996871
255	0x3d5d51ae	0.054032974

model.mlp6.0.bias f4 [48]
0	0x3dcbf12a	0.09958108
1	0x3e5cda8b	0.21567743
2	0x3dc08dec	0.094020694
3	0xbe1f0e68	-0.1553284
4	0x3d4e5f0f	0.050383624
5	0xbd2a5e71	-0.041593973
6	0x3e562cb1	0.20915486
7	0x3dbaa291	0.09113038
8	0x3da2ee25	0.07955579
9	0x3de5fc69	0.11229784
10	0xbd83c105	-0.064333
11	0x3b42cdc9	0.0029724708
12	0x3e04e774	0.12978917
13	0xbd61c5e1	-0.055120353
14	0x3e4b463e	0.19851014
15	0x3e37f757	0.17965446
16	0x3e1e0881	0.15432931
17	0xbd42b957	-0.047540035
18	0xbd5149cd	-0.051095773
19	0x3dbb2dd3	0.091396
20	0xbcbfd1a8	-0.023415402
21	0x3def9215	0.11697785
22	0xbd65024d	-0.055910397
23	0x3e1b2b46	0.15153226
24	0xbcf16a32	-0.029469583
25	0x3d9c5165	0.07632712
26	0x3ca5ee1b	0.02025514
27	0xbdadbeef	-0.08483683
28	0x3cf8e2be	0.030381557
29	0x3d8329b9	0.06404442
30	0x3df3535e	0.118811354
31	0x3d50f799	0.051017378
32	0x3d7eea99	0.06223545
33	0x3e070002	0.13183597
34	0xbdb3b380	-0.08774471
35	0x3d8ffa75	0.07030193
36	0xbca8378a	-0.020534296
37	0x3df778cf	0.12083589
38	0xbda01bfa	-0.07817836
39	0x3cdbed13	0.026846444
40	0x3e2c4bbb	0.16825764
41	0x3d00a43d	0.03140663
42	0xbdb70387	-0.0893622
43	0xbcede859	-0.029041456
44	0x3d5715da	0.052511074
45	0x3e55a1fe	0.20862576
46	0xbc6330cd	-0.0138666155
47	0xbb2180b3	-0.002464336
