test data/Debugging test-a/[40 [0, 0.5, 0, 0.5], 0.01, 1, 0.01, 0.001, 600, 1000],48/s/min_weights.pth (torch, 334423 bytes, 841 tensors)

mixer_1.PatchMixer.mlp.0.weight f4 [48, 48]
0	0x27f508ea	6.8010825e-15
1	0x28466577	1.101321e-14
2	0x27c2d838	5.408024e-15
3	0xa80355d8	-7.290575e-15
4	0x281a64bd	8.570561e-15
5	0xa79276e2	-4.0652033e-15
6	0x285c061f	1.22137806e-14
7	0x27a3c579	4.545569e-15
8	0xa8340a7f	-9.994283e-15
9	0xa7c275fc	-5.3973736e-15
10	0x28126848	8.1272405e-15
11	0x2747635e	2.7670665e-15
12	0xa84b57e6	-1.1287824e-14
13	0xa8130e17	-8.1631945e-15
14	0x27a1781b	4.4816695e-15
15	0xa7668e0f	-3.1995922e-15
16	0x285028f8	1.1555203e-14
17	0xa7288ac4	-2.3389909e-15
18	0xa83124f0	-9.833483e-15
19	0xa695bbbf	-1.0389841e-15
20	0x281ee366	8.820071e-15
21	0x28290d18	9.384224e-15
22	0xa644e044	-6.8305097e-16
23	0x278c3171	3.891141e-15
24	0xa794fbe1	-4.135134e-15
25	0xa75f367b	-3.0977e-15
26	0xa605e0ef	-4.6448486e-16
27	0xa80e6cfa	-7.906214e-15
28	0x270b46f9	1.93286e-15
29	0xa7f613a0	-6.8299993e-15
30	0x270b970a	1.9372003e-15
31	0x271b9b3a	2.159472e-15
32	0x280c2b16	7.780904e-15
33	0xa8086463	-7.5712845e-15
34	0x282e1f7f	9.66577e-15
35	0x27839d33	3.653024e-15
36	0x282b5c5f	9.512437e-15
37	0x28583e78	1.2003954e-14
38	0xa7a3de97	-4.548292e-15
39	0xa78db012	-3.9326257e-15
40	0xa695c853	-1.039325e-15
41	0x27e6aa2f	6.4022337e-15
42	0xa80e5d28	-7.9027835e-15
43	0x2824c2e9	9.146093e-15
44	0x285f845a	1.2407686e-14
45	0x2861ac66	1.2527392e-14
46	0x283947d2	1.02851365e-14
47	0x281be7fc	8.654532e-15
48	0xa85401f8	-1.1768791e-14
49	0x26f7a5af	1.7183977e-15
50	0x284b31f4	1.12795956e-14
51	0x270f7ed4	1.991399e-15
52	0x269cbb03	1.0875364e-15
53	0xa611a5ff	-5.053195e-16
54	0xa808c85f	-7.592965e-15
55	0x271d7c41	2.1855485e-15
56	0xa81292db	-8.136472e-15
57	0xa79338f5	-4.086245e-15
58	0xa816d272	-8.372306e-15
59	0x27ca9468	5.6227165e-15
60	0x27115e7b	2.017401e-15
61	0x27ba84c7	5.176933e-15
62	0xa73cd67c	-2.6206513e-15
63	0xa846093d	-1.0993211e-14
64	0x27d492aa	5.9000834e-15
65	0x27defe6e	6.189323e-15
66	0xa701b9fe	-1.8003173e-15
67	0x27b5d19c	5.046485e-15
68	0x280d2626	7.8353444e-15
69	0x2811c87b	8.092589e-15
70	0xa6b9def1	-1.2897382e-15
71	0xa8318717	-9.854767e-15
72	0x28402ebf	1.06682775e-14
73	0x25ac286f	2.9864643e-16
74	0xa81b6ef6	-8.628289e-15
75	0xa80fba15	-7.978445e-15
76	0xa7be845a	-5.287909e-15
77	0x2684648c	9.186593e-16
78	0x284c2103	1.1331433e-14
79	0xa7843f2a	-3.6705842e-15
80	0xa7ed634c	-6.588837e-15
81	0xa6fdd22f	-1.7612372e-15
82	0xa85da227	-1.2303126e-14
83	0x27964eb6	4.17187e-15
84	0xa7e540be	-6.363046e-15
85	0xa7ee1d93	-6.6090334e-15
86	0xa71ba1cc	-2.1598281e-15
87	0x27b66454	5.0623924e-15
88	0xa81c50b8	-8.677243e-15
89	0x27378222	2.5466897e-15
90	0xa79b7b5a	-4.315488e-15
91	0xa80e35b6	-7.89423e-15
92	0x27c39472	5.4284317e-15
93	0x27dd730a	6.1464548e-15
94	0x2820622d	8.903073e-15
95	0x27c150f0	5.3656014e-15
96	0x278cbcf0	3.9062652e-15
97	0xa8525b6e	-1.1677167e-14
98	0x267b5ce0	8.720899e-16
99	0xa839484a	-1.0285238e-14
100	0x27039e6f	1.826579e-15
101	0x283a4e75	1.0342087e-14
102	0x282bd1e3	9.537919e-15
103	0x284eed9b	1.148682e-14
104	0xa8274868	-9.286063e-15
105	0xa830c375	-9.812346e-15
106	0x25b880b2	3.200612e-16
107	0xa711c3f7	-2.0229025e-15
108	0xa7d4700b	-5.8963298e-15
109	0xa7f8b9d6	-6.903531e-15
110	0xa85a28d5	-1.2110285e-14
111	0x28190150	8.493491e-15
112	0x280654b2	7.45686e-15
113	0xa814f518	-8.268797e-15
114	0xa7fc39c7	-7.0006693e-15
115	0x27e43eb0	6.335068e-15
116	0x2856b104	1.19177705e-14
117	0x27ce0378	5.7180247e-15
118	0x26940e12	1.0273377e-15
119	0xa7e29bec	-6.289665e-15
120	0x27400b8e	2.6651616e-15
121	0xa70ff6f6	-1.9979114e-15
122	0xa85b3c9d	-1.21700855e-14
123	0x27ad5689	4.8110967e-15
124	0xa8093eb6	-7.618626e-15
125	0x27bf1014	5.303058e-15
126	0x281106cd	8.050592e-15
127	0xa7b98909	-5.149639e-15
128	0xa7c17d17	-5.3703884e-15
129	0x279bd7a7	4.3254953e-15
130	0xa6f4925b	-1.6970571e-15
131	0x2805407b	7.396965e-15
132	0x279f977d	4.429561e-15
133	0xa7c6aeed	-5.5145695e-15
134	0xa484950f	-5.749839e-17
135	0xa7ae21e7	-4.833146e-15
136	0xa5246206	-1.4257944e-16
137	0xa802638c	-7.2380354e-15
138	0x27096dc9	1.9072084e-15
139	0x283a9fa6	1.0359692e-14
140	0xa7c794c4	-5.5394887e-15
141	0x2827631d	9.291854e-15
142	0x27927cce	4.0658454e-15
143	0xa6ecccdc	-1.6431317e-15
144	0xa81be532	-8.653927e-15
145	0xa85d0693	-1.226939e-14
146	0xa85b16bf	-1.2161874e-14
147	0x27dcdcf6	6.1301833e-15
148	0xa7034d61	-1.822185e-15
149	0xa7da16db	-6.0531935e-15
150	0xa84b4ec1	-1.1285841e-14
151	0x27d144a0	5.8083556e-15
152	0x27ba5cc1	5.1725935e-15
153	0xa740055d	-2.664826e-15
154	0x2508f751	1.1879914e-16
155	0x27b36b5f	4.9798892e-15
156	0xa7dc3f25	-6.1130728e-15
157	0x280c56a8	7.790352e-15
158	0x28161cc8	8.332914e-15
159	0x2829b670	9.420944e-15
160	0xa7af887a	-4.8720226e-15
161	0xa8093030	-7.615477e-15
162	0xa5b842ba	-3.1964128e-16
163	0x27c0c9d6	5.3509536e-15
164	0xa7f08a95	-6.6763632e-15
165	0x25f97c6b	4.3278923e-16
166	0x28098715	7.634319e-15
167	0xa7b4e4bc	-5.020803e-15
168	0xa51ded06	-1.3697886e-16
169	0x25a8f6fa	2.9310712e-16
170	0xa5d7cc63	-3.7435053e-16
171	0x28656f08	1.273613e-14
172	0x2814521b	8.233454e-15
173	0xa76c9101	-3.2830186e-15
174	0xa787bff9	-3.7678164e-15
175	0x2834af83	1.0030065e-14
176	0x282cd90f	9.594985e-15
177	0x2860c135	1.2476393e-14
178	0x27b564e4	5.0346978e-15
179	0x2862fb0e	1.2599959e-14
180	0xa81868d7	-8.4604285e-15
181	0xa7118d5c	-2.0199423e-15
182	0xa85cab6a	-1.2249623e-14
183	0xa8600bd0	-1.2437059e-14
184	0xa75b338c	-3.0420299e-15
185	0xa7979f22	-4.208345e-15
186	0xa8281a49	-9.331573e-15
187	0x278fc16d	3.9900186e-15
188	0xa6e254c8	-1.570488e-15
189	0xa74180dd	-2.6853987e-15
190	0x26138867	5.118573e-16
191	0x280c5f68	7.792249e-15
192	0xa78d74f6	-3.926217e-15
193	0x2800365d	7.1172155e-15
194	0xa835d6b9	-1.0094079e-14
195	0xa83bc187	-1.042255e-14
196	0x25754a7d	2.12756e-16
197	0xa7328969	-2.4776952e-15
198	0xa828c95b	-9.369535e-15
199	0xa7db0af3	-6.079658e-15
200	0xa8510e53	-1.1604937e-14
201	0xa81e7662	-8.796432e-15
202	0xa7ef92e9	-6.6495106e-15
203	0xa6dedd9e	-1.5464414e-15
204	0xa748f16a	-2.7886446e-15
205	0xa772a340	-3.3672744e-15
206	0x26b05388	1.2235094e-15
207	0x2846d252	1.1036814e-14
208	0xa8343572	-1.0003596e-14
209	0x2857f943	1.19889475e-14
210	0x2717fec4	2.1093568e-15
211	0xa7294a4a	-2.3493734e-15
212	0x28536882	1.17355144e-14
213	0xa80fe578	-7.987853e-15
214	0x2790b71b	4.0166552e-15
215	0x28647896	1.268269e-14
216	0x276209f5	3.1369198e-15
217	0xa7e8a47c	-6.457127e-15
218	0x27659cb0	3.1865075e-15
219	0xa80732c2	-7.505012e-15
220	0xa861e37c	-1.2539337e-14
221	0xa848ae7c	-1.11400655e-14
222	0xa8561bdf	-1.188543e-14
223	0x2813751a	8.185532e-15
224	0xa7ce02b9	-5.7179438e-15
225	0x286323a9	1.2608764e-14
226	0x28045256	7.345326e-15
227	0x2781fadf	3.6076688e-15
228	0x27b6dbf2	5.0753613e-15
229	0x283fe4eb	1.06522686e-14
230	0x284b0dd1	1.127176e-14
231	0x2781f4f4	3.607027e-15
232	0xa7acae96	-4.7928877e-15
233	0x2848d96c	1.1149376e-14
234	0xa7f02757	-6.6656034e-15
235	0xa7b4c3c4	-5.0172286e-15
236	0x284602f1	1.0991846e-14
237	0x28061e56	7.445072e-15
238	0x2736baee	2.5358909e-15
239	0xa8249819	-9.13681e-15
240	0x280273ca	7.241557e-15
241	0xa85f1e5e	-1.23855716e-14
242	0xa754af23	-2.9515852e-15
243	0x2704004c	1.831884e-15
244	0x27a87129	4.6752056e-15
245	0x27a13bc1	4.475126e-15
246	0x283728da	1.0167399e-14
247	0xa80c38d5	-7.783885e-15
248	0x27927e63	4.066017e-15
249	0x280492de	7.359319e-15
250	0x281b640c	8.625923e-15
251	0x27f56925	6.811516e-15
252	0x284fec20	1.154201e-14
253	0x27a21ef9	4.4997613e-15
254	0x2709ddb4	1.9132755e-15
255	0x26fc4c68	1.7506723e-15

mixer_1.PatchMixer.mlp.0.bias f4 [48]
0	0x28452049	1.09426975e-14
1	0x28363158	1.0113729e-14
2	0xa7e8f1d8	-6.4655143e-15
3	0xa6dfb7dc	-1.5523569e-15
4	0x26675fef	8.027424e-16
5	0xa6d055fc	-1.4456205e-15
6	0x27a008c1	4.441841e-15
7	0x283d95f8	1.0524127e-14
8	0x284180a8	1.074155e-14
9	0x28034043	7.285895e-15
10	0xa82016f4	-8.886761e-15
11	0x283a6b13	1.0348292e-14
12	0xa7bf3058	-5.3065564e-15
13	0x27205f1a	2.2256015e-15
14	0x27964a6b	4.1714048e-15
15	0x26ea33ff	1.6251105e-15
16	0xa85efcb8	-1.2378275e-14
17	0x272037a6	2.2234628e-15
18	0xa85d5524	-1.2286426e-14
19	0xa5b6d740	-3.1717826e-16
20	0xa811e3c8	-8.098509e-15
21	0x258f89f5	2.490003e-16
22	0x281085f1	8.02265e-15
23	0x26cb344b	1.4100129e-15
24	0xa8583d4e	-1.2003702e-14
25	0x2819780a	8.5192355e-15
26	0xa724cbf4	-2.2870135e-15
27	0xa8421709	-1.0774158e-14
28	0xa7ef7c08	-6.64703e-15
29	0x25a3c9a4	2.841263e-16
30	0xa83feb1e	-1.0653613e-14
31	0xa7bf52e3	-5.3103015e-15
32	0x278a2760	3.8345385e-15
33	0x28483287	1.1113187e-14
34	0x27f9f957	6.938172e-15
35	0xa70d70dc	-1.9628862e-15
36	0xa791fe4d	-4.05213e-15
37	0xa6faa476	-1.7391812e-15
38	0xa7137fde	-2.0469665e-15
39	0x27f6bee1	6.8485667e-15
40	0x27001137	1.77729e-15
41	0x26aba14d	1.1909229e-15
42	0x28335204	9.95428e-15
43	0xa5c68a40	-3.4441207e-16
44	0xa7dd628a	-6.144666e-15
45	0xa70e1d44	-1.9722324e-15
46	0x2854264f	1.1776671e-14
47	0xa7ec8a3e	-6.565304e-15

mixer_1.PatchMixer.mlp.2.weight f4 [48, 48]
0	0xa6f00eea	-1.6657388e-15
1	0x2842c11a	1.08110356e-14
2	0xa726175e	-2.3049795e-15
3	0x26c837e5	1.3892938e-15
4	0xa818610f	-8.458741e-15
5	0xa681f913	-9.018685e-16
6	0x2788dbe0	3.798597e-15
7	0x26eb6a9b	1.6335296e-15
8	0x279a7d55	4.287947e-15
9	0xa8558fc4	-1.1855049e-14
10	0xa8026c4b	-7.239932e-15
11	0xa700efe2	-1.789361e-15
12	0xa81f221e	-8.833671e-15
13	0x27cf7e1f	5.7590782e-15
14	0x2837c0a8	1.0200316e-14
15	0xa7355f06	-2.5170308e-15
16	0x2703d751	1.8296625e-15
17	0x27b35731	4.9777013e-15
18	0x280fe732	7.988227e-15
19	0xa85c63ff	-1.22341365e-14
20	0xa71d3125	-2.1814768e-15
21	0x273bca7f	2.6061237e-15
22	0xa82cc66b	-9.590943e-15
23	0xa83835f6	-1.0225753e-14
24	0x2802c22b	7.258553e-15
25	0xa7de8231	-6.175853e-15
26	0xa819de99	-8.541474e-15
27	0xa8541de0	-1.1774842e-14
28	0xa787e311	-3.7716213e-15
29	0x25d9173a	3.7659238e-16
30	0x26d94331	1.5075612e-15
31	0x278fcfa7	3.991561e-15
32	0x28325432	9.899242e-15
33	0xa828238a	-9.33358e-15
34	0x27d24d49	5.83705e-15
35	0xa83169d0	-9.848418e-15
36	0x27573b00	2.9869228e-15
37	0xa80625aa	-7.446661e-15
38	0x284f05e2	1.1492084e-14
39	0xa6931d23	-1.0208072e-15
40	0x27a52877	4.584057e-15
41	0xa851f0a8	-1.1654015e-14
42	0x2665eae5	7.9768677e-16
43	0xa7be8555	-5.2880153e-15
44	0xa858520e	-1.20082014e-14
45	0xa7557236	-2.9621602e-15
46	0xa78cc9fc	-3.9076798e-15
47	0xa84f4d3f	-1.1507558e-14
48	0x27907121	4.0090683e-15
49	0x285e2a8a	1.23327e-14
50	0xa4ef239c	-1.0371005e-16
51	0xa7b1608d	-4.923205e-15
52	0xa82a4e12	-9.4538245e-15
53	0x2808974a	7.582322e-15
54	0x2834d91e	1.0039087e-14
55	0x286660ac	1.2788527e-14
56	0x2770657b	3.3361703e-15
57	0xa877f9c8	-1.3765417e-14
58	0x278b42de	3.8652748e-15
59	0x284af5cb	1.126655e-14
60	0x272a980f	2.367467e-15
61	0x27b94459	5.1421918e-15
62	0xa7b74d84	-5.0876746e-15
63	0x27b2b809	4.9604456e-15
64	0x281764c7	8.4040364e-15
65	0x28238748	9.077652e-15
66	0x28265274	9.23273e-15
67	0x283021b1	9.777268e-15
68	0x2823c6de	9.09144e-15
69	0x283ebbb9	1.0587825e-14
70	0x280fbfa6	7.979652e-15
71	0xa7ccfa93	-5.6893047e-15
72	0x28345d43	1.001223e-14
73	0x280d85da	7.856097e-15
74	0xa80171a2	-7.185579e-15
75	0xa48287cf	-5.660858e-17
76	0xa6d1045b	-1.4503469e-15
77	0xa7e0daa6	-6.240955e-15
78	0x280991bc	7.636629e-15
79	0x271da0d4	2.1875312e-15
80	0x27d9a6ec	6.0410576e-15
81	0xa801784a	-7.187022e-15
82	0xa5b532ca	-3.143291e-16
83	0xa78ba989	-3.876406e-15
84	0x282425cd	9.1120255e-15
85	0xa8322728	-9.889476e-15
86	0x2841b15c	1.0752111e-14
87	0x284163ae	1.0735267e-14
88	0xa82420e6	-9.1109625e-15
89	0xa831a9d4	-9.862299e-15
90	0x281746ad	8.397509e-15
91	0xa84d9d53	-1.14139e-14
92	0x280446bc	7.34281e-15
93	0xa848b0e5	-1.1140588e-14
94	0xa760cadb	-3.1196213e-15
95	0x278f4021	3.976e-15
96	0x2796f28a	4.1896325e-15
97	0xa81e27dd	-8.779406e-15
98	0x28279fb1	9.30499e-15
99	0x2791d078	4.0471607e-15
100	0xa8172068	-8.389211e-15
101	0xa848ce90	-1.1147021e-14
102	0xa7ef4eb4	-6.6421156e-15
103	0xa83bac33	-1.0417925e-14
104	0x26b14bdf	1.2302407e-15
105	0xa7c903ed	-5.5792963e-15
106	0xa7b7395f	-5.0854905e-15
107	0xa81f3daa	-8.839644e-15
108	0x269f92d1	1.1072636e-15
109	0x28262649	9.223153e-15
110	0xa795e4c8	-4.1603853e-15
111	0x27ede53a	6.6029242e-15
112	0xa82617e7	-9.220034e-15
113	0x27addc6f	4.825614e-15
114	0x279322b7	4.0838334e-15
115	0x2811358d	8.060729e-15
116	0x285affbd	1.2156885e-14
117	0xa82c27f5	-9.556582e-15
118	0xa789da19	-3.82616e-15
119	0xa7bf70f6	-5.313562e-15
120	0x283f270f	1.0611099e-14
121	0xa7d2dfdb	-5.8529413e-15
122	0x2793fa10	4.1071814e-15
123	0xa7254c82	-2.2939825e-15
124	0xa860b9e2	-1.2474805e-14
125	0x25c32ea2	3.3858707e-16
126	0xa8172dab	-8.3920865e-15
127	0xa85e27ab	-1.2332077e-14
128	0x27218a24	2.2418125e-15
129	0x27fb6f3d	6.97871e-15
130	0xa702d843	-1.815836e-15
131	0xa8180229	-8.438163e-15
132	0xa80f7df8	-7.96541e-15
133	0x281c5b0c	8.679482e-15
134	0x2816f873	8.3805465e-15
135	0x284fb33b	1.1529673e-14
136	0x270dd6ca	1.9684118e-15
137	0x284886b1	1.1131437e-14
138	0xa6cb3237	-1.4099565e-15
139	0x27ad86f9	4.8163483e-15
140	0xa83e0a46	-1.05493464e-14
141	0xa72ca32c	-2.395825e-15
142	0xa7a350f7	-4.532937e-15
143	0xa7e362fa	-6.3112467e-15
144	0x28533c29	1.1725898e-14
145	0x285c7794	1.2238383e-14
146	0x2846d393	1.1037086e-14
147	0x27a676fb	4.6203254e-15
148	0xa7ea2d4a	-6.499715e-15
149	0x2834e84f	1.0042381e-14
150	0xa6827eb1	-9.054902e-16
151	0xa7294a06	-2.349359e-15
152	0xa85c0d33	-1.2215315e-14
153	0x28035849	7.291105e-15
154	0x27ca70c4	5.6188523e-15
155	0xa860ffff	-1.2490008e-14
156	0xa61064ea	-5.00968e-16
157	0xa83ca344	-1.0471499e-14
158	0x27394dd6	2.5716102e-15
159	0xa7e3f298	-6.3268177e-15
160	0xa76d3c71	-3.2923122e-15
161	0x279f1775	4.4156797e-15
162	0x27a793d7	4.65121e-15
163	0xa7a3f460	-4.550654e-15
164	0x276fc0be	3.3272399e-15
165	0xa847c19c	-1.10887014e-14
166	0x26bbbb30	1.3026469e-15
167	0x280a60c7	7.681524e-15
168	0xa84aec9d	-1.126456e-14
169	0x285aa837	1.2137907e-14
170	0x284339cf	1.083721e-14
171	0xa831d92b	-9.8725646e-15
172	0x2835b37b	1.0086437e-14
173	0xa6966e2e	-1.0438205e-15
174	0x27af51f6	4.866112e-15
175	0x28602425	1.24423355e-14
176	0x281745e4	8.397339e-15
177	0xa7fc49cc	-7.002406e-15
178	0xa81866ce	-8.459987e-15
179	0x27b8ce4c	5.1293927e-15
180	0xa7e8a2c6	-6.4569415e-15
181	0xa81a3499	-8.560123e-15
182	0xa631868d	-6.159156e-16
183	0xa82eaa80	-9.695912e-15
184	0x28148480	8.244382e-15
185	0xa7cf993f	-5.762019e-15
186	0xa81adab3	-8.59614e-15
187	0xa6cc12ec	-1.4160472e-15
188	0x283b6678	1.0402805e-14
189	0xa8457d6b	-1.09628925e-14
190	0xa7e1f96e	-6.2720477e-15
191	0x27c13708	5.3627926e-15
192	0x28040105	7.327693e-15
193	0xa806756e	-7.463958e-15
194	0x28525801	1.16764246e-14
195	0x27cb5db5	5.6445416e-15
196	0xa75d288a	-3.0691887e-15
197	0xa7be4eaa	-5.282088e-15
198	0x2845b5eb	1.0975144e-14
199	0x283bbc30	1.0421392e-14
200	0x27faa797	6.957064e-15
201	0x27c2cae1	5.406578e-15
202	0xa79f5825	-4.422693e-15
203	0x28318a04	9.855401e-15
204	0x253c68ff	1.6341975e-16
205	0xa624891c	-5.708475e-16
206	0xa8382fd8	-1.0224426e-14
207	0xa7106813	-2.0040433e-15
208	0xa781a2bc	-3.598113e-15
209	0x27832435	3.639906e-15
210	0x27b29f85	4.9577876e-15
211	0x28225504	9.011241e-15
212	0xa7aa28ce	-4.722872e-15
213	0x27f4737d	6.7848817e-15
214	0x2842f84c	1.0823004e-14
215	0xa8607d00	-1.2461603e-14
216	0x2765918c	3.1859035e-15
217	0x27f49a22	6.7890716e-15
218	0x27a30b53	4.5253866e-15
219	0x28498d73	1.1188413e-14
220	0x27ee147e	6.6080488e-15
221	0xa84fa5d2	-1.1526765e-14
222	0xa834fe56	-1.00471575e-14
223	0x27a29ab7	4.5131775e-15
224	0x27c98810	5.5936226e-15
225	0xa8617faa	-1.2517692e-14
226	0x28419790	1.0746517e-14
227	0x281a20e6	8.555851e-15
228	0x25d75195	3.7351837e-16
229	0xa841b104	-1.0752036e-14
230	0xa8434dcc	-1.0841544e-14
231	0x27e2a6d6	6.2908485e-15
232	0x27bf99a9	5.317975e-15
233	0xa8453a15	-1.0948291e-14
234	0x28343c7b	1.0005122e-14
235	0xa64303cf	-6.7659377e-16
236	0x27801fe0	3.5561696e-15
237	0xa48addda	-6.022379e-17
238	0x285d5cef	1.2288116e-14
239	0x26b30880	1.2422924e-15
240	0x2837c288	1.0200723e-14
241	0xa7a3bb54	-4.544469e-15
242	0xa8070306	-7.494661e-15
243	0x284d6d80	1.140353e-14
244	0xa7be7d6b	-5.287157e-15
245	0xa7a2732f	-4.5088915e-15
246	0xa6807168	-8.912523e-16
247	0x28294312	9.395928e-15
248	0x280fdda0	7.986152e-15
249	0xa84b47a5	-1.1284299e-14
250	0xa7c7c0ed	-5.5442766e-15
251	0xa727e02f	-2.3297436e-15
252	0xa7589b04	-3.0060056e-15
253	0x27f1e488	6.713871e-15
254	0xa7a31335	-4.5262413e-15
255	0x26cbcc2d	1.4141297e-15

mixer_1.PatchMixer.mlp.2.bias f4 [48]
0	0x27e2a6e5	6.290855e-15
1	0x27d52858	5.9163117e-15
2	0x2678ba08	8.6294404e-16
3	0x27a245e9	4.503983e-15
4	0x2852b5e7	1.16967855e-14
5	0x2830bcb8	9.8108845e-15
6	0x2809e7f3	7.655324e-15
7	0x283f7165	1.0627218e-14
8	0xa6ae5adf	-1.2098306e-15
9	0x281f5580	8.844813e-15
10	0x282742e6	9.2848685e-15
11	0x28787d3c	1.3793921e-14
12	0xa7469fbc	-2.7564612e-15
13	0x2847e178	1.109561e-14
14	0x27dabd29	6.0712243e-15
15	0xa7bcb5ec	-5.2377722e-15
16	0x282d68f5	9.626188e-15
17	0xa8330fef	-9.939951e-15
18	0x2848b394	1.114117e-14
19	0xa7b61f63	-5.0549177e-15
20	0x27eb9e10	6.5396974e-15
21	0xa7e6092a	-6.384776e-15
22	0x27412f02	2.6809613e-15
23	0xa7f60e0e	-6.8293954e-15
24	0xa7d3a882	-5.874696e-15
25	0xa81073ba	-8.0187e-15
26	0x277dc72d	3.5218777e-15
27	0x28192562	8.501312e-15
28	0xa6747c3b	-8.482287e-16
29	0xa6b9f8ba	-1.2904371e-15
30	0x276d5526	3.2936516e-15
31	0x28483fee	1.1116093e-14
32	0xa5b4b9f8	-3.135104e-16
33	0x284eba5e	1.1475709e-14
34	0xa86236fb	-1.2557442e-14
35	0x26b258bd	1.2375284e-15
36	0xa82fed53	-9.765913e-15
37	0x28095913	7.624343e-15
38	0xa77a9846	-3.4777017e-15
39	0x27777337	3.4340594e-15
40	0xa80c7d1a	-7.798688e-15
41	0x286d6ebe	1.3180156e-14
42	0xa6e57683	-1.592219e-15
43	0xa7f3c32e	-6.7657663e-15
44	0xa786e38b	-3.7439174e-15
45	0xa67fb00c	-8.8709485e-16
46	0xa6df990b	-1.5515216e-15
47	0x25a9885a	2.9409222e-16

mixer_1.Self_Attention_0.q.weight f4 [48, 48]
0	0xa67562dd	-8.5135435e-16
1	0xa7614db7	-3.1267152e-15
2	0x26d855b6	1.5011243e-15
3	0xa7671a09	-3.2071804e-15
4	0xa7cb97b9	-5.6508317e-15
5	0xa80fd215	-7.983649e-15
6	0x27d9582a	6.0325187e-15
7	0xa81a5d59	-8.568959e-15
8	0x271c246e	2.1669098e-15
9	0x272d10df	2.4017719e-15
10	0xa7fb5e51	-6.9768753e-15
11	0x284de15a	1.1428651e-14
12	0x2803a163	7.306956e-15
13	0x280ac5d7	7.7034385e-15
14	0xa77a59b7	-3.4743104e-15
15	0x282a1156	9.440655e-15
16	0x2844a855	1.0916687e-14
17	0x2832c2d8	9.923235e-15
18	0x281e27b1	8.779369e-15
19	0x280745d9	7.509151e-15
20	0x285b6785	1.2179389e-14
21	0xa6a7e414	-1.1649774e-15
22	0xa716461a	-2.0854684e-15
23	0x28017066	7.185311e-15
24	0xa7bccc9f	-5.2402333e-15
25	0x285e303e	1.23339364e-14
26	0x28543f2d	1.1782063e-14
27	0x27c437f4	5.4461593e-15
28	0x277ecfad	3.5362162e-15
29	0x24bbe6b5	8.1489155e-17
30	0xa7b72d8e	-5.0842094e-15
31	0xa8037da0	-7.299201e-15
32	0xa81f864d	-8.855395e-15
33	0x2853a977	1.17496e-14
34	0xa726dd39	-2.3157053e-15
35	0xa80fae19	-7.975846e-15
36	0x2855b0ee	1.1862241e-14
37	0x28157c36	8.2980955e-15
38	0xa8452751	-1.0944222e-14
39	0xa77ec36c	-3.535552e-15
40	0x27d3f54b	5.883021e-15
41	0xa78970e2	-3.8147526e-15
42	0x27d748bc	5.9753346e-15
43	0xa7aa3ea7	-4.7252406e-15
44	0xa7bda8e1	-5.2641137e-15
45	0x283aa732	1.0361329e-14
46	0xa7fc55db	-7.0037135e-15
47	0x281937f6	8.505341e-15
48	0x27840203	3.663954e-15
49	0xa8152f86	-8.2814665e-15
50	0xa8393460	-1.028092e-14
51	0x26896b96	9.535446e-16
52	0xa7c9272a	-5.583117e-15
53	0x279814bc	4.2210955e-15
54	0x284b790a	1.129501e-14
55	0xa822ef05	-9.044636e-15
56	0x282f0638	9.7158e-15
57	0xa823def3	-9.096662e-15
58	0x27a3bbd9	4.5445253e-15
59	0x241351de	3.1944888e-17
60	0x282a83c7	9.46547e-15
61	0x2772c016	3.3688376e-15
62	0xa857bd5c	-1.1975958e-14
63	0x27bd8705	5.2604426e-15
64	0xa6f53936	-1.7015797e-15
65	0xa6dc2efe	-1.5278304e-15
66	0xa7486294	-2.7809015e-15
67	0xa7083cc3	-1.890673e-15
68	0xa6c64bfd	-1.3759607e-15
69	0xa795f49c	-4.1621014e-15
70	0xa76ff707	-3.3301827e-15
71	0x282a05d8	9.438163e-15
72	0xa8292004	-9.388327e-15
73	0x28527484	1.1682607e-14
74	0x26e3bf0c	1.5803073e-15
75	0xa4ed97d6	-1.03039586e-16
76	0xa7abf9de	-4.773294e-15
77	0xa6d5ee9b	-1.4844518e-15
78	0x271db1ba	2.1884473e-15
79	0xa820b0f9	-8.920159e-15
80	0xa81c689e	-8.682425e-15
81	0x2816f37e	8.379472e-15
82	0x27d32d87	5.8613625e-15
83	0xa7d77767	-5.9803944e-15
84	0xa8242db1	-9.1137365e-15
85	0x27082bd7	1.8897557e-15
86	0xa7dc3fe8	-6.1131554e-15
87	0xa85dfe37	-1.23230885e-14
88	0xa8230374	-9.0490664e-15
89	0xa757c79d	-2.9945454e-15
90	0xa80fa924	-7.974771e-15
91	0x27823e3d	3.6149727e-15
92	0x28267b04	9.241526e-15
93	0x27c24b4d	5.392746e-15
94	0xa6d5c7c7	-1.4833994e-15
95	0x283ecbb0	1.0591286e-14
96	0xa7686aa3	-3.2254276e-15
97	0xa6273e9e	-5.8024626e-16
98	0xa80c91cb	-7.803175e-15
99	0x27e2dc75	6.296662e-15
100	0x2828b7d2	9.365733e-15
101	0xa8229809	-9.025774e-15
102	0x27d949be	6.030955e-15
103	0x266bbcc3	8.1787823e-16
104	0x285fa250	1.2414183e-14
105	0x283f65af	1.0624679e-14
106	0x27b8ff65	5.134716e-15
107	0xa728f8fa	-2.3449654e-15
108	0x284d079c	1.1381436e-14
109	0xa8399021	-1.0300816e-14
110	0x269b95e1	1.079591e-15
111	0xa789059c	-3.803122e-15
112	0xa78897a6	-3.7912e-15
113	0x2842c4c2	1.0811828e-14
114	0xa7a78344	-4.649413e-15
115	0xa7cd52b8	-5.6988614e-15
116	0x27b2ad33	4.9592708e-15
117	0xa7b0a797	-4.9031514e-15
118	0x27a50d3a	4.581104e-15
119	0xa76ce5cf	-3.2876159e-15
120	0x2814ab3c	8.252781e-15
121	0x263167cd	6.1549887e-16
122	0x27f6e9d9	6.8532254e-15
123	0x281d8236	8.743486e-15
124	0xa6edc658	-1.649894e-15
125	0x27c0a963	5.3474355e-15
126	0xa84f8e93	-1.1521724e-14
127	0xa5b42ad8	-3.1254055e-16
128	0x284fcb95	1.1534953e-14
129	0xa7b50691	-5.024471e-15
130	0x27aaf265	4.7447283e-15
131	0x2806081a	7.440251e-15
132	0x285b2215	1.21643325e-14
133	0xa787df55	-3.7712164e-15
134	0x280af828	7.714349e-15
135	0x28159681	8.303797e-15
136	0xa7c30242	-5.412582e-15
137	0xa85df10c	-1.2320233e-14
138	0x27c431cb	5.4454914e-15
139	0x28339e42	9.970813e-15
140	0xa7b23d62	-4.9471476e-15
141	0xa7b42a11	-5.0005645e-15
142	0x2507543e	1.1737926e-16
143	0x282b6d6f	9.5161365e-15
144	0x285277e7	1.16833414e-14
145	0xa7fb6094	-6.9771205e-15
146	0x28395db3	1.0289881e-14
147	0x2818ccd8	8.482113e-15
148	0x2603908b	4.5645647e-16
149	0xa79f14f8	-4.41541e-15
150	0x27d862b2	6.005905e-15
151	0xa7d32819	-5.860774e-15
152	0xa848a053	-1.1136995e-14
153	0x28209026	8.913041e-15
154	0xa84384be	-1.0853458e-14
155	0x275e2c98	3.0832863e-15
156	0xa781ffb6	-3.6081935e-15
157	0xa70c536b	-1.9474124e-15
158	0x285926dd	1.2054347e-14
159	0x2683b877	9.13995e-16
160	0xa8200f38	-8.885084e-15
161	0x282b1fb7	9.499284e-15
162	0xa705f522	-1.8590345e-15
163	0xa7416323	-2.6837873e-15
164	0x28313063	9.835966e-15
165	0x27fb5fd7	6.9770405e-15
166	0xa8323a79	-9.893664e-15
167	0xa83afaac	-1.037943e-14
168	0xa815d1a4	-8.31662e-15
169	0xa82ccb53	-9.592007e-15
170	0xa7c0914e	-5.3448245e-15
171	0xa749a54d	-2.7983963e-15
172	0xa6d8bf37	-1.503984e-15
173	0x285aca91	1.21453556e-14
174	0x27d07adc	5.78648e-15
175	0x280cf857	7.825411e-15
176	0x2837837f	1.0187054e-14
177	0x250ec2bf	1.2382519e-16
178	0x2838fb40	1.0268533e-14
179	0x27d44eb0	5.8927133e-15
180	0x262a279c	5.903428e-16
181	0x2850f426	1.1599261e-14
182	0xa82715e0	-9.275106e-15
183	0x268b9518	9.685474e-16
184	0x284ad02f	1.1258395e-14
185	0xa84085aa	-1.0687125e-14
186	0x2851558a	1.1620379e-14
187	0x279a7e61	4.2880607e-15
188	0xa78192e6	-3.596396e-15
189	0x27e64a69	6.39185e-15
190	0x27b350bd	4.9770017e-15
191	0x28170bb4	8.3847215e-15
192	0xa823c7de	-9.091657e-15
193	0x28324a83	9.897142e-15
194	0x281c30df	8.670337e-15
195	0xa8553751	-1.183587e-14
196	0x2833381e	9.9486645e-15
197	0xa649cbf7	-7.001231e-16
198	0x280821bd	7.556832e-15
199	0x2763db55	3.1621478e-15
200	0x2831c364	9.867842e-15
201	0xa80e4bdf	-7.899035e-15
202	0xa81107c1	-8.050798e-15
203	0x280f687e	7.960753e-15
204	0x28245780	9.122802e-15
205	0x28400571	1.0659321e-14
206	0xa85c2245	-1.2219884e-14
207	0x27ddf5ce	6.1606324e-15
208	0x272f1e69	2.4302614e-15
209	0xa7cb4fff	-5.643055e-15
210	0x281cb676	8.6993045e-15
211	0x27dfe517	6.2143313e-15
212	0xa81a16ec	-8.553688e-15
213	0xa8003c49	-7.1185e-15
214	0xa7da7e14	-6.064385e-15
215	0xa81a6d1e	-8.572378e-15
216	0xa80573a3	-7.408058e-15
217	0xa7841662	-3.6661627e-15
218	0xa744dcbd	-2.7320127e-15
219	0xa84f8aa6	-1.1520873e-14
220	0x266c738a	8.2035533e-16
221	0xa76cc328	-3.2857374e-15
222	0x276394a9	3.1583167e-15
223	0x281bbcc4	8.6451605e-15
224	0xa7fbea95	-6.992083e-15
225	0xa83e4947	-1.0563008e-14
226	0xa8113952	-8.061546e-15
227	0xa7b7c43e	-5.100547e-15
228	0x282559e4	9.178832e-15
229	0xa78b9006	-3.87364e-15
230	0x25b2e6c8	3.1034461e-16
231	0xa82e110c	-9.662637e-15
232	0x27e40fdf	6.329992e-15
233	0x281d1252	8.719223e-15
234	0x28218c3a	8.967702e-15
235	0xa81ebfcd	-8.812352e-15
236	0xa7948058	-4.1217402e-15
237	0xa7f82861	-6.8877606e-15
238	0xa84e2f7a	-1.1445592e-14
239	0x283c59fb	1.0455608e-14
240	0x283bf941	1.0434634e-14
241	0x27c20329	5.3849243e-15
242	0xa7a7a2ee	-4.652846e-15
243	0x2825f9f0	9.2135365e-15
244	0xa84b182b	-1.1274004e-14
245	0xa7f87b9c	-6.8967845e-15
246	0x28083108	7.5601485e-15
247	0x27f0b06b	6.6804654e-15
248	0xa711e068	-2.0244443e-15
249	0xa812bfe5	-8.1462386e-15
250	0xa7c4f62b	-5.4667824e-15
251	0xa74a393b	-2.8064156e-15
252	0xa7ba6fcf	-5.1746594e-15
253	0x26b108f8	1.2284273e-15
254	0xa72953dc	-2.3498922e-15
255	0xa83c9b78	-1.0469808e-14

mixer_1.Self_Attention_0.q.bias f4 [48]
0	0xa80fbb87	-7.978758e-15
1	0x281a7aed	8.5753726e-15
2	0xa731150b	-2.4575092e-15
3	0x27f2fb42	6.7440907e-15
4	0x285646e4	1.1894758e-14
5	0x2785e7d4	3.7166264e-15
6	0x27f5adb2	6.818948e-15
7	0x277d7907	3.5176412e-15
8	0xa81fe5b2	-8.87608e-15
9	0xa85cfa06	-1.22666685e-14
10	0x280287a5	7.245863e-15
11	0xa7a3b4d5	-4.5437647e-15
12	0xa8114e31	-8.066072e-15
13	0xa7d4a632	-5.902201e-15
14	0xa80eea47	-7.933384e-15
15	0x280e2bd0	7.892084e-15
16	0xa7f0274b	-6.6655983e-15
17	0x2832571e	9.8998754e-15
18	0x2813d2ba	8.205833e-15
19	0x2811099f	8.051203e-15
20	0xa77e2caf	-3.5273804e-15
21	0x275b68c0	3.044914e-15
22	0x27909d21	4.013839e-15
23	0x28006a0e	7.128424e-15
24	0xa83423b4	-9.999749e-15
25	0xa83dd0a2	-1.0536848e-14
26	0x28038cd8	7.3025014e-15
27	0x269ab883	1.0735909e-15
28	0x28266f5f	9.239001e-15
29	0xa7104633	-2.002207e-15
30	0xa6a418b9	-1.1386487e-15
31	0x27ec714b	6.562599e-15
32	0xa772c19a	-3.3689198e-15
33	0xa7b9591f	-5.144444e-15
34	0xa84518d5	-1.0941081e-14
35	0x281c60a2	8.6806935e-15
36	0xa83d5579	-1.05101415e-14
37	0x281b1b71	8.610179e-15
38	0xa7911a98	-4.0274418e-15
39	0xa62c978d	-5.9879877e-16
40	0xa8595f85	-1.2066632e-14
41	0x270e11de	1.9716145e-15
42	0x27f107c8	6.6899374e-15
43	0x27484e2b	2.779795e-15
44	0xa856aee3	-1.1917309e-14
45	0x27b29f85	4.9577876e-15
46	0xa6d780bc	-1.4953515e-15
47	0xa7ef74f9	-6.6462648e-15

mixer_1.Self_Attention_0.k.weight f4 [48, 48]
0	0xa71e2c6f	-2.1950992e-15
1	0x283ae8ec	1.0375581e-14
2	0x28296c50	9.404871e-15
3	0x25fe7b0f	4.4145364e-16
4	0x27a947f5	4.698494e-15
5	0xa5e596e0	-3.9827404e-16
6	0x27fde19e	7.046622e-15
7	0xa8499318	-1.1189637e-14
8	0xa542d576	-1.6899141e-16
9	0xa8431179	-1.0828463e-14
10	0x2755e3e8	2.9683236e-15
11	0xa851e71f	-1.1651947e-14
12	0x26c9b602	1.399651e-15
13	0x27df193c	6.1922293e-15
14	0x27d62566	5.943748e-15
15	0x284e7526	1.14607e-14
16	0x27d9ac91	6.0416696e-15
17	0xa84d2876	-1.13885596e-14
18	0x284714d1	1.1051233e-14
19	0xa7895133	-3.8113175e-15
20	0x26e2ba4e	1.5732398e-15
21	0x275ab078	3.0349241e-15
22	0x27c3a372	5.430058e-15
23	0xa8032bdb	-7.2814705e-15
24	0xa8156619	-8.2933004e-15
25	0xa72d58cc	-2.405671e-15
26	0x27a9e204	4.715197e-15
27	0xa83a97b2	-1.0357968e-14
28	0xa7a3f660	-4.550871e-15
29	0x2791bd41	4.0450774e-15
30	0xa7f8050e	-6.8839308e-15
31	0xa69c1c4b	-1.0832343e-15
32	0xa80f081b	-7.939852e-15
33	0x282a2daa	9.4467975e-15
34	0xa7003459	-1.7791946e-15
35	0xa72f0125	-2.428675e-15
36	0xa7a72ab9	-4.639813e-15
37	0xa830f0b8	-9.82216e-15
38	0xa77541da	-3.4036278e-15
39	0xa858683e	-1.2013013e-14
40	0xa8227498	-9.018089e-15
41	0xa7a9bda8	-4.711255e-15
42	0xa80bcd94	-7.760628e-15
43	0x27c1bd11	5.3773247e-15
44	0x28039f31	7.30648e-15
45	0xa82764bc	-9.2922055e-15
46	0xa73cd939	-2.6207998e-15
47	0xa7ddc914	-6.155783e-15
48	0xa7e0af02	-6.2362233e-15
49	0xa8165bd7	-8.346587e-15
50	0x2784e8ba	3.6889682e-15
51	0xa642075a	-6.7317234e-16
52	0xa7168744	-2.089001e-15
53	0xa7cbc40b	-5.655637e-15
54	0xa856d79d	-1.192614e-14
55	0xa7ebedbb	-6.548335e-15
56	0x276939b7	3.2366533e-15
57	0xa8126aa0	-8.127749e-15
58	0xa82c7f03	-9.575459e-15
59	0xa71f90e4	-2.2144228e-15
60	0x281625df	8.334885e-15
61	0x27fc1303	6.9964663e-15
62	0xa6a2fedb	-1.1310087e-15
63	0x26e1810c	1.564749e-15
64	0xa7be055a	-5.2741396e-15
65	0x26f3427b	1.6879532e-15
66	0xa79f47f5	-4.420938e-15
67	0x2785ec9c	3.717145e-15
68	0xa787a19b	-3.764524e-15
69	0xa755f238	-2.9690995e-15
70	0x278d1434	3.9157266e-15
71	0xa704348b	-1.8347164e-15
72	0x282d3fa6	9.617231e-15
73	0x27ad8955	4.816604e-15
74	0x285183c1	1.16304e-14
75	0xa78e42e5	-3.9485445e-15
76	0xa5741f32	-2.1174196e-16
77	0xa748a9d4	-2.784764e-15
78	0xa799c085	-4.267476e-15
79	0x27fb881b	6.981406e-15
80	0x28149001	8.246876e-15
81	0x27dbd1ad	6.101204e-15
82	0x27daa05d	6.068102e-15
83	0x28289981	9.359159e-15
84	0xa848a4d0	-1.1137968e-14
85	0x2829e4ca	9.430995e-15
86	0xa83da78f	-1.0527941e-14
87	0xa673bff4	-8.4567706e-16
88	0xa7dc8460	-6.1205788e-15
89	0xa7077b19	-1.8801745e-15
90	0x27d63d70	5.9463542e-15
91	0xa632d910	-6.205033e-16
92	0xa8463850	-1.1003419e-14
93	0xa7a85395	-4.6719987e-15
94	0xa859c170	-1.2087865e-14
95	0xa805db03	-7.430474e-15
96	0x274b6103	2.82245e-15
97	0xa7d73138	-5.972785e-15
98	0xa5ed53f2	-4.116983e-16
99	0xa7cf18ad	-5.7480795e-15
100	0xa825d432	-9.2053525e-15
101	0xa722ebed	-2.2609912e-15
102	0x2767279a	3.2079158e-15
103	0x27cc2d80	5.6670705e-15
104	0x2787f7fe	3.77389e-15
105	0xa857ca73	-1.1978797e-14
106	0xa84d20ab	-1.138687e-14
107	0xa694309e	-1.0282741e-15
108	0x27e0d689	6.240509e-15
109	0x27fc28b9	6.9988202e-15
110	0xa78bd040	-3.8806035e-15
111	0xa8003389	-7.116602e-15
112	0xa8162d01	-8.336431e-15
113	0x2847031c	1.1047393e-14
114	0xa780bce5	-3.5731937e-15
115	0xa8493342	-1.1168856e-14
116	0xa7b5a500	-5.0416485e-15
117	0xa78b047a	-3.8585104e-15
118	0xa6afc17a	-1.2195506e-15
119	0x28050448	7.3839115e-15
120	0x28366a3c	1.01260654e-14
121	0xa7558f5d	-2.9637405e-15
122	0x26b34c23	1.2441257e-15
123	0xa794ba57	-4.128028e-15
124	0xa81bbd46	-8.6452706e-15
125	0x27e06571	6.2282472e-15
126	0xa839e333	-1.0318829e-14
127	0xa7a1b369	-4.4880994e-15
128	0xa80f7c8b	-7.965101e-15
129	0x278e72ec	3.9537516e-15
130	0x279b2b5b	4.306815e-15
131	0xa720f34c	-2.2336352e-15
132	0x2848e1f4	1.1151226e-14
133	0xa824cd50	-9.148349e-15
134	0x282bce27	9.537109e-15
135	0x27ea8bba	6.509954e-15
136	0x27c32f2b	5.417451e-15
137	0x280f9142	7.969592e-15
138	0x264803dc	6.939417e-16
139	0xa7a79ae0	-4.6519727e-15
140	0xa7e89fa4	-6.456602e-15
141	0x26b4329b	1.2503726e-15
142	0xa849b167	-1.1196209e-14
143	0x276510c4	3.1789223e-15
144	0xa7f530ab	-6.8053926e-15
145	0xa7b0ed72	-4.910725e-15
146	0xa7e886ec	-6.453922e-15
147	0xa836b1b0	-1.0141559e-14
148	0x25fdf2e3	4.405309e-16
149	0x27a43b94	4.558374e-15
150	0x284d3ec4	1.1393396e-14
151	0xa6ae1ddc	-1.2081769e-15
152	0xa837f030	-1.0210623e-14
153	0x281ae312	8.597955e-15
154	0x2824e9d7	9.154535e-15
155	0xa731e24f	-2.4686367e-15
156	0xa81fc307	-8.868563e-15
157	0xa781825d	-3.5946033e-15
158	0x28472760	1.1055257e-14
159	0xa7e7c347	-6.43271e-15
160	0x27e4d981	6.351853e-15
161	0xa7280442	-2.3316992e-15
162	0x285bfa41	1.2211207e-14
163	0x27230186	2.262162e-15
164	0xa7904829	-4.0046265e-15
165	0x28411be2	1.0719698e-14
166	0x282445fc	9.119004e-15
167	0x26e7a459	1.6073391e-15
168	0x2795a93a	4.1539283e-15
169	0x28522d08	1.1667106e-14
170	0x28524408	1.1672094e-14
171	0xa7d6032c	-5.940037e-15
172	0xa7ee49a9	-6.6138132e-15
173	0xa80208de	-7.2183724e-15
174	0x281f4ed4	8.843366e-15
175	0xa7b61690	-5.053961e-15
176	0xa7d48900	-5.8990356e-15
177	0xa842d76f	-1.0815878e-14
178	0xa577d614	-2.1496367e-16
179	0xa7bb79c7	-5.2034958e-15
180	0xa7e97d12	-6.4806093e-15
181	0xa7816a39	-3.591986e-15
182	0x27ad0cfd	4.8031228e-15
183	0xa706c928	-1.8705283e-15
184	0x27fb91e1	6.9824657e-15
185	0x2813b47e	8.199277e-15
186	0x25dc82e7	3.825262e-16
187	0x25f14880	4.1855964e-16
188	0xa8072000	-7.500944e-15
189	0xa7aca695	-4.79202e-15
190	0x27a97d92	4.7043066e-15
191	0x2855e535	1.18735766e-14
192	0x282bb755	9.532161e-15
193	0xa7b266f7	-4.951656e-15
194	0x2718fd3d	2.1231518e-15
195	0x2730a4b7	2.4514199e-15
196	0xa80a2ea7	-7.670655e-15
197	0xa7a2b998	-4.5165254e-15
198	0x2856b1d6	1.1917948e-14
199	0x285d5cef	1.2288116e-14
200	0x2816669a	8.348921e-15
201	0xa810ec6c	-8.044872e-15
202	0xa776c4e5	-3.4246095e-15
203	0x27eab165	6.514038e-15
204	0x27b65b97	5.061445e-15
205	0x2822604c	9.0136876e-15
206	0xa812a899	-8.141187e-15
207	0xa83abcbb	-1.03659985e-14
208	0xa7964438	-4.1707326e-15
209	0x278036d1	3.558657e-15
210	0x27b28ede	4.955982e-15
211	0xa7f3aef3	-6.763573e-15
212	0xa73df8cf	-2.6363898e-15
213	0xa72bbd0c	-2.38335e-15
214	0x27c5113a	5.469716e-15
215	0xa85969d6	-1.2068869e-14
216	0xa816f8e8	-8.380646e-15
217	0x282fe223	9.763487e-15
218	0xa782de28	-3.632311e-15
219	0x27843f7c	3.670619e-15
220	0x283fbff2	1.0644251e-14
221	0x283c2fe4	1.0446481e-14
222	0xa81989c6	-8.523081e-15
223	0xa6e9e5eb	-1.6229942e-15
224	0xa7e94431	-6.4744424e-15
225	0xa5c3c9b8	-3.3963798e-16
226	0x27cfd2ff	5.7682804e-15
227	0x2762e76f	3.148926e-15
228	0xa83563ac	-1.0069131e-14
229	0xa803c3f7	-7.314454e-15
230	0x28036837	7.294559e-15
231	0x28098589	7.6339835e-15
232	0xa8301798	-9.775079e-15
233	0xa84e48ec	-1.14511096e-14
234	0x278754c5	3.7561934e-15
235	0x271315ac	2.0412096e-15
236	0x2809a72e	7.641279e-15
237	0x2828b647	9.3653985e-15
238	0x269dbe80	1.0945699e-15
239	0x2843771a	1.08505005e-14
240	0xa80ac43b	-7.7030896e-15
241	0xa81359d2	-8.179616e-15
242	0x28117d77	8.076323e-15
243	0x284303a9	1.0825468e-14
244	0x284909c9	1.1159863e-14
245	0xa7b85b9e	-5.116959e-15
246	0x2804061f	7.328799e-15
247	0x28322a30	9.890133e-15
248	0x285619b3	1.1884959e-14
249	0xa7f0019a	-6.661512e-15
250	0x28335bd4	9.956408e-15
251	0x276cbc28	3.2853579e-15
252	0x2718c318	2.1199998e-15
253	0x2806a5e5	7.474467e-15
254	0x27ce8cd4	5.732917e-15
255	0xa5d2c013	-3.6559348e-16

mixer_1.Self_Attention_0.k.bias f4 [48]
0	0x2852f6f2	1.17108895e-14
1	0x281fa22d	8.861439e-15
2	0x28211d66	8.94367e-15
3	0xa80f0993	-7.940171e-15
4	0x28391dbe	1.0276012e-14
5	0xa82c12d1	-9.551998e-15
6	0x27a9979f	4.707131e-15
7	0xa60f1e14	-4.9653855e-16
8	0x271ae5a2	2.1496277e-15
9	0xa84312c2	-1.0828742e-14
10	0xa7fd39f1	-7.0284427e-15
11	0xa80aeb38	-7.711544e-15
12	0xa807e69d	-7.544012e-15
13	0x284157e2	1.0732709e-14
14	0x281fa988	8.863034e-15
15	0x2818d330	8.483489e-15
16	0x27059e95	1.8543425e-15
17	0x27ba17ad	5.165104e-15
18	0x272c981c	2.3952254e-15
19	0xa7e4e533	-6.353121e-15
20	0x2837f810	1.0212331e-14
21	0x285664fc	1.1901284e-14
22	0x283a0235	1.0325553e-14
23	0xa8481659	-1.1107076e-14
24	0xa7d1d513	-5.824017e-15
25	0xa832a13b	-9.915946e-15
26	0xa71787fc	-2.1029177e-15
27	0xa7b29403	-4.95654e-15
28	0xa63dd13a	-6.58561e-16
29	0xa800744a	-7.1306435e-15
30	0xa8020168	-7.216755e-15
31	0x2852e09d	1.1706047e-14
32	0x284efd62	1.1490241e-14
33	0xa7648e4c	-3.1718495e-15
34	0x275d933a	3.0749723e-15
35	0xa8438b1a	-1.0854837e-14
36	0xa5b27281	-3.095567e-16
37	0x281813ca	8.441986e-15
38	0xa81d73c3	-8.7403526e-15
39	0x28282499	9.333809e-15
40	0xa79fe658	-4.4381104e-15
41	0xa8335b61	-9.956311e-15
42	0xa7ec00a3	-6.550385e-15
43	0x280d2a40	7.836234e-15
44	0xa810de1f	-8.041771e-15
45	0x27b6a03d	5.068888e-15
46	0x27b07b21	4.898331e-15
47	0xa820fc9e	-8.936562e-15

mixer_1.Self_Attention_0.v.weight f4 [48, 48]
0	0xa81b7a14	-8.6307e-15
1	0xa74bab4c	-2.826477e-15
2	0x276cc61a	3.285897e-15
3	0xa713db3f	-2.0519202e-15
4	0xa735b8c7	-2.5218964e-15
5	0x2720852b	2.227665e-15
6	0x27e2fb0e	6.2999795e-15
7	0xa80e63a1	-7.904187e-15
8	0xa801f36d	-7.213723e-15
9	0xa7fb6998	-6.978098e-15
10	0xa77e11f0	-3.5259305e-15
11	0x27da18ac	6.0533904e-15
12	0x27db1774	6.081014e-15
13	0x27cd942e	5.7059587e-15
14	0xa504eced	-1.1529449e-16
15	0x27fb4391	6.973975e-15
16	0x28370d82	1.016147e-14
17	0xa85a1067	-1.2104988e-14
18	0xa8397edd	-1.0297072e-14
19	0xa7f90552	-6.911715e-15
20	0x2743aa40	2.7153979e-15
21	0xa8579aab	-1.1968436e-14
22	0x27f6d089	6.850481e-15
23	0xa80b40cd	-7.7301015e-15
24	0x2693cf65	1.0256388e-15
25	0x2826a446	9.250472e-15
26	0x27b0117c	4.886877e-15
27	0x2853bced	1.175382e-14
28	0x285e27ab	1.2332077e-14
29	0xa83a73f4	-1.03502175e-14
30	0x26d4ad01	1.4757348e-15
31	0xa7dbfdfd	-6.1060085e-15
32	0xa852d1b9	-1.1702818e-14
33	0x2752ae02	2.9237684e-15
34	0x2810980c	8.026576e-15
35	0x26e5aef7	1.5937491e-15
36	0xa596a6a3	-2.613377e-16
37	0xa664a74c	-7.933012e-16
38	0xa85ff37c	-1.2431784e-14
39	0x278e7178	3.953594e-15
40	0xa830d3ef	-9.815918e-15
41	0xa827c213	-9.312445e-15
42	0x280c59b4	7.7910124e-15
43	0x279d3756	4.363625e-15
44	0x28609fc7	1.2469144e-14
45	0x28071436	7.498388e-15
46	0x2860fff7	1.2490001e-14
47	0x27ea4903	6.5027206e-15
48	0x2797b177	4.2103327e-15
49	0x27a2a28a	4.5140258e-15
50	0xa836b186	-1.0141524e-14
51	0xa78eba86	-3.9615146e-15
52	0x27521268	2.9153332e-15
53	0xa8258781	-9.188723e-15
54	0xa857dc61	-1.19826846e-14
55	0x279f9917	4.4297346e-15
56	0x27d22717	5.832909e-15
57	0x276d0bbb	3.2896716e-15
58	0x27c68485	5.5099718e-15
59	0xa83cf68a	-1.0489556e-14
60	0xa7279e3d	-2.3261687e-15
61	0x285ff65b	1.24324066e-14
62	0xa8074b24	-7.510299e-15
63	0x26ada548	1.2049086e-15
64	0x27f24b6c	6.7250266e-15
65	0xa832feea	-9.936261e-15
66	0xa806885a	-7.468061e-15
67	0xa7df2b29	-6.194173e-15
68	0x284c0293	1.1324833e-14
69	0xa7385702	-2.5582297e-15
70	0x270767e5	1.8791335e-15
71	0x280a3fff	7.674416e-15
72	0x27a739dd	4.6414547e-15
73	0x26c6c79f	1.3793117e-15
74	0xa8451dd1	-1.0942162e-14
75	0x2848fef5	1.1157515e-14
76	0x2845a581	1.0971585e-14
77	0x27c4d264	5.4629034e-15
78	0xa84e4a75	-1.14514424e-14
79	0xa81c8842	-8.689286e-15
80	0xa7f08a8b	-6.676359e-15
81	0xa7610723	-3.1228891e-15
82	0x2769315b	3.2362001e-15
83	0x27eb6b5c	6.5342e-15
84	0x283f2c26	1.0612203e-14
85	0xa818db04	-8.4851864e-15
86	0xa87271a9	-1.3458345e-14
87	0x278ad1ec	3.853029e-15
88	0x2847b4d1	1.1085927e-14
89	0xa80a357d	-7.672137e-15
90	0x2694ab55	1.0316003e-15
91	0x26d898e2	1.502945e-15
92	0xa50b26e8	-1.206951e-16
93	0x285d3aba	1.2280699e-14
94	0x27c60426	5.4960537e-15
95	0xa7364ce1	-2.529925e-15
96	0x25c84717	3.4742642e-16
97	0xa6fb2f98	-1.7429524e-15
98	0xa7f9fca4	-6.9385297e-15
99	0xa4d293b0	-9.1323175e-17
100	0xa801bfbf	-7.202517e-15
101	0xa8342019	-9.998967e-15
102	0x26df568e	1.5497194e-15
103	0xa7ef47ed	-6.6413808e-15
104	0xa8405d8e	-1.06784275e-14
105	0xa8351366	-1.0051725e-14
106	0x2789e46d	3.82728e-15
107	0xa74f7b93	-2.879401e-15
108	0xa6949431	-1.030973e-15
109	0xa6b64a82	-1.2648982e-15
110	0x2833f388	9.9893035e-15
111	0x27884dbc	3.7831863e-15
112	0xa61d3df1	-5.4554263e-16
113	0xa6d2f55a	-1.463818e-15
114	0xa6048ef6	-4.599045e-16
115	0x280c8519	7.800422e-15
116	0xa68c0a3c	-9.717225e-16
117	0x28599e73	1.2080278e-14
118	0x2724437e	2.279616e-15
119	0xa85391c6	-1.17444625e-14
120	0x27b61722	5.054023e-15
121	0x2757c451	2.9943667e-15
122	0xa7b0120a	-4.886937e-15
123	0xa78c6df8	-3.8977034e-15
124	0x27eaaa06	6.5132387e-15
125	0xa853947d	-1.1745051e-14
126	0x26b72eed	1.2710895e-15
127	0x285ee0a5	1.2372188e-14
128	0x26d7193e	1.4925464e-15
129	0xa70c9172	-1.950775e-15
130	0xa7bc6ddd	-5.2299596e-15
131	0xa7c3c1ad	-5.4333356e-15
132	0x28066489	7.460294e-15
133	0x28498aff	1.1187881e-14
134	0xa83f81e9	-1.06308e-14
135	0x2826eb7b	9.265913e-15
136	0x27a78789	4.649876e-15
137	0xa7cc752c	-5.6748412e-15
138	0x27818bcf	3.5956273e-15
139	0xa7f91ebb	-6.91447e-15
140	0xa83fdd9f	-1.0650686e-14
141	0xa7df50da	-6.1982593e-15
142	0xa849e75c	-1.12079095e-14
143	0xa84a5642	-1.1231957e-14
144	0xa813e172	-8.209025e-15
145	0x27f89204	6.899214e-15
146	0xa6aba6f6	-1.1910763e-15
147	0x2803decb	7.320271e-15
148	0xa85f7de0	-1.24062815e-14
149	0xa7cddea5	-5.714032e-15
150	0xa7b516e6	-5.026242e-15
151	0xa72345f0	-2.2658707e-15
152	0x2832120e	9.8849e-15
153	0x284d0a2e	1.1381993e-14
154	0x283ae7e9	1.0375362e-14
155	0x2828f312	9.378581e-15
156	0x27cd5f17	5.7002027e-15
157	0xa7dbdc10	-6.1023303e-15
158	0xa7824d2e	-3.6165927e-15
159	0x25c0d99b	3.3454146e-16
160	0x27867ae8	3.7325727e-15
161	0x28076c43	7.517481e-15
162	0x280d589c	7.846286e-15
163	0x28315cac	9.845569e-15
164	0xa77cb74c	-3.507139e-15
165	0x284d78cb	1.1405979e-14
166	0xa7028522	-1.8113296e-15
167	0x27ce452f	5.7251495e-15
168	0x27b0f14d	4.911143e-15
169	0x2845fec0	1.0990937e-14
170	0xa79dcae0	-4.379621e-15
171	0xa5b13817	-3.0742613e-16
172	0x276d9bc7	3.2974804e-15
173	0xa7a94323	-4.6979713e-15
174	0xa854a459	-1.1804001e-14
175	0x26163ec1	5.212675e-16
176	0xa7e69eef	-6.401014e-15
177	0x282d464d	9.618673e-15
178	0x281a9ed7	8.58316e-15
179	0xa83bb88b	-1.0420602e-14
180	0x27f032d0	6.6668473e-15
181	0x26029577	4.5305373e-16
182	0x271978d6	2.129852e-15
183	0xa8245325	-9.121858e-15
184	0x2807681b	7.51658e-15
185	0x27943a16	4.114123e-15
186	0xa8096799	-7.627492e-15
187	0x26bbf21d	1.3041357e-15
188	0x2840b117	1.0696541e-14
189	0x27bab4c1	5.1821344e-15
190	0xa59a1824	-2.67311e-16
191	0x27096f67	1.907296e-15
192	0xa84661fd	-1.1012456e-14
193	0x281377d5	8.186124e-15
194	0x2843dbfb	1.0872375e-14
195	0xa8261432	-9.21923e-15
196	0xa8132301	-8.1677295e-15
197	0xa8478fab	-1.1077872e-14
198	0x2619c7d9	5.335338e-16
199	0x267e3508	8.8195823e-16
200	0x270ea5ae	1.9796274e-15
201	0xa79d54fc	-4.3668394e-15
202	0x27a80d98	4.6644105e-15
203	0xa7d9614a	-6.033508e-15
204	0x27778792	3.4351629e-15
205	0xa8272919	-9.279274e-15
206	0xa83baed9	-1.0418499e-14
207	0x27de40b1	6.1687516e-15
208	0x285559a8	1.1843316e-14
209	0x2756cd63	2.9809806e-15
210	0x27ddc6d4	6.155539e-15
211	0x2834651d	1.0013933e-14
212	0xa8177600	-8.407771e-15
213	0x2852e12f	1.1706171e-14
214	0xa79b7657	-4.3149447e-15
215	0x2774e55a	3.3986134e-15
216	0x28045fc3	7.348237e-15
217	0x283e5c17	1.05670875e-14
218	0xa5523cbd	-1.8235175e-16
219	0xa6af262a	-1.2153409e-15
220	0x280f5595	7.956652e-15
221	0x26ca6d52	1.4046197e-15
222	0xa8110674	-8.050516e-15
223	0xa82863b2	-9.347491e-15
224	0xa7dbb95b	-6.0985673e-15
225	0xa7d0edad	-5.7989286e-15
226	0x280b7826	7.742103e-15
227	0xa7c3a5f4	-5.43033e-15
228	0xa69ec03c	-1.1015558e-15
229	0xa6246071	-5.702963e-16
230	0xa7aef41e	-4.8559374e-15
231	0x27ea8adb	6.5098594e-15
232	0x282c1c15	9.554007e-15
233	0xa8037fb9	-7.299656e-15
234	0xa7b23572	-4.946287e-15
235	0x27e5eb9f	6.381573e-15
236	0x27fa04c8	6.9394123e-15
237	0xa7028f89	-1.8118935e-15
238	0xa80768b6	-7.516711e-15
239	0x2855a8bd	1.18604645e-14
240	0xa6f715f7	-1.7145022e-15
241	0x2804cb55	7.3715626e-15
242	0x2774aaaa	3.395432e-15
243	0xa71b2380	-2.1529816e-15
244	0xa75e1e61	-3.0825157e-15
245	0xa67691ad	-8.554582e-16
246	0x28623841	1.2557718e-14
247	0xa84dfbc0	-1.1434376e-14
248	0x27925d7f	4.062451e-15
249	0xa720acd4	-2.229815e-15
250	0x26b82f3a	1.2780366e-15
251	0x27b9faff	5.1619945e-15
252	0x27c6db3f	5.5193747e-15
253	0x26951d1e	1.0346844e-15
254	0xa7d07198	-5.7854756e-15
255	0xa71c25ce	-2.1669843e-15

mixer_1.Self_Attention_0.v.bias f4 [48]
0	0xa7cb1bb8	-5.637387e-15
1	0xa8a59f9e	-1.8387903e-14
2	0x2843a321	1.08600474e-14
3	0x276f8c58	3.3243993e-15
4	0x288decbc	1.5756812e-14
5	0x28730620	1.3490538e-14
6	0xa534907b	-1.5661463e-16
7	0x2897197b	1.6775418e-14
8	0x26e22601	1.5692201e-15
9	0xa85c63c2	-1.2234085e-14
10	0x2805a09d	7.4178106e-15
11	0x26cdd310	1.4281941e-15
12	0xa7d505cf	-5.9125674e-15
13	0x28506dcd	1.1570129e-14
14	0x27d5ef89	5.937908e-15
15	0x27e64dd4	6.3922205e-15
16	0x282363eb	9.069984e-15
17	0xa651dad8	-7.280803e-16
18	0x2886e990	1.497828e-14
19	0x26985e57	1.057269e-15
20	0x2739bcc3	2.5776235e-15
21	0x27a85d58	4.673057e-15
22	0x287be16e	1.3982181e-14
23	0x27edb6fc	6.5979106e-15
24	0xa79ff9a2	-4.4402018e-15
25	0xa7127e5a	-2.0330066e-15
26	0x26c96141	1.3973537e-15
27	0xa7724cc8	-3.362587e-15
28	0xa5b5e505	-3.1553685e-16
29	0x283e24d3	1.0555104e-14
30	0x280fe12d	7.986922e-15
31	0xa83937fe	-1.0281704e-14
32	0x288175fb	1.4373043e-14
33	0x277b65d2	3.4888444e-15
34	0xa6accf4c	-1.1991085e-15
35	0x28bf53fd	2.1241684e-14
36	0x27d50bf2	5.9132327e-15
37	0x285b43a4	1.2171609e-14
38	0xa8415324	-1.07316804e-14
39	0xa72757c2	-2.322348e-15
40	0x25aeb4cf	3.030671e-16
41	0x2869ef43	1.298598e-14
42	0x2801ba42	7.201327e-15
43	0x285a81f1	1.21296075e-14
44	0x285cefad	1.2264425e-14
45	0x28661f6b	1.27743775e-14
46	0x284e155a	1.1439927e-14
47	0xa6aaa75f	-1.1841486e-15
