test data/Debugging test-a/[40 [0, 0.5, 0, 0.5], 0.01, 1, 0.01, 0.001, 600, 1000],48/o/min_weights.pth (torch, 334423 bytes, 841 tensors)

mixer_1.PatchMixer.mlp.0.weight f4 [48, 48]
-8.106601e-15 -1.014395e-14 -2.783653e-15 1.3450881e-15 1.1647466e-14 -2.9438596e-15 -9.410405e-15 -7.365247e-15
9.563861e-15 3.7531623e-15 6.103231e-15 3.633726e-15 9.2354255e-15 -5.862681e-15 -7.657832e-15 1.0135705e-14
-2.4742518e-15 -7.0060056e-15 4.2092764e-15 2.8301825e-15 6.590423e-15 -6.856065e-15 6.2202483e-15 2.7121478e-15
-2.8625747e-15 -9.498194e-15 3.7945297e-15 -8.590244e-15 -6.898352e-15 8.643738e-15 -1.0791393e-14 -3.3951306e-15
6.642941e-15 -6.07194e-15 9.756564e-17 8.215587e-15 3.321005e-15 -3.6151393e-16 7.605651e-15 -9.484855e-15
8.497892e-15 7.5728917e-16 2.3231554e-16 -4.182298e-15 3.477629e-15 1.1209423e-14 8.763917e-15 1.2877081e-17
-7.241905e-15 -1.0788709e-14 -3.9705485e-16 -3.4904466e-15 1.1492012e-14 2.599214e-15 3.324255e-15 -1.2418345e-14
4.0829103e-16 9.918873e-15 -1.13275935e-14 4.340818e-15 5.4400395e-15 -4.0138994e-15 1.1517968e-14 8.253949e-15
-1.1454286e-14 -1.9057235e-15 7.320018e-15 -9.022257e-15 1.1321553e-14 1.90804e-15 -1.2472752e-15 3.880843e-15
9.046837e-15 1.0689268e-14 -5.7203853e-15 2.1145007e-15 5.30909e-15 7.155741e-15 -4.7837715e-15 -2.2534422e-15
5.795634e-15 -3.7037995e-17 -8.297674e-15 2.391743e-15 7.1313584e-15 -6.0835126e-15 -6.416965e-15 -2.4848438e-15
6.764996e-15 9.324674e-15 -9.1319605e-15 -1.3846473e-15 2.730465e-15 1.2062835e-14 8.512134e-15 1.2633414e-14
5.3277136e-15 -1.2636287e-14 6.2629307e-15 -6.4694195e-15 -3.731742e-15 5.030277e-15 -8.217506e-15 -1.4054897e-15
-1.0839074e-14 -4.4563975e-15 -9.369327e-15 1.2987613e-14 1.3831587e-15 -5.635728e-15 7.593758e-15 7.3052475e-15
4.1750915e-15 -2.316011e-15 1.1801169e-14 5.2544126e-15 4.414676e-15 1.041166e-14 1.4706864e-16 -7.897441e-15
-3.878689e-15 7.30121e-15 5.5070986e-15 3.0861978e-15 -5.028376e-15 -6.9416552e-15 6.6621674e-15 -1.0237324e-14
-3.315309e-15 -2.290968e-15 -9.211236e-15 2.251181e-15 -5.6558385e-15 -3.098692e-15 3.3285625e-15 -8.5650235e-15
-4.6337776e-15 1.3892353e-15 1.1465731e-14 -4.853139e-15 -1.1339066e-14 -9.829766e-15 3.0760586e-15 -1.9179922e-15
8.976551e-15 8.2252456e-15 9.8064875e-15 -4.8423345e-15 8.503543e-15 -7.2230396e-15 -6.845231e-15 -3.454127e-15
-6.712313e-15 1.2592475e-15 -2.6164975e-15 7.872731e-18 -1.1720237e-14 -1.0061813e-14 -4.375677e-15 -8.105796e-15
8.816971e-15 3.3595984e-15 1.1381978e-14 7.525104e-15 1.026316e-14 -1.1968315e-14 1.0226746e-14 7.922911e-15
-5.2733675e-15 -1.1828261e-14 -1.076561e-14 -5.277453e-15 -1.4741722e-15 -5.0167127e-15 4.6875375e-15 8.310081e-15
7.750965e-15 -7.796665e-15 -1.1967357e-15 -6.9377445e-15 1.1907164e-14 -7.2441044e-15 -5.4020865e-15 3.360162e-15
1.2144014e-15 -5.0450943e-15 1.1762484e-14 1.9626749e-15 9.228213e-15 9.823263e-15 5.192242e-15 1.5550266e-15
9.061593e-15 -6.9428834e-16 8.131718e-16 7.0193125e-15 1.0185012e-14 4.4151173e-15 -1.0575346e-14 4.1134406e-15
-1.1087242e-15 8.307933e-15 -8.123575e-15 1.0423965e-16 -1.2523006e-14 -1.2167802e-14 1.2333929e-14 5.5005477e-15
-3.4938502e-15 1.7659243e-16 -7.799177e-15 -9.8414505e-15 6.389165e-15 -8.3193315e-15 1.1558376e-14 2.6195557e-15
1.0305561e-14 1.5463124e-16 -7.428893e-15 -1.0329144e-14 9.684237e-16 2.8250364e-15 1.6511874e-15 -1.6252769e-15
1.9293066e-15 -9.391726e-15 1.5344451e-15 -1.2224937e-14 1.3091457e-14 -1.2790957e-14 6.8201966e-15 5.9253152e-15
4.5037568e-15 -6.6334682e-15 -8.628467e-16 -5.2065345e-15 3.154992e-15 7.927586e-15 -7.2094955e-15 2.4123539e-15
-9.9050855e-15 -7.756053e-15 -5.1365234e-15 -6.5129117e-15 1.8110188e-16 5.9713006e-16 -5.7553555e-15 -4.2285354e-15
-3.0790984e-15 -1.2081897e-15 -3.716503e-15 -5.156076e-15 -1.0952005e-14 1.107648e-14 8.6234055e-17 2.5387003e-15
00000000: 1909 12a8 b6bc 36a8 5695 48a7 fed8 c126
00000010: 75d2 5128 a020 54a7 d585 29a8 35ae 04a8
00000020: 8649 2c28 d038 8727 5fe4 db27 35eb 8227
00000030: e25e 2628 b039 d3a7 84f3 09a8 b096 3628
00000040: e449 32a7 ff6a fca7 b9a7 9727 a7ef 4b27
00000050: ec71 ed27 0a04 f7a7 aa1b e027 4c6e 4327
00000060: 2f45 4ea7 b01a 2ba8 5cb6 8827 82bf 1aa8
00000070: 118a f8a7 35b6 1b28 8466 42a8 1ba5 74a7
00000080: 5156 ef27 c3c3 daa7 97f8 e024 b5ff 1328
00000090: bb4d 6f27 0a66 d0a5 e002 0928 2cdd 2aa8
000000a0: 9c15 1928 1446 5a26 b9eb 8525 e4ae 96a7
000000b0: ef96 7a27 57ee 4928 6fe0 1d28 4c8a 6d23
000000c0: 6475 02a8 235a 42a8 f4e2 e4a5 6083 7ba7
000000d0: 8d05 4f28 094b 3b27 ae89 6f27 82b5 5fa8
000000e0: 1f5d eb25 baae 3228 4e0f 4ca8 fb64 9c27
000000f0: 82ff c327 b09d 90a7 417d 4f28 9fb0 1428
00000100: 9257 4ea8 6552 09a7 a0dd 0328 d187 22a8
00000110: 73f3 4b28 207d 0927 55c0 b3a6 75d2 8b27
00000120: 2cf9 2228 8c8f 4028 3e19 cea7 a75d 1827
00000130: b647 bf27 08e8 0028 815a aca7 ac60 22a7
00000140: 4acf d027 bfce 2aa4 447a 15a8 df57 2c27
00000150: 9677 0028 802e dba7 0e32 e7a7 470d 33a7
00000160: 13bc f327 78fa 2728 bc81 24a8 788c c7a6
00000170: 30c0 4427 024e 5928 4a57 1928 5795 6328
00000180: 7cf3 bf27 97a2 63a8 57a5 e127 dd15 e9a7
00000190: 3f73 86a7 1e3c b527 8f08 14a8 6b8d caa6
000001a0: 6842 43a8 038f a0a7 65c8 28a8 cbf6 6928
000001b0: 8d55 c726 6b0c cba7 07cc 0828 8299 0328
000001c0: 6c6c 9627 dde2 26a7 4997 5428 674f bd27
000001d0: 330e 9f27 4f8f 3b28 008f 2925 8544 0ea8
000001e0: 97be 8ba7 e386 0328 056a c627 4d62 5e27
000001f0: 952a b5a7 7819 faa7 a607 f027 536b 38a8
00000200: a8e4 6ea7 e614 25a7 54ef 25a8 f636 2227
00000210: e7c5 cba7 c748 5fa7 24d9 6f27 334b 1aa8
00000220: 0ef3 a6a7 bc35 c826 5a8c 4e28 4eda aea7
00000230: 3644 4ca8 cb13 31a8 44a7 5d27 b634 0aa7
00000240: 09b5 2128 402c 1428 71a8 3028 a776 aea7
00000250: ac2f 1928 641e 02a8 1da0 f6a7 66e5 78a7
00000260: 29d6 f1a7 087a b526 dc89 3ca7 ec39 1123
00000270: 0e22 53a8 ec41 35a8 7fa6 9da7 6305 12a8
00000280: 1ad5 1e28 a715 7227 1c0a 4d28 6b8f 0728
00000290: 79e2 3828 1c9a 57a8 8b3a 3828 fab9 0e28
000002a0: 3bfe bda7 3a14 55a8 9def 41a8 ea23 bea7
000002b0: 5b73 d4a6 02bf b4a7 e7e2 a827 7cb3 1528
000002c0: 04a1 0b28 c573 0ca8 c177 aca6 66f5 f9a7
000002d0: 1a80 5628 897f 02a8 74a1 c2a7 0c20 7227
000002e0: 8103 af26 c8c4 b5a7 e2e4 5328 f66c 0d27
000002f0: 9f3d 2628 cef5 3028 fb11 bb27 5b1a e026
00000300: 393d 2328 701d 48a6 7d61 6a26 bbe5 fc27
00000310: 147a 3728 4512 9f27 2d82 3ea8 cb33 9427
00000320: b4c8 9fa6 94a9 1528 6157 12a8 3b5c f024
00000330: 2c98 61a8 1532 5ba8 3530 5e28 992d c627
00000340: 29c2 7ba7 e398 4b25 5b7f 0ca8 ae49 31a8
00000350: a531 e627 25de 15a8 9a37 5028 46c2 3c27
00000360: 03a6 3928 1647 3225 b9d3 05a8 c512 3aa8
00000370: 8790 8b26 b990 4b27 10f6 ed26 223a eaa6
00000380: 6d05 0b27 b12f 29a8 0823 dd26 9239 5ca8
00000390: b0d5 6b28 e16b 66a8 36b9 f527 637b d527
000003a0: d343 a227 f2fe eea7 d9b2 78a6 ce95 bba7
000003b0: 5457 6327 8acf 0e28 eedf 01a8 13d4 2d27
000003c0: 256f 32a8 7bb8 0ba8 1110 b9a7 02a7 eaa7
000003d0: d7cb 5025 6c1c 2c26 c95b cfa7 5b59 98a7
000003e0: 57df 5da7 551e aea6 b1e6 85a7 68c4 b9a7
000003f0: 354b 45a8 3f89 4728 9ad7 c624 c1ee 3627

mixer_1.PatchMixer.mlp.0.bias f4 [48]
-4.4174055e-16 -3.8687425e-15 -6.7470003e-15 -1.1201512e-14 5.703853e-15 -1.123632e-14 -9.410622e-16 -1.1410584e-14
1.1862904e-14 6.3986584e-15 -6.5795863e-15 1.017761e-14 -2.8172983e-15 -1.0355256e-14 -6.5855812e-15 -7.144512e-15
-1.1879035e-14 -1.1565597e-14 8.59422e-15 -7.178827e-15 -8.297921e-15 1.0719551e-14 3.216221e-15 -4.7779638e-15
2.4616605e-15 -1.1270202e-14 -3.436126e-15 9.306434e-15 8.242329e-15 7.988258e-15 5.030892e-16 4.231587e-15
7.904058e-15 -7.489381e-15 6.4340716e-15 1.0484398e-14 -1.4450116e-15 -3.897796e-15 9.0270165e-15 -7.546769e-15
-1.2023175e-14 1.1317715e-14 4.3274456e-15 6.062561e-15 -1.2297401e-15 -2.1102545e-16 -1.059218e-15 4.7093033e-15
00000000: 66a5 fea5 da62 8ba7 1816 f3a7 dbc9 49a8
00000010: c280 cd27 616a 4aa8 119f 87a6 088e 4da8
00000020: fdb3 5528 3589 e627 f90d eda7 f157 3728
00000030: fb01 4ba7 308b 3aa8 4445 eda7 3fb4 00a8
00000040: 61fe 55a8 e758 50a8 d8d1 1a28 7f52 01a8
00000050: 687b 15a8 341b 4128 cec0 6727 f024 aca7
00000060: 9f61 3127 a206 4ba8 5699 77a7 5aa6 2728
00000070: 097b 1428 56e7 0f28 6e01 1126 8075 9827
00000080: 0963 0e28 acea 06a8 d6cf e727 c0de 3c28
00000090: 853f d0a6 d36e 8ca7 c49d 2228 54f3 07a8
000000a0: 1c97 58a8 bfe1 4b28 a4e9 9b27 416d da27
000000b0: 6739 b1a6 b84b 73a5 3fa6 98a6 a8ab a927

mixer_1.PatchMixer.mlp.2.weight f4 [48, 48]
1.4596546e-15 -8.326699e-16 -8.301963e-15 4.444098e-15 6.2196113e-15 -1.2798074e-14 -3.516906e-15 -9.529997e-15
3.1768369e-15 7.5254126e-15 9.272186e-16 1.0894395e-14 9.164695e-15 -7.0287103e-15 1.3313887e-14 1.1575526e-15
5.7796167e-15 1.6274554e-15 8.34787e-15 -6.2041237e-15 3.6763373e-15 3.8649567e-15 1.2107378e-14 1.1931867e-14
-4.860368e-15 -3.2842154e-16 5.7197525e-16 1.8880377e-15 2.0754548e-15 7.3264445e-15 4.2113708e-16 -1.1176244e-14
-1.05449884e-14 -1.1108612e-14 6.1288865e-15 -9.694669e-15 -1.3617855e-15 -4.5321565e-15 -6.412614e-15 -7.207471e-15
-2.9752109e-15 5.299128e-16 -7.798712e-15 4.723109e-15 1.3423657e-14 -1.14624505e-14 5.683783e-15 -8.37947e-15
-6.136975e-15 3.138863e-16 -7.427629e-16 -4.2376563e-15 4.401151e-15 6.0561297e-15 3.763482e-15 -6.755202e-16
-8.26837e-15 -6.2393307e-15 1.142293e-14 9.4689085e-15 -5.463165e-15 8.831116e-15 -9.581039e-15 7.771944e-15
-3.3376368e-15 -1.1511876e-14 -6.4666527e-15 1.0075118e-14 7.080637e-15 1.0718333e-14 1.1295315e-14 -7.431888e-15
-4.893738e-15 -1.1839142e-14 4.893002e-15 -1.0619597e-14 5.0982913e-16 -5.8100264e-15 -1.20511765e-14 1.11652105e-14
1.0334969e-14 -2.4374868e-15 5.7768913e-15 -1.0797339e-15 5.3580484e-15 2.6970063e-15 -8.984842e-15 1.198013e-14
-9.640471e-15 3.4277312e-15 -5.389838e-15 -1.24849175e-14 1.1307036e-14 -4.578066e-15 4.8911668e-15 1.2880218e-15
2.9763361e-15 5.2379326e-16 2.685459e-15 -3.703332e-15 9.928579e-15 -4.4779883e-15 -4.2016464e-15 3.295989e-15
2.9259497e-15 -1.1931211e-14 7.040668e-15 -1.1578487e-14 6.3682893e-15 6.365946e-16 -2.6207396e-15 -1.6669652e-15
1.1557789e-14 7.767729e-15 -4.4122548e-15 -8.732196e-15 -1.8935779e-16 -1.0134197e-14 6.9166085e-15 1.2059519e-14
-2.0890482e-15 2.8553212e-15 -5.278763e-15 1.1198314e-14 -1.007271e-14 4.44777e-15 -4.24476e-15 -5.4717007e-15
-1.03727155e-14 7.66492e-15 9.007732e-15 -8.895422e-15 9.952499e-15 -9.966555e-15 1.1375605e-14 -1.0183903e-14
-8.128155e-15 -4.052898e-15 -8.938583e-15 -4.7794025e-15 2.7704658e-15 1.6032395e-15 -7.839379e-15 1.1186417e-15
-1.06939815e-14 1.1576047e-15 1.1691534e-14 6.342023e-15 1.20891244e-14 -2.23727e-16 -1.00193494e-14 -1.1013368e-14
-1.0234023e-14 -1.0344772e-14 -9.1409255e-15 9.249321e-15 -1.25321015e-14 4.440719e-15 1.7419841e-16 7.270349e-15
-4.9070366e-16 7.532061e-15 -7.720229e-15 1.299631e-17 9.287803e-15 -1.30863685e-14 5.2553067e-15 -9.172439e-15
1.0473567e-14 8.958546e-15 1.335887e-15 -2.8395227e-15 6.7036182e-15 -6.037747e-15 -3.179861e-15 6.23034e-15
-2.4066035e-16 1.15322596e-14 1.1139775e-14 1.9165035e-15 7.0323703e-15 -1.2850988e-14 1.21965706e-14 2.1816367e-15
3.1639668e-15 1.371599e-14 -9.87371e-16 1.0371461e-14 1.1622932e-14 -3.0284073e-15 -2.6311367e-15 -3.5950514e-15
-4.3745203e-15 7.3118315e-15 5.384438e-15 2.4949885e-15 6.4568593e-15 -1.3136675e-15 4.9510825e-15 -1.5769667e-15
7.764314e-16 -3.711326e-15 6.0326195e-15 1.13245095e-14 7.56468e-15 2.1950116e-15 1.01220115e-14 -1.1183217e-14
1.22569835e-14 1.9671008e-15 5.383958e-15 6.2834314e-15 8.417314e-15 -6.849023e-15 4.1689975e-15 -6.562917e-15
1.0289084e-14 2.5728126e-15 1.0254673e-14 3.741317e-15 7.737777e-15 2.90581e-15 -1.0195278e-14 1.07531375e-14
8.555754e-15 -1.1592671e-14 1.8124872e-15 9.218158e-15 -6.7272255e-15 1.219367e-14 2.6988185e-15 -2.5264782e-15
8.621948e-15 -2.7104345e-15 -5.1879154e-15 -9.3136406e-15 -1.1025845e-14 2.2783723e-15 -1.0506198e-14 5.5986595e-15
-8.2443e-15 1.0021242e-14 -8.3659445e-15 9.2094165e-15 -2.6795955e-15 -8.220639e-15 4.724797e-16 -1.16772496e-14
1.2356572e-15 5.332974e-15 1.6852439e-15 -1.0407538e-14 3.584978e-15 9.603942e-15 -8.329158e-15 -1.120941e-14
00000000: c05b d226 3200 70a6 0c8e 15a8 921d a027
00000010: ca15 e027 b38c 66a8 776b 7da7 5bad 2ba8
00000020: 4cea 6427 d790 0728 54a0 8526 8741 4428
00000030: b218 2528 693c fda7 77d7 6f28 27d2 a626
00000040: 8e3b d027 828a ea26 c161 1628 f186 dfa7
00000050: 3a74 8427 ef3f 8b27 6d1b 5a28 06f2 5628
00000060: fb1c afa7 7752 bda5 53dc 2426 260c 0827
00000070: 628d 1527 43fb 0328 ddc4 f225 5455 49a8
00000080: 2df6 3da8 6e1d 48a8 00d1 dc27 c5a4 2ea8
00000090: 0441 c4a6 c449 a3a7 ed09 e7a7 98d6 01a8
000000a0: f462 56a7 aabc 1826 367d 0ca8 fe2a aa27
000000b0: b1d1 7128 397d 4ea8 a5c7 cc27 7cf3 16a8
000000c0: 9b1b dda7 71f1 b425 3a16 56a6 7bad 98a7
000000d0: 7491 9e27 f031 da27 ff97 8727 98b4 42a6
000000e0: 20f3 14a8 abcb e0a7 f7c6 4d28 a293 2a28
000000f0: ced4 c4a7 5616 1f28 be98 2ca8 c401 0c28
00000100: 8880 70a7 2861 4fa8 58fc e8a7 487f 3528
00000110: 591b ff27 9615 4128 727a 4b28 89e1 05a8
00000120: c450 b0a7 6846 55a8 fa49 b027 3f4e 3fa8
00000130: c0f2 1226 0954 d1a7 3e18 59a8 7222 4928
00000140: a22d 3a28 b2a3 2fa7 6b22 d027 269b 9ba6
00000150: 460b c127 fc56 4227 45db 21a8 99d0 5728
00000160: d3aa 2da8 7bfe 7627 7b30 c2a7 85e8 60a8
00000170: 80b0 4b28 35f1 a4a7 0d39 b027 9e9f b926
00000180: b677 5627 1ff9 1626 fa81 4127 356d 85a7
00000190: 7ddb 3228 2756 a1a7 5961 97a7 4480 6d27
000001a0: 3fd6 5227 00ef 56a8 b3aa fd27 5994 50a8
000001b0: 1a71 e527 647c 3726 1dd8 3ca7 293c f0a6
000001c0: e534 5028 54ee 0b28 def7 9ea7 254e 1da8
000001d0: 8e50 5aa5 bc8f 36a8 7432 f927 b73e 5928
000001e0: 2388 16a7 61bf 4d27 ff2f bea7 1cbb 4928
000001f0: 2d74 35a8 703f a027 00ef 98a7 8823 c5a7
00000200: b5db 3aa8 3414 0a28 d544 2228 e53e 20a8
00000210: cd49 3328 9f8a 33a8 b8ec 4c28 f774 37a8
00000220: 806c 12a8 6305 92a7 f005 21a8 3532 aca7
00000230: 13a2 4727 190d e726 c138 0da8 9836 a126
00000240: 49a5 40a8 13d4 a626 af9d 5228 d67e e427
00000250: 3fc7 5928 47f8 80a5 187e 34a8 3266 46a8
00000260: 1a5c 38a8 d75a 3aa8 14ab 24a8 f79e 2628
00000270: 1ec2 61a8 67fe 9f27 4cd6 4825 91f8 0228
00000280: 8a6f 0da6 80af 0728 4613 0ba8 57bd 6f23
00000290: 6e50 2728 39be 6ba8 a657 bd27 693c 25a8
000002a0: cdac 3c28 0062 2128 8885 c026 f39b 4ca7
000002b0: f785 f127 6388 d9a7 1522 65a7 be78 e027
000002c0: 33bb 8aa5 29bf 4f28 25ad 4828 4019 0a27
000002d0: 2b5e fd27 b980 67a8 c1b6 5b28 1834 1d27
000002e0: e3fc 6327 d715 7728 8f4b 8ea6 ecd5 3a28
000002f0: 5061 5128 4138 5aa7 e897 3da7 7f86 81a7
00000300: d49b 9da7 dfb7 0328 adfe c127 6ac8 3327
00000310: 04a2 e827 c751 bda6 ad61 b227 cd43 e3a6
00000320: 86ca 5f26 f1b6 85a7 1859 d927 1501 4c28
00000330: ee45 0828 d12a 1e27 8a57 3628 7c75 49a8
00000340: 5ccd 5c28 9bbe 0d27 3ffa c127 6d62 e227
00000350: 02a2 1728 16c3 f6a7 3734 9627 3a74 eca7
00000360: 065a 3928 0464 3927 55bb 3828 8fcb 8627
00000370: 3364 0b28 bc62 5127 6ca9 37a8 18b6 4128
00000380: 7320 1a28 c2d5 50a8 7d9a 0227 400f 2628
00000390: b45f f2a7 61a9 5b28 6a78 4227 4c0d 36a7
000003a0: b851 1b28 b14e 43a7 13ea baa7 96c7 27a8
000003b0: bc9f 46a8 8d2c 2427 4943 3da8 85b6 c927
000003c0: 1f84 14a8 d286 3428 1cb5 16a8 f0e6 2528
000003d0: d015 41a7 0217 14a8 d92e 0826 cf5b 52a8
000003e0: b413 b226 0124 c027 87de f226 4c7c 3ba8
000003f0: 9629 8127 5d02 2d28 760b 16a8 48ee 49a8

mixer_1.PatchMixer.mlp.2.bias f4 [48]
7.5811e-15 9.585423e-15 -5.9542266e-15 -5.48043e-15 -7.338164e-16 7.3037965e-15 -5.259508e-15 1.1548876e-14
-9.099041e-15 1.9133856e-15 6.2924693e-15 -6.2923947e-15 3.319194e-15 -1.1237796e-15 8.959646e-15 3.879721e-15
-2.1350596e-15 -4.5379197e-15 -3.063256e-16 5.282884e-15 2.8698256e-15 -3.406645e-16 3.9517534e-15 -4.6646096e-15
-1.2719456e-14 -1.0246085e-14 1.15384e-14 1.35781186e-14 -7.130668e-15 -1.0843777e-14 9.00739e-15 -3.7316295e-15
5.373922e-15 -6.2576655e-15 1.2214092e-14 6.8413386e-15 -1.22606655e-14 3.455201e-15 -1.0934669e-14 3.8741357e-16
6.6167876e-15 -5.5460864e-16 -1.2464637e-14 7.49871e-15 1.2242724e-15 -8.5253e-15 -1.0735529e-14 2.7891967e-15
00000000: a791 0828 f6ac 2c28 0c86 d6a7 0b74 c5a7
00000010: 1882 53a6 d192 0328 667e bda7 ca0b 5028
00000020: ece9 23a8 bcdf 0927 c9b5 e227 19b5 e2a7
00000030: 522c 6f27 26f4 a1a6 1367 2128 1cc8 8b27
00000040: e6d8 19a7 ec7e a3a7 ae95 b0a5 0156 be27
00000050: f0ca 4e27 3561 c4a5 7e60 8e27 6e0f a8a7
00000060: 2322 65a8 ba93 38a8 7adb 4f28 059a 7428
00000070: 6774 00a8 1858 43a8 4143 2228 3572 86a7
00000080: af9d c127 c774 e1a7 8f07 5c28 367c f627
00000090: 57de 5ca8 35f9 7827 43fb 44a8 2754 df25
000000a0: 1865 ee27 e5da 1fa6 fe8a 60a8 b215 0728
000000b0: ae6f b026 0294 19a8 e464 41a8 99fb 4827

mixer_1.Self_Attention_0.q.weight f4 [48, 48]
6.868968e-15 -7.0899643e-15 1.0657248e-15 -5.5868442e-15 -5.388028e-16 -4.5329125e-15 1.9291144e-15 4.0985063e-16
1.1337355e-14 9.176559e-15 6.3872645e-15 -4.2503947e-16 -1.00471575e-14 -2.3281922e-15 -1.855386e-15 -9.587471e-15
2.810268e-15 -1.0675485e-14 1.1180037e-15 4.5688385e-15 1.0527141e-14 -3.7598607e-15 9.213415e-15 1.1709682e-14
-1.0824378e-14 -1.3377952e-15 4.5853735e-15 5.0745286e-15 -3.8485476e-15 1.552023e-15 6.6388532e-15 -5.618513e-15
-1.2658076e-15 1.1530364e-14 -7.498116e-15 5.678312e-15 1.5784378e-16 6.701169e-15 1.217655e-15 -2.0253631e-15
-7.963715e-15 -6.748135e-15 1.5288804e-15 -7.021527e-15 8.410615e-15 -7.619001e-15 8.518376e-15 -1.1155104e-14
-6.1713813e-15 -1.1174928e-14 -2.2834505e-15 -4.1425383e-15 -3.936477e-15 5.3157285e-15 -6.8966863e-15 4.0362484e-15
3.8519977e-16 -7.34835e-15 3.9620568e-15 -6.991291e-15 1.1333583e-14 9.2875265e-15 3.440014e-15 -5.5034445e-15
5.925908e-15 -9.387868e-15 2.1602074e-15 4.498415e-15 -2.2189663e-15 -8.841855e-15 4.732623e-15 -8.275188e-15
-8.2303635e-16 -4.5219815e-15 -1.132111e-14 3.6293503e-15 5.2900477e-15 8.802819e-15 7.499072e-15 2.89083e-15
3.286382e-15 -4.7146595e-16 6.1896983e-15 -1.0706555e-15 1.1768546e-14 1.0965799e-14 1.4338582e-15 4.5881085e-15
-4.6528277e-16 9.3640695e-15 -1.6079957e-15 8.882528e-15 3.3541128e-15 9.6052655e-15 1.1632069e-16 1.2039705e-14
-2.0852926e-15 1.1657647e-14 -1.1538259e-14 7.192504e-15 5.782223e-15 3.747619e-15 -7.261984e-15 -5.02163e-15
8.2173106e-15 -6.117327e-16 1.0941598e-14 -2.884e-15 1.1644719e-14 -8.714648e-16 9.82044e-15 4.0759166e-15
-1.4774015e-15 9.932052e-15 2.912815e-15 -1.0612929e-14 -8.922845e-15 -7.8003375e-16 7.1036503e-15 7.255702e-15
-1.2224937e-14 1.1700787e-14 1.8111892e-15 -9.52229e-15 -1.2158551e-14 1.15549685e-14 1.1659713e-14 4.3814664e-15
-8.465606e-15 -1.3997574e-16 -3.5025683e-15 -6.5844504e-15 -7.975186e-16 -1.86516e-15 -2.437328e-15 1.1879328e-14
2.4003268e-15 8.60531e-15 -1.765708e-15 -3.7024107e-15 4.5298636e-15 4.7656e-15 -1.0191208e-14 -1.209548e-14
-9.899151e-15 -2.8530628e-15 3.0723069e-15 1.680859e-15 -8.543948e-15 6.2646434e-15 1.16696085e-14 -3.026723e-15
-8.965135e-15 3.9572676e-15 -8.616852e-15 -1.2316191e-14 4.65209e-15 -1.1702646e-14 3.724871e-15 -5.4913625e-15
8.738636e-15 1.114116e-14 3.0772038e-15 1.1337228e-14 -1.1856724e-14 -1.3721504e-15 -7.494391e-15 -7.912725e-15
1.9279281e-16 -8.784917e-15 9.171165e-15 -1.4705339e-16 -7.0205246e-15 -6.5647285e-15 -2.0278934e-15 3.5764446e-15
6.223306e-15 -5.856891e-15 -6.308082e-15 5.462417e-15 -4.856791e-15 -4.139167e-15 -2.9934335e-15 7.797047e-15
2.628615e-16 4.6329564e-15 3.7279936e-15 -1.203162e-14 9.431448e-15 -8.214604e-15 6.483796e-15 7.4524474e-15
-1.6430472e-15 -1.0061482e-14 -6.4866312e-15 -8.936032e-15 6.696869e-15 -5.660775e-15 8.289974e-15 -1.2391099e-14
2.219381e-15 -9.122336e-15 -9.124899e-15 -8.29663e-15 5.2061427e-15 -4.2776354e-15 1.2021154e-14 -7.6609175e-15
-4.9766383e-16 -9.013902e-15 -1.7902238e-15 -3.8491286e-15 4.8395037e-15 2.4501751e-16 -7.309326e-15 -1.07569025e-14
2.907999e-15 4.8681207e-15 -9.672789e-18 -3.025786e-15 2.299344e-15 -1.1196938e-14 1.03341975e-14 5.310819e-15
8.387237e-15 -1.2157755e-14 3.3723996e-15 -4.8575218e-15 -1.05100145e-14 -1.0456008e-14 8.913913e-15 -1.1658669e-14
1.2139848e-14 1.0463328e-14 8.0196105e-15 -1.111376e-14 -9.632466e-15 -9.585323e-15 3.9382644e-15 4.412841e-15
4.3524274e-16 -1.0292334e-15 1.1734018e-14 8.817089e-15 -8.822067e-15 1.0743335e-14 1.0736201e-15 5.1641253e-15
-9.291501e-15 -6.2290744e-15 -1.2430124e-14 -3.6954946e-15 -1.0140307e-14 -9.511607e-15 -5.91934e-15 4.5066816e-15
00000000: 0c7b f727 6171 ffa7 4e96 9926 8b49 c9a7
00000010: a14c 1ba6 bd50 a3a7 e101 0b27 4743 ec25
00000020: 523c 4c28 694f 2528 1e20 e627 c104 f5a5
00000030: 56fe 34a8 91c3 27a7 d5b1 05a7 68b6 2ca8
00000040: 4b80 4a27 fc4f 40a8 0e1f a126 199c a427
00000050: dea3 3d28 9876 87a7 61f9 2528 60f1 5228
00000060: a2fe 42a8 eecb c0a6 9b34 a527 44d4 b627
00000070: 96a8 8aa7 8bab df26 9d30 ef27 a36d caa7
00000080: 0f6c b6a6 6bb6 4f28 f512 07a8 2f95 cc27
00000090: 43fb 3525 606f f127 8a7b af26 5bf1 11a7
000000a0: 2776 0fa8 8f20 f3a7 bb55 dc26 28fa fca7
000000b0: 1e83 1728 7140 09a8 1374 1928 d6f3 48a8
000000c0: f258 dea7 424f 49a8 3a8a 24a7 2c40 95a7
000000d0: 98d3 8da7 f184 bf27 b47a f8a7 d26b 9127
000000e0: 740d de25 4860 04a8 86bf 8e27 47e3 fba7
000000f0: ed2a 4c28 284f 2728 0fe1 7727 5148 c6a7
00000100: db80 d527 e61d 29a8 cba8 1b27 8e12 a227
00000110: b4e4 1fa7 dc47 1fa8 be82 aa27 9212 15a8
00000120: 5d39 6da6 ebeb a2a7 68f1 4ba8 d9c2 8227
00000130: 1498 be27 d693 1e28 5e17 0728 674e 5027
00000140: 0ccf 6c27 0ce4 07a6 e401 df27 374c 9aa6
00000150: d700 5428 d28a 4528 08a4 ce26 d54d a527
00000160: cf1b 06a6 26b0 2828 92bc e7a6 6e03 2028
00000170: 76b0 7127 7808 2d28 cf1b 0625 57e3 5828
00000180: dc42 16a7 6801 5228 d4da 4fa8 9291 0128
00000190: 9853 d027 af05 8727 fdd1 02a8 5dec b4a7
000001a0: a807 1428 e851 30a6 371b 4528 69d0 4fa7
000001b0: cac5 5128 c12e 7ba6 c9e8 3028 b2d9 9227
000001c0: 7fea d4a6 81eb 3228 f4e3 5127 7f2f 3fa8
000001d0: 5cbd 20a8 55d4 60a6 9cef ff27 05b5 0228
000001e0: 9239 5ca8 5bc8 5228 8b82 0227 d089 2ba8
000001f0: 6b07 5ba8 e327 5028 ef0a 5228 e5db 9d27
00000200: b880 18a8 8c61 21a5 fb62 7ca7 d63a eda7
00000210: 7cde 65a6 2166 06a7 c4a0 2fa7 bbff 5528
00000220: 37f6 2c27 fd04 1b28 2177 fea6 b664 85a7
00000230: 9e34 a327 e7b2 ab27 a796 37a8 8ee4 59a8
00000240: c753 32a8 b895 4da7 0f62 5d27 c03c f226
00000250: 01ea 19a8 23b5 e127 9238 5228 2f19 5aa7
00000260: 6380 21a8 5a93 8e27 373a 1ba8 68de 5da8
00000270: f59b a727 eed0 52a8 df33 8627 e1d8 c5a7
00000280: d86b 1d28 88b3 4828 64bc 5d27 bc3b 4c28
00000290: 7d97 55a8 6abf c5a6 c701 07a8 018b 0ea8
000002a0: 6546 5e25 4741 1ea8 8936 2528 808a 29a5
000002b0: e9f0 fca7 ef84 eca7 0820 12a7 e1da 8027
000002c0: de37 e027 4904 d3a7 ca45 e3a7 e7cd c427
000002d0: fefb aea7 1421 95a7 1ab3 57a7 8875 0c28
000002e0: 8387 9725 7beb a627 ac50 8627 0ebe 58a8
000002f0: e0e6 2928 2dfb 13a8 769a e927 5940 0628
00000300: bec9 eca6 6540 35a8 9db4 e9a7 2dfa 20a8
00000310: b747 f127 6ff3 cba7 c256 1528 dc37 5fa8
00000320: 5aec 1f27 5955 24a8 2b61 24a8 7475 15a8
00000330: 3192 bb27 391e 9aa7 ca8d 5828 bf01 0aa8
00000340: 1c71 0fa6 4961 22a8 cdff 00a7 f2ad 8aa7
00000350: 8b5c ae27 343e 8d25 51ac 03a8 75c7 41a8
00000360: 1d8b 5127 7d64 af27 746e 32a3 e607 5aa7
00000370: 69af 2527 c3b4 49a8 132a 3a28 a957 bf27
00000380: 4e17 1728 c003 5ba8 cb01 7327 bb02 afa7
00000390: e354 3da8 d35b 3ca8 2b94 2028 1f06 52a8
000003a0: 2bb1 5a28 957d 3c28 ed77 1028 2c35 48a8
000003b0: e985 2da8 80ac 2ca8 14e4 8d27 46fd 9e27
000003c0: 7ee6 fa25 0354 94a6 9b61 5328 a5d5 1e28
000003d0: 9aec 1ea8 e388 4128 97b9 9a26 a60e ba27
000003e0: 7c61 27a8 126d e0a7 d4eb 5fa8 ec24 85a7
000003f0: e9ab 36a8 8c58 2ba8 4644 d5a7 cd5e a227

mixer_1.Self_Attention_0.q.bias f4 [48]
-1.1632752e-14 3.5011239e-15 -1.1104703e-14 -1.5292671e-15 -3.3918278e-15 -9.718336e-15 -7.3574446e-16 -1.0719692e-14
-5.1638817e-15 -7.759434e-15 9.412503e-15 -1.0523735e-15 3.8251063e-15 2.498404e-16 2.9980527e-16 4.8002204e-16
5.3363817e-15 -1.3927147e-15 -7.17598e-15 -8.81634e-15 3.065595e-16 -1.9670962e-15 4.300344e-15 7.383015e-15
-8.957168e-15 -1.20622066e-14 9.0988355e-15 1.8731736e-15 4.3772808e-15 2.2307684e-15 5.3700445e-15 -5.362674e-15
-9.637307e-15 4.7328744e-16 -1.1316412e-14 -4.6160386e-15 -3.4916265e-15 -9.4913676e-15 1.1906838e-14 -4.165947e-15
2.775758e-15 -1.23971285e-14 -1.2300055e-14 2.9329035e-16 -9.018896e-15 -5.9099064e-15 1.1318828e-14 4.1562945e-15
00000000: 9a8e 51a8 5648 7c27 670b 48a8 ff63 dca6
00000010: 2e68 74a7 ea11 2fa8 5c10 54a6 db1b 41a8
00000020: 670c baa7 13c8 0ba8 828f 2928 bba9 97a6
00000030: 61d0 8927 ef05 9025 73d3 ac25 605b 0a26
00000040: 6f43 c027 1ab6 c8a6 5e45 01a8 31d2 1ea8
00000050: 32b8 b025 85be 0da7 acef 9a27 2600 0528
00000060: a55b 21a8 1c4b 59a8 f9e8 2328 f4f9 0627
00000070: 4ab5 9d27 6abe 2027 eb79 c127 f035 c1a7
00000080: 3c9c 2da8 736a 0826 bddb 4ba8 714f a6a7
00000090: 2499 7ba7 35fb 2aa8 997e 5628 1418 96a7
000000a0: b303 4827 aa53 5fa8 fe93 5da8 0412 a925
000000b0: 5178 22a8 44ed d4a7 e1e6 4b28 0dbf 9527

mixer_1.Self_Attention_0.k.weight f4 [48, 48]
-1.0357345e-14 4.1082534e-15 1.1408785e-15 -8.243785e-15 1.7044725e-15 3.9008125e-15 -7.1201784e-15 2.610584e-15
4.030678e-15 -4.3764215e-15 -4.9256677e-15 -6.070622e-15 1.0669602e-14 3.2182043e-15 1.1992443e-14 -4.3737575e-15
-4.224711e-15 9.650011e-15 1.2289946e-14 -5.912421e-15 -3.0712985e-15 -5.7192948e-15 -1.1067461e-14 6.430824e-15
9.459418e-16 1.0278687e-14 4.4203706e-15 1.3141457e-15 -5.093593e-15 -6.7996146e-15 -7.697673e-15 1.2281981e-14
-4.486934e-15 2.1659676e-15 -8.55341e-15 -1.128611e-14 -9.230991e-15 5.365423e-15 1.0400365e-14 -9.114075e-15
1.0182981e-14 5.290414e-16 -5.371794e-15 -1.1380016e-14 6.220827e-15 1.1821739e-14 -4.6335248e-15 -1.0562388e-14
-5.722374e-15 1.0991269e-14 3.2363297e-15 1.0382616e-14 -4.118227e-15 -2.8220328e-15 -2.8049782e-15 9.664592e-15
-1.0589939e-14 -3.9231678e-15 1.086366e-14 -1.0321432e-14 5.634749e-15 5.7593306e-15 -1.0041849e-14 9.284866e-15
6.2301213e-15 5.149043e-15 -9.3793474e-15 -6.993654e-15 1.0902927e-14 6.2770817e-15 -5.4679627e-15 -1.14993235e-14
-8.222469e-15 2.3886535e-15 -5.0284378e-15 -5.2190096e-15 9.576842e-15 9.643117e-15 -1.3932193e-15 1.15808225e-14
1.6530216e-15 -3.3358783e-15 1.9879937e-15 -2.9335436e-15 7.449192e-15 1.1165881e-14 -1.2382452e-14 -2.9278899e-15
4.6882062e-15 1.5923904e-15 -3.563143e-15 9.498966e-17 1.6113007e-15 -1.0188544e-14 -5.849918e-15 -5.3388025e-15
1.22845705e-14 4.2874737e-15 1.2075167e-14 -1.2109352e-14 -6.948024e-15 1.047386e-14 6.287158e-15 1.3934636e-15
1.7329996e-15 -2.259206e-15 1.1115142e-14 -7.457218e-15 5.172834e-15 -1.0292586e-14 1.8718247e-15 -5.1170815e-15
4.379828e-15 2.811822e-15 -3.3337834e-15 1.0968304e-15 6.6229748e-15 1.03913985e-14 -2.022737e-15 2.4640978e-15
-3.459077e-15 1.1370533e-14 -4.2645343e-15 -1.20403175e-14 -7.536683e-15 -4.5212655e-16 -6.618217e-15 -5.0236385e-15
1.15807065e-14 -6.960339e-15 -9.064427e-15 9.815315e-15 -1.008116e-14 5.912799e-15 3.261714e-15 -5.3669676e-15
8.5883356e-15 3.3654262e-15 3.737319e-15 1.23932685e-14 -6.6667363e-15 -1.0874369e-14 -3.623228e-15 -9.686473e-15
1.789906e-15 1.821545e-15 1.01872974e-14 4.9314517e-15 6.304783e-15 4.7306786e-15 -8.211813e-15 -1.0830865e-14
1.2004417e-14 -2.6654198e-15 -1.0341537e-14 8.020516e-15 9.317138e-15 6.9907814e-15 1.0615307e-15 -1.0433993e-14
7.305586e-15 -4.238364e-15 1.1774291e-16 1.1377881e-15 -1.0851312e-14 6.1680567e-15 -4.195498e-15 -3.7681955e-15
5.5367134e-15 -6.8004015e-15 -2.365638e-15 -1.2131207e-14 -8.056947e-15 1.1127468e-14 -4.474407e-15 -6.195872e-15
-1.0544843e-14 -3.443736e-15 -7.164748e-15 -1.1163621e-14 -1.1426496e-14 3.167097e-15 1.09963715e-14 -2.9486064e-15
-7.178655e-15 -9.846998e-15 -7.962317e-15 9.205203e-15 -1.1815032e-14 6.135223e-15 1.10089414e-14 -9.1202706e-15
4.075224e-15 7.423684e-15 -4.4888024e-16 8.4559765e-15 8.073995e-15 3.969266e-15 -9.093921e-15 -4.6008217e-15
7.784916e-15 -1.2421637e-14 -6.5227733e-15 -5.537061e-15 9.532317e-15 -1.1168091e-14 -6.428575e-15 -1.1149402e-14
-3.482861e-17 7.790333e-15 5.9599457e-15 -5.0861237e-15 -2.8338868e-15 4.826468e-15 9.614332e-15 -4.610364e-15
6.615212e-16 3.2730643e-15 1.835016e-15 -1.9589204e-15 1.3903809e-18 -1.2299889e-14 8.784566e-15 -5.206074e-15
8.704565e-15 -8.343821e-15 -7.15432e-15 6.971596e-16 6.7458916e-16 -3.3290995e-15 9.668089e-15 4.5171526e-15
8.766839e-15 -3.3525848e-15 -6.436562e-15 6.59004e-16 -5.2316007e-15 -6.5676826e-15 -9.337729e-16 -5.7513105e-15
-1.10432725e-14 1.028153e-14 -1.0262364e-14 -1.04455764e-14 -9.272014e-15 -1.0847639e-14 5.4032253e-16 -1.6203572e-15
-9.092453e-15 5.0232226e-15 -7.009487e-15 -2.3042538e-15 5.378579e-15 -2.3457356e-15 7.444753e-17 1.0984646e-14
00000000: d394 3aa8 f303 9427 fd6a a426 bf81 14a8
00000010: f0a3 f526 a58a 8c27 0744 00a8 c61c 3c27
00000020: 7138 9127 5dad 9da7 4477 b1a7 9bb7 daa7
00000030: db34 4028 64e5 6727 6209 5828 cb94 9da7
00000040: 1536 98a7 d2d6 2d28 5f65 5d28 7504 d5a7
00000050: 754f 5da7 2f0f cea7 a85f 47a8 e2b1 e727
00000060: 1853 8826 142a 3928 b942 9f27 6b63 bd26
00000070: 1a84 b7a7 60fb f4a7 40ab 0aa8 a440 5d28
00000080: a9a8 a1a7 0d13 1c27 a415 1aa8 ff4f 4ba8
00000090: 6f4a 26a8 4b4f c127 385b 3b28 412f 24a8
000000a0: b670 3728 5e7c 1826 0e8a c1a7 1001 4da8
000000b0: 0021 e027 26f6 5428 b9f0 a6a7 6b46 3ea8
000000c0: 962b cea7 4800 4628 bf33 6927 5d09 3b28
000000d0: f15f 94a7 5159 4ba7 b71e 4aa7 101a 2e28
000000e0: 79c5 3ea8 d658 8da7 cab3 4328 34ef 39a8
000000f0: 6303 cb27 7380 cf27 dbe5 34a8 e342 2728
00000100: ba76 e027 8a83 b927 9bf6 28a8 13f9 fba7
00000110: e068 4428 dc27 e227 0e01 c5a7 4527 4fa8
00000120: 721f 14a8 e11e 2c27 272b b5a7 de08 bca7
00000130: 6385 2c28 07b7 2d28 b8c8 c8a6 1e9f 5028
00000140: bc39 ee26 1860 70a7 0340 0f27 5462 53a7
00000150: 5631 0628 8a25 4928 fb0f 5fa8 09fa 52a7
00000160: 12e9 a827 d67c e526 3260 80a7 0008 db24
00000170: 8136 e826 5e8a 37a8 f8c3 d2a7 c359 c0a7
00000180: 954c 5d28 f778 9a27 e186 5928 8824 5aa8
00000190: 3654 faa7 27ae 3c28 cc84 e227 bcd1 c826
000001a0: 66c0 f926 ffca 22a7 8c3b 4828 5956 06a8
000001b0: f95e ba27 2d6a 39a8 12e1 0627 bf5c b8a7
000001c0: c8cc 9d27 f69c 4a27 7339 70a7 e611 9e26
000001d0: 299e ee27 de31 3b28 e9c0 11a7 958e 3127
000001e0: b540 79a7 54d5 4c28 63a5 99a7 2ae6 58a8
000001f0: d1c4 07a8 0d51 02a6 4772 eea7 e3fe b4a7
00000200: 959e 5028 ccc5 faa7 4b4a 23a8 27d1 3028
00000210: 259b 35a8 f207 d527 0108 6b27 8a5d c1a7
00000220: b5b6 1a28 2881 7227 afa6 8627 dd41 5f28
00000230: ca31 f0a7 2de5 43a8 618a 82a7 f97e 2ea8
00000240: f0f9 0027 9341 0327 9e84 3728 9dac b127
00000250: 5c27 e327 cf70 aa27 4eee 13a8 8c1c 43a8
00000260: 9a40 5828 5110 40a7 ec4b 3aa8 1a7c 1028
00000270: b7d7 2728 94de fb27 92fb 9826 4df6 3ba8
00000280: 129b 0328 02b4 98a7 93bf 0725 f9f8 a326
00000290: d87a 43a8 483a de27 a428 97a7 78c3 87a7
000002a0: 2b7b c727 a202 f5a7 5276 2aa7 5189 5aa8
000002b0: 1c24 11a8 6374 4828 1f35 a1a7 d53a dfa7
000002c0: 81f5 3da8 b725 78a7 9111 01a8 1d1b 49a8
000002d0: 69d7 4da8 a136 6427 d017 4628 3078 54a7
000002e0: b451 01a8 4363 31a8 b56f 0fa8 82d3 2528
000002f0: 38d7 54a8 720b dd27 c851 4628 d34b 24a8
00000300: 4fd3 9227 b3bb 0528 8461 01a6 4f54 1828
00000310: bb72 1128 0402 8f27 4fd2 23a8 17c3 a5a7
00000320: 973d 0c28 b1c4 5fa8 f701 eba7 607e c7a7
00000330: 0eb8 2b28 bb2f 49a8 249d e7a7 8bd9 48a8
00000340: 5d9e 20a4 9256 0c28 ccba d627 363f b7a7
00000350: fc33 4ca7 4fe4 ad27 4832 2d28 1a1b a6a7
00000360: a6ab 3e26 61d9 6b27 123a 0427 b427 0da7
00000370: 1b2f cd21 3a93 5da8 a93f 1e28 8f91 bba7
00000380: b9ce 1c28 154f 16a8 7ae1 00a8 4df1 4826
00000390: e56f 4226 0ce3 6fa7 312a 2e28 61bf a227
000003a0: e9ed 1d28 4694 71a7 cee6 e7a7 eaf1 3d26
000003b0: 007d bca7 2ea0 eca7 2492 86a6 7a36 cfa7
000003c0: 1bf0 46a8 3037 3928 cdde 38a8 b82b 3ca8
000003d0: 9e07 27a8 e869 43a8 c4bc 1b26 a184 e9a6
000003e0: 8acb 23a8 0dfb b427 1b8b fca7 fb09 26a7
000003f0: a3c8 c127 2f07 29a7 11aa ab24 bde1 4528

mixer_1.Self_Attention_0.k.bias f4 [48]
-5.956248e-15 2.307991e-15 -7.806814e-15 -3.6553914e-15 -1.9421843e-15 7.2240255e-15 3.8925895e-15 1.003572e-14
1.68083e-16 2.9385333e-15 -2.847243e-15 -8.541283e-15 1.054631e-14 -7.0895637e-15 -6.0559053e-15 7.8600163e-16
1.077032e-14 -1.040488e-14 4.382557e-15 6.9003573e-15 -3.177831e-15 3.443847e-15 -6.820909e-15 3.550204e-15
-5.280038e-15 -8.5447735e-15 -4.689935e-15 -5.3020137e-15 -1.3145803e-15 -1.1571539e-14 5.7103904e-15 1.0764822e-14
2.221047e-15 -9.693687e-15 -3.1516883e-15 -1.01088054e-14 9.238646e-15 7.42378e-15 -3.7734195e-15 -1.5442236e-15
1.0530412e-14 -1.4383257e-15 8.799313e-15 7.5799555e-15 -8.962441e-15 6.200505e-15 1.22079835e-14 7.326705e-15
00000000: b198 d6a7 eb4e 2627 93a2 0ca8 09b3 83a7
00000010: faf2 0ba7 f022 0228 cd3e 8c27 97c9 3428
00000020: 58c9 4125 5fbe 5327 5d2a 4da7 b7dd 19a8
00000030: 45fc 3d28 af6d ffa7 de2f daa7 af8c 6226
00000040: 5605 4228 0a70 3ba8 f4e5 9d27 909c f827
00000050: a3fc 64a7 c427 7827 c8bf f5a7 b4d1 7f27
00000060: c13b bea7 d0ed 19a8 04f9 a8a7 7206 bfa7
00000070: 7473 bda6 4e74 50a8 0ebd cd27 fbeb 4128
00000080: 160b 2027 3ea0 2ea8 631a 63a7 a31a 36a8
00000090: bc6d 2628 24bc 0528 a7f3 87a7 cc8b dea6
000000a0: f4b2 3d28 da48 cfa6 ab83 1e28 608c 0828
000000b0: f773 21a8 9065 df27 63eb 5b28 77fc 0328

mixer_1.Self_Attention_0.v.weight f4 [48, 48]
-2.2000016e-15 6.6766927e-15 2.0387522e-15 -4.7246794e-16 -7.643701e-15 -7.882584e-15 -1.1758799e-14 -5.510609e-15
3.5343263e-15 -7.840586e-15 -7.0789436e-15 6.2366765e-15 -3.2817845e-15 -1.3905449e-14 -5.9724344e-15 7.833788e-15
1.2040019e-14 -5.7381332e-15 -7.616479e-16 9.391679e-15 -5.932228e-15 -8.404843e-15 6.382915e-16 7.114649e-15
-3.2339646e-15 -4.0829284e-15 6.5147477e-15 -1.2306368e-14 -7.351281e-15 1.0653034e-14 1.2279447e-15 2.0821434e-15
3.7410163e-15 4.0342837e-16 -1.1376889e-14 -7.263279e-15 5.471086e-15 1.1660433e-14 1.3295173e-14 3.6971557e-15
-1.0075622e-14 -1.0136262e-14 1.7102408e-15 7.672949e-15 1.256697e-14 -1.0143842e-14 1.5164065e-17 -4.3269636e-15
-9.125536e-15 -1.2056669e-14 1.0804537e-14 2.1251112e-15 3.320215e-15 7.35904e-15 1.0390098e-14 -1.1803067e-14
-9.934525e-15 -7.865126e-15 -1.21552845e-14 -5.667074e-16 1.2531181e-14 1.0131361e-14 -1.3077395e-14 -7.4741755e-15
3.4436013e-16 2.5860411e-15 8.894444e-15 4.1235766e-15 1.2380757e-14 -2.7124625e-15 -6.9245464e-15 -1.101724e-14
6.256097e-15 5.3997635e-15 2.9830207e-15 -6.671594e-15 -5.6005746e-15 -1.2763791e-15 6.2341163e-15 -2.0141317e-15
-8.038968e-15 -4.5446634e-15 8.160484e-15 1.3027979e-15 -4.4662713e-15 9.230991e-15 7.432411e-15 1.167285e-14
8.346187e-15 2.056106e-15 -5.5968994e-15 3.3966294e-15 1.05890155e-14 9.462862e-15 -8.34382e-15 3.777466e-15
5.459522e-15 8.825706e-15 4.2081956e-15 5.43751e-15 9.70949e-15 -7.542066e-15 -3.4013764e-15 -8.282315e-15
-4.2107537e-15 3.830615e-15 -2.2167803e-15 4.672526e-16 -1.23341905e-14 2.287585e-15 -5.8474526e-15 -5.8596184e-18
-8.247566e-15 2.219198e-15 -5.1520673e-15 -2.501214e-15 9.27771e-16 1.2607374e-14 7.687304e-16 -7.237549e-15
-4.9380893e-16 2.9584214e-15 -1.7131793e-15 3.805346e-15 -6.0690296e-15 3.740907e-15 7.8587674e-16 1.2366999e-16
-1.0695146e-14 -5.0346978e-15 -4.955008e-15 1.6377735e-15 -4.3815e-15 -8.840535e-15 7.151768e-15 -3.0928739e-15
1.950769e-15 -3.0110814e-16 4.397083e-15 -3.822029e-15 1.1704365e-14 -7.4268886e-16 8.365725e-15 3.1335408e-15
1.400785e-15 -1.1244747e-14 7.701897e-15 -7.5235055e-16 -5.058051e-16 -1.0836657e-14 -7.519558e-15 8.774392e-15
-3.108737e-15 -1.0956232e-14 5.1143987e-16 5.639826e-15 -5.154906e-15 -4.3634292e-15 -9.029887e-15 -8.394128e-15
2.173754e-15 1.6504797e-15 -6.580016e-15 9.62676e-15 1.0946543e-14 1.964123e-15 8.675743e-15 -6.063015e-15
5.6510174e-16 -3.1795167e-15 -1.0906478e-14 1.0655855e-14 6.1914115e-15 5.0697315e-15 -1.20769754e-14 -1.3532186e-15
-9.648894e-15 2.5969698e-15 4.5289573e-15 1.2070644e-14 2.0423061e-15 1.3761695e-15 9.902484e-15 -1.0466989e-15
6.017595e-15 9.715883e-15 4.5682126e-15 -1.9072992e-15 -9.413895e-15 -9.91584e-15 1.1566462e-14 -1.9962657e-15
-1.6648769e-15 4.233836e-15 4.683226e-15 5.95948e-15 -4.1945986e-15 -6.6473443e-15 -7.0202e-15 -3.3365066e-15
-1.2294134e-14 1.251043e-14 7.901117e-15 6.277259e-15 -9.53183e-15 -3.3372283e-15 8.797993e-15 2.7210478e-15
-5.718882e-15 9.9250535e-15 3.0077011e-15 -4.743662e-15 -6.9164213e-15 1.1789413e-14 -1.2513006e-14 1.0362373e-15
-2.3791472e-15 -7.261084e-16 2.299365e-15 -1.0277203e-14 4.2139394e-15 3.074381e-16 -6.2129943e-15 -8.799857e-15
-5.0119117e-15 -2.50452e-15 -2.6423338e-16 -9.7009404e-15 8.493898e-15 -1.1208315e-14 -1.1075769e-14 -4.2274766e-15
-1.6382442e-15 1.0239895e-14 -1.3434584e-14 -4.7751377e-15 -1.2698013e-14 -1.4387865e-15 2.1621554e-15 -1.14617136e-14
1.1134723e-14 -1.1924586e-14 1.1366959e-15 -6.037094e-15 -2.7239824e-15 -1.1412747e-14 -1.2501279e-14 2.8202993e-15
9.321854e-15 1.3099089e-15 1.0951157e-14 6.989549e-15 9.868833e-15 3.2389903e-15 2.5658746e-15 -9.050534e-15
00000000: de86 1ea7 9f8d f027 57e8 1227 fb2d 08a6
00000010: 59b2 09a8 0100 0ea8 e4d3 53a8 668a c6a7
00000020: d0ac 7e27 523e 0da8 bb0b ffa7 30b3 e027
00000030: 3d7a 6ca7 917f 7aa8 fc2d d7a7 f81e 0d28
00000040: cae4 5828 f0bc cea7 b287 5ba6 7a2f 2928
00000050: 25bb d5a7 7f68 17a8 9af9 3726 872a 0028
00000060: 1e08 69a7 5e1a 93a7 f1b7 ea27 1bb1 5da8
00000070: cd6d 04a8 73e8 3f28 2af7 b026 c408 1627
00000080: c9c8 8627 858f e825 a4f2 4ca8 f6d7 02a8
00000090: dd1d c527 410e 5228 2a81 6f28 3e34 8527
000000a0: 9b81 35a8 4299 36a8 c078 f626 3b39 0a28
000000b0: eb62 6228 37bc 36a8 23dd 8b23 32e5 9ba7
000000c0: 1b64 24a8 9231 59a8 22a3 4228 6221 1927
000000d0: 283f 6f27 9591 0428 df2b 3b28 0aa0 54a8
000000e0: e9f6 32a8 7eaf 0da8 5bf8 5aa8 a057 23a6
000000f0: dfbd 6128 a882 3628 d794 6ba8 8da4 06a8
00000100: 9682 c625 0a58 3a27 623a 2028 4891 9427
00000110: 2a08 5f28 1a74 43a7 ab7b f9a7 0d78 46a8
00000120: 4f66 e127 078c c227 05f3 5627 985e f0a7
00000130: 2fc8 c9a7 14f2 b7a6 939b e027 2c22 11a7
00000140: 32d1 10a8 1fbd a3a7 9701 1328 c2c0 bb26
00000150: 15ea a0a7 6f4a 2628 f2e3 0528 8547 5228
00000160: fe59 1628 7628 1427 49a6 c9a7 c1c0 7427
00000170: 37c1 3e28 c077 2a28 144f 16a8 f918 8827
00000180: 34b3 c427 63fd 1e28 c19d 9727 2de8 c327
00000190: 1fe9 2e28 a4dd 07a8 5218 75a7 7033 15a8
000001a0: 59b5 97a7 3003 8a27 61bc 1fa7 28ad 0626
000001b0: 6a31 5ea8 7fd6 2427 3bad d2a7 882e d8a2
000001c0: 2f93 14a8 fae8 1f27 6f9f b9a7 413b 34a7
000001d0: b5b4 8526 401d 6328 4b92 5d26 4e61 02a8
000001e0: ab54 0ea6 3e2d 5527 29e5 f6a6 1f1a 8927
000001f0: eba8 daa7 c7c7 8627 7883 6226 f094 0e25
00000200: a8aa 40a8 e464 b5a7 e285 b2a7 2d07 ec26
00000210: 34dc 9da7 c641 1fa8 b5d5 0028 74dd 5ea7
00000220: 5691 0c27 b893 ada5 ef6b 9e27 ffb3 89a7
00000230: dbd8 5228 c410 56a6 19b4 1628 a0cb 6127
00000240: d8df c926 3e91 4aa8 bbbe 0a28 acd9 58a6
00000250: d4c9 11a6 4237 43a8 d775 07a8 be10 1e28
00000260: 1302 60a7 b45e 45a8 9a69 1326 3732 cb27
00000270: 9eb9 b9a7 8835 9da7 01ab 22a8 1537 17a8
00000280: afa2 1c27 f4db ed26 f011 eda7 986b 2d28
00000290: 0532 4528 ad87 0d27 cd49 1c28 7171 daa7
000002a0: 26e1 2226 bb1b 65a7 4179 44a8 75f5 3f28
000002b0: b111 df27 05a8 b627 388f 59a8 f404 c3a6
000002c0: abd1 2da8 a321 3b27 422c a327 0572 5928
000002d0: e629 1327 b153 c626 2663 3228 60d8 96a6
000002e0: 84ce d827 9a06 2f28 5396 a427 766f 09a7
000002f0: ee95 29a8 bea0 32a8 e45c 5028 9ad8 0fa7
00000300: 1eef efa6 3f8a 9827 23bb a827 80b6 d627
00000310: 5820 97a7 ee7e efa7 ebed fca7 af6b 70a7
00000320: b078 5da8 2d5e 6128 7955 0e28 7f29 e227
00000330: cfb5 2ba8 ff78 70a7 957d 1e28 7912 4427
00000340: 600b cea7 3bcb 3228 4bba 5827 8fe8 aaa7
00000350: ba30 f9a7 1261 5428 0e6a 61a8 6956 9526
00000360: 856f 2ba7 5849 51a6 ccaf 2527 3c23 39a8
00000370: bbd2 9727 db39 b125 c2d8 dfa7 2d86 1ea8
00000380: ba92 b4a7 3d78 34a7 f751 98a5 b1c1 2ea8
00000390: 3103 1928 3be9 49a8 f885 47a8 974f 98a7
000003a0: 8b18 eca6 2e77 3828 1504 72a8 df0a aca7
000003b0: 40bf 64a8 da59 cfa6 bacc 1b27 d379 4ea8
000003c0: d995 4828 72d0 56a8 add0 a326 5d82 d9a7
000003d0: 9b48 44a7 0198 4da8 f933 61a8 5739 4b27
000003e0: 77ed 2728 1cc7 bc26 4c47 4528 36d3 fb27
000003f0: f6c7 3128 d364 6927 08e4 3827 390a 23a8

mixer_1.Self_Attention_0.v.bias f4 [48]
-6.1298457e-15 -4.493397e-15 1.0881472e-14 -6.6081817e-15 -7.2446076e-15 1.9110063e-15 1.5092155e-14 -2.2104638e-14
-7.678291e-15 1.16113114e-14 -3.1131292e-15 1.841088e-15 -1.0010194e-14 -1.6187835e-14 -1.4272068e-14 3.30916e-15
-4.3672235e-15 -2.243234e-15 -1.36680514e-14 1.1445965e-14 -8.917746e-15 1.906279e-14 6.8011058e-15 1.4502376e-14
3.6523338e-16 4.3457047e-15 -5.6724077e-15 -8.5924425e-16 4.868876e-15 1.5868095e-15 -9.308251e-15 1.3517745e-14
1.1457076e-15 1.1312532e-14 -6.71632e-15 1.3531478e-14 -8.687883e-15 1.4730052e-14 -2.1083196e-15 -1.6516716e-15
-1.6336416e-14 -3.0198766e-15 2.8419332e-15 -7.505737e-15 -3.3170976e-14 8.116463e-15 1.4694812e-14 -4.520421e-16
00000000: d9d9 dca7 46e4 a1a7 ef05 4428 b815 eea7
00000010: db81 02a8 d8b3 0927 24f0 8728 d319 c7a8
00000020: de51 0aa8 b92b 5128 1953 60a7 14aa 0427
00000030: df53 34a8 9bce 91a8 268d 80a8 3a73 6e27
00000040: 8758 9da7 5da4 21a7 c338 76a8 3231 4e28
00000050: d8a5 20a8 cdb3 ab28 2109 f527 34a0 8228
00000060: ef8a d225 0d92 9c27 ba5e cca7 09a9 77a6
00000070: 746b af27 f0ae e426 bbae 27a8 9883 7328
00000080: 261d a526 d8c9 4b28 1efb f1a7 eec2 7328
00000090: ca81 1ca8 30ad 8428 a2eb 17a7 ed07 eea6
000000a0: 3625 93a8 e49a 59a7 6ac8 4c27 1a36 07a8
000000b0: 8863 15a9 9436 1228 ee5b 8428 d24a 02a6

mixer_1.ChannelMixer.mlp.0.weight f4 [48, 48]
1.5395169e-15 4.2170298e-15 -6.4457712e-15 1.1051135e-14 2.9706078e-16 -4.8601044e-15 7.4103465e-15 -1.0819125e-14
6.726317e-15 -4.992401e-15 -8.705812e-15 7.695549e-15 -9.771084e-15 -4.95995e-15 -3.120748e-15 5.9619485e-15
-3.2912003e-15 -1.0918492e-14 -6.4247364e-15 -1.0522451e-14 -4.3534258e-15 1.2036065e-14 3.8241108e-16 7.69981e-15
-1.6608771e-15 1.16184325e-14 -9.5168954e-15 -3.3374877e-16 -1.0257684e-14 5.3933912e-15 -6.345355e-15 -1.24625076e-14
-3.3304736e-15 8.7325895e-15 -1.1415749e-14 -1.0687275e-14 -1.1117064e-14 -3.7821525e-15 6.9523516e-15 -8.409072e-15
4.130949e-15 4.0760767e-15 8.026099e-15 -1.0936603e-14 5.8883215e-15 -6.045532e-15 2.3925127e-15 1.1037351e-14
-5.0524224e-15 6.3696424e-15 -8.705651e-15 -2.9879536e-15 -1.1418642e-14 -1.22733854e-14 1.2530496e-15 5.042389e-15
1.0276389e-14 5.620727e-15 2.1404853e-15 -1.382166e-15 -9.537319e-15 9.617113e-15 -1.9734377e-15 1.0128361e-14
4.220534e-15 -1.3476376e-14 7.734308e-15 2.8115956e-15 -6.6352813e-15 -7.1164074e-15 -2.2110993e-15 -6.1924296e-15
-9.406956e-15 -9.116951e-15 9.547155e-15 9.797032e-16 1.0262112e-14 2.7660674e-15 -8.925639e-15 -9.477495e-15
-1.0284863e-14 8.163648e-15 -4.6246614e-15 -1.0054516e-14 1.3219693e-15 -3.774814e-15 3.4976716e-15 -4.763093e-15
-2.5494692e-15 -6.14693e-15 -1.0120346e-14 -3.1614344e-15 1.2730175e-15 -1.25307e-14 -9.4043874e-15 -3.6076367e-16
1.0164251e-14 -6.385812e-15 8.8580275e-15 2.3315802e-15 9.044184e-15 -4.1265993e-15 7.5374396e-15 1.0054353e-15
1.043102e-14 3.3070377e-15 8.612863e-15 2.149455e-15 2.949862e-15 -3.0385715e-15 6.729054e-16 -1.0321162e-14
-1.3931903e-15 8.796925e-15 -7.3709405e-16 2.3716006e-15 -8.4851864e-15 1.3586018e-16 -1.0160817e-14 -5.3446496e-15
1.2900625e-15 -5.8684217e-15 -2.5868725e-15 1.0422239e-14 5.986487e-15 -5.7356413e-15 8.626483e-15 6.205592e-15
-1.20403014e-14 1.2002179e-14 -1.155739e-14 -7.036596e-15 1.24403754e-14 -4.718135e-15 -8.506212e-15 1.3430382e-14
1.0720087e-14 6.140028e-15 -7.893531e-15 -7.195504e-15 -8.588507e-15 1.1535846e-14 5.8588854e-15 -8.00492e-15
-1.2093941e-14 8.081694e-15 6.2133e-16 3.9472553e-15 5.4434987e-15 -9.70384e-16 1.2333304e-14 3.6807004e-15
5.0724157e-15 -1.5149361e-15 -3.825482e-15 -4.57333e-15 -5.3270296e-15 -6.9852245e-15 1.16619174e-14 1.2921739e-14
3.9434373e-15 -4.34701e-15 -1.1131994e-14 -3.218451e-16 3.704007e-15 -1.2344757e-15 -4.9688566e-15 -5.275676e-15
2.261347e-15 1.1705358e-14 8.254424e-15 1.9349443e-15 -3.5460052e-15 2.0786637e-15 -3.0509032e-15 -4.7694837e-15
-1.4089203e-14 -6.6441256e-15 2.6468842e-15 1.2341322e-14 9.636178e-15 -1.0683145e-14 3.2869183e-15 -5.4585827e-15
7.157229e-15 -3.4105341e-15 -1.0980133e-14 3.42018e-15 1.4683119e-16 6.618042e-15 -1.2952673e-14 1.0859488e-14
-8.8509175e-15 2.0656584e-15 -1.14490055e-14 1.2033245e-14 -5.097312e-15 4.2426906e-15 8.382471e-15 1.5014559e-14
-2.4244472e-15 -1.2492551e-15 -1.1502096e-14 3.9303138e-15 -4.130829e-15 1.2716288e-14 3.4803496e-16 1.0896156e-14
2.5580639e-15 4.9071617e-15 1.0880732e-14 -5.403624e-15 8.949356e-15 -1.7854112e-15 -1.5779942e-15 7.429286e-15
-5.2321257e-16 9.749263e-15 -6.3615503e-15 5.8572765e-15 -4.962478e-15 -1.12407015e-14 9.220651e-15 -1.3333389e-14
8.949115e-15 9.65368e-15 -1.5754655e-15 1.3771971e-15 3.7640116e-15 -3.1855363e-15 -5.9211326e-15 -5.86917e-15
-3.3451339e-15 -8.0426625e-15 -2.4863382e-15 -1.1683573e-15 -9.861316e-15 4.626853e-15 3.7752174e-15 -8.45292e-15
1.918598e-16 -5.957757e-15 1.40878876e-14 5.119683e-16 1.3129588e-15 6.4336904e-15 -1.321225e-14 -5.718099e-15
-7.867216e-15 -8.473244e-15 9.386929e-15 -7.465627e-15 9.406608e-15 9.217571e-16 -1.2487226e-14 -7.7207765e-15
00000000: 26de dd26 3cef 9727 bf3b e8a7 5d14 4728
00000010: 6f3e ab25 8d1a afa7 317e 0528 68e6 42a8
00000020: 5357 f227 c6de b3a7 79d4 1ca8 75a1 0a28
00000030: 2c05 30a8 77b3 b2a7 a4df 60a7 45cd d627
00000040: ee27 6da7 a8b0 44a8 bc79 e7a7 3d8e 3da8
00000050: 44d9 9ca7 8dd2 5828 ea71 dc25 1bb5 0a28
00000060: 8d5b efa6 904c 5128 ef70 2ba8 a064 c0a5
00000070: 38c9 38a8 4151 c227 929d e4a7 2c81 60a8
00000080: 65fc 6fa7 f64f 1d28 daa5 4da8 5b86 40a8
00000090: 6944 48a8 3344 88a7 207c fa27 007c 17a8
000000a0: 48d5 9427 2cdb 9227 d995 1028 2e04 45a8
000000b0: 2e26 d427 31d0 d9a7 1266 2c27 ccd4 4628
000000c0: 5f08 b6a7 957d e527 bbd3 1ca8 044e 57a7
000000d0: 31b3 4da8 0019 5da8 5f95 b426 d4ab b527
000000e0: 7b1f 3928 0e82 ca27 fc3c 1a27 ed30 c7a6
000000f0: 1fcf 2ba8 1b3f 2d28 8033 0ea7 d274 3628
00000100: 8e0f 9827 d1c4 72a8 3354 0b28 c998 4a27
00000110: ab0f efa7 a332 00a8 9553 1fa7 151b dfa7
00000120: ed75 29a8 843c 24a8 7bfc 2b28 ab30 8d26
00000130: a3dd 3828 f050 4727 3fca 20a8 3bbb 2aa8
00000140: 8f46 39a8 2e10 1328 f99e a6a7 4520 35a8
00000150: 0f84 be26 8400 88a7 a708 7c27 c79b aba7
00000160: 68b5 37a7 6c77 dda7 dc4f 36a8 2cce 63a7
00000170: 0e76 b726 a7bb 61a8 156a 29a8 52f7 cfa5
00000180: 561a 3728 b812 e6a7 7192 1f28 1002 2827
00000190: f0ec 2228 29ad 94a7 4ec8 0728 04e6 9026
000001a0: 97e8 3b28 144c 6e27 d227 1b28 72e2 1a27
000001b0: 598f 5427 c0f3 5aa7 a8f3 4126 f5ed 39a8
000001c0: a6c7 c8a6 a878 1e28 f173 54a6 4fe4 2a27
000001d0: 04db 18a8 d9a2 1c25 7f0a 37a8 b18f c0a7
000001e0: e8ea b926 a36e d3a7 6067 3aa7 18c0 3b28
000001f0: 99af d727 f4a5 cea7 a266 1b28 7c94 df27
00000200: 17e6 58a8 4836 5828 0e33 50a8 2585 fda7
00000210: 1b1b 6028 1dfd a9a7 fb3b 19a8 b4f0 7128
00000220: ad1d 4128 c337 dd27 7d32 0ea8 689f 01a8
00000230: 7fb7 1aa8 b3cf 4f28 ae16 d327 2d34 10a8
00000240: 75dd 59a8 3c96 1128 1016 3326 0137 8e27
00000250: 6a1f c427 dad8 8ba6 532d 5e28 789c 8427
00000260: c7c0 b627 4753 daa6 d8d3 89a7 86c5 a4a7
00000270: 2ded bfa7 53ab fba7 1a15 5228 01c7 6828
00000280: ca13 8e27 179e 9ca7 4389 48a8 f487 b9a5
00000290: 6f73 8527 1de8 b1a6 9d05 b3a7 8613 bea7
000002a0: 7df2 2227 70dd 5228 d0b2 1428 6c6d 0b27
000002b0: 4084 7fa7 94c8 1527 3bd7 5ba7 b9d6 aba7
000002c0: fbce 7da8 3e61 efa7 65ba 3e27 4d52 5e28
000002d0: 0797 2d28 4f73 40a8 f1d8 6c27 8aaa c4a7
000002e0: e5ee 0028 40c1 75a7 edcc 45a8 2f73 7627
000002f0: eb48 2925 aa70 ee27 a955 69a8 8da0 4328
00000300: a771 1fa8 acd8 1427 383f 4ea8 8cc5 5828
00000310: 68a6 b7a7 eadb 9827 5301 1728 373d 8728
00000320: 28b3 2ea7 6109 b4a6 0e34 4fa8 bf9a 8d27
00000330: 2cd4 94a7 8713 6528 e5a0 c825 a649 4428
00000340: f353 3827 94cc b027 8502 4428 a2af c2a7
00000350: 9f37 2128 06a7 00a7 b669 e3a6 89d5 0528
00000360: 46ce 16a6 8aa0 2f28 f232 e5a7 d707 d327
00000370: c8ca b2a7 967e 4aa8 bf1a 2628 6731 70a8
00000380: 8236 2128 bee7 2d28 6b0c e3a6 9b79 c626
00000390: e19c 8727 c68a 65a7 cf54 d5a7 8a75 d3a7
000003a0: d40a 71a7 3ce2 10a8 d828 33a7 c760 a8a6
000003b0: 4ba5 31a8 30b3 a627 3c04 8827 3746 18a8
000003c0: 0533 5d25 9ca6 d6a7 eac8 7d28 9890 1326
000003d0: a137 bd26 52cc e727 c002 6ea8 2804 cea7
000003e0: 21b9 0da8 f1a3 18a8 9219 2928 217d 06a8
000003f0: 5374 2928 d6d6 8426 2af3 60a8 cc15 0ba8

mixer_1.ChannelMixer.mlp.0.bias f4 [48]
1.97281e-11 -1.7306158e-10 -1.7628665e-14 0.0029461195 -1.2235967e-13 1.4455334e-09 -1.6118713e-06 -9.501889e-11
-7.674107e-07 -1.5680422e-08 -3.042851e-07 1.4465672e-08 9.001971e-09 3.8374437e-06 -4.715523e-07 -1.6634384e-12
4.4144926e-07 -1.0888052e-10 8.4338996e-14 -2.7939363e-06 1.3452199e-06 3.339853e-14 -1.2724969e-11 6.420755e-06
3.124244e-13 -0.0002666082 1.5974694e-09 4.5210334e-05 9.794678e-13 5.420308e-07 0.005520849 -1.5191788e-10
0.027109753 -1.012797e-05 2.923126e-11 6.571778e-09 0.00660581 1.3737415e-11 4.7922196e-05 -1.4335612e-09
1.0614585e-12 0.00019913322 2.233679e-11 -2.736725e-08 7.77459e-11 -4.5651123e-07 -1.1669387e-11 -0.0032083972
00000000: bb87 ad2d 8148 3eaf efc8 9ea8 af13 413b
00000010: c6c3 09aa 2fac c630 7a57 d8b5 e1f2 d0ae
00000020: 1000 4eb5 9db1 86b2 a05c a3b4 b384 7832
00000030: 16a7 1a32 64c3 8036 a829 fdb4 af1b eaab
00000040: 5300 ed34 496e efae 1fea bd29 767f 3bb6
00000050: 678d b435 e269 1629 2adc 5fad de71 d736
00000060: 1ae1 af2a 8cc7 8bb9 f58d db30 3aa0 3d38
00000070: 0cd9 892b 1380 1135 3de8 b43b 1509 27af
00000080: 4615 de3c 4deb 29b7 798f 002e f8cd e131
00000090: 8d75 d83b d1ab 712d 1100 4938 f306 c5b0
000000a0: 1363 952b 6bce 5039 fb79 c42d 3815 ebb2
000000b0: 0df7 aa2e 6d16 f5b4 3f4a 4dad f943 52bb
